SNN_Codes/Spiking_codes_real/Trained_SNN/rudder_1.pt (torch, 491660 bytes, 505 tensors)

x f4 [1, 24]
000000 00 00 00 00 00 00 00 00 00 00 00 00 00 00 00 00
       0.0 0.0 0.0 0.0
000010 00 00 00 00 00 00 00 00 5d 57 5c 3f 5d 57 5c 3f
       0.0 0.0 0.86070806 0.86070806
000020 e4 08 48 2d 6d 4a 52 2d 0a 00 00 00 0a 00 00 00
       1.1370658e-11 1.1953644e-11 1.4e-44 1.4e-44
000030 0a 00 00 00 0a 00 00 00 0a 00 00 00 0a 00 00 00
       1.4e-44 1.4e-44 1.4e-44 1.4e-44
000040 00 00 00 00 00 00 00 00 00 00 00 00 00 00 00 00
       0.0 0.0 0.0 0.0
000050 00 00 00 00 00 00 00 00 00 00 00 00 00 00 00 00
       0.0 0.0 0.0 0.0

w f4 [24, 1]
000000 00 00 20 41 00 00 20 41 00 00 20 41 00 00 20 41
       10.0 10.0 10.0 10.0
000010 8b 9d 06 41 72 89 18 41 6b 3a 1b 40 34 45 d9 40
       8.413463 9.533556 2.4254405 6.7896976
000020 74 7a 90 3f 55 c0 a1 3f 11 3f d8 3e 3d d6 a5 3e
       1.128737 1.263682 0.42235616 0.32390013
000030 bc 11 00 00 bc 11 00 00 91 02 24 2f 3b e2 18 2f
       6.362e-42 6.362e-42 1.4916625e-10 1.3904693e-10
000040 fb 68 09 41 64 f1 f2 40 28 28 8e 40 ae 98 80 40
       8.58813 7.5919666 4.442402 4.0186377
000050 8d e5 eb 3f 6c 87 fb 40 9b 42 8b 3f 45 81 4f 40
       1.8429428 7.860281 1.0879701 3.242265

nu f4 [2]
000000 00 00 80 3f 00 00 80 3f
       1.0 1.0

p_plus f4 [1, 24]
000000 0a 00 00 00 0a 00 00 00 0a 00 00 00 0a 00 00 00
       1.4e-44 1.4e-44 1.4e-44 1.4e-44
000010 0a 00 00 00 0a 00 00 00 0a 00 00 00 0a 00 00 00
       1.4e-44 1.4e-44 1.4e-44 1.4e-44
000020 69 00 00 00 8f 00 00 00 0a 00 00 00 0a 00 00 00
       1.47e-43 2e-43 1.4e-44 1.4e-44
000030 0a 00 00 00 0a 00 00 00 bb ab 97 40 6e 7a a7 40
       1.4e-44 1.4e-44 4.739713 5.233695
000040 00 00 00 00 00 00 00 00 00 00 00 00 00 00 00 00
       0.0 0.0 0.0 0.0
000050 00 00 00 00 00 00 00 00 00 00 00 00 00 00 00 00
       0.0 0.0 0.0 0.0

eligibility f4 [1, 24, 1]
000000 00 00 00 00 00 00 00 00 00 00 00 00 00 00 00 00
       0.0 0.0 0.0 0.0
000010 00 00 00 00 00 00 00 00 00 00 00 00 00 00 00 00
       0.0 0.0 0.0 0.0
000020 00 00 00 00 00 00 00 00 00 00 00 00 00 00 00 00
       0.0 0.0 0.0 0.0
000030 00 00 00 00 00 00 00 00 00 00 00 00 0a 00 00 80
       0.0 0.0 0.0 -1.4e-44
000040 00 00 00 00 00 00 00 00 00 00 00 00 00 00 00 00
       0.0 0.0 0.0 0.0
000050 00 00 00 00 00 00 00 00 00 00 00 00 00 00 00 00
       0.0 0.0 0.0 0.0

w f4 [1, 24, 1]
000000 00 00 20 41 00 00 20 41 00 00 20 41 00 00 20 41
       10.0 10.0 10.0 10.0
000010 8b 9d 06 41 72 89 18 41 6b 3a 1b 40 34 45 d9 40
       8.413463 9.533556 2.4254405 6.7896976
000020 74 7a 90 3f 55 c0 a1 3f 11 3f d8 3e 3d d6 a5 3e
       1.128737 1.263682 0.42235616 0.32390013
000030 bc 11 00 00 bc 11 00 00 91 02 24 2f 3b e2 18 2f
       6.362e-42 6.362e-42 1.4916625e-10 1.3904693e-10
000040 fb 68 09 41 64 f1 f2 40 28 28 8e 40 ae 98 80 40
       8.58813 7.5919666 4.442402 4.0186377
000050 8d e5 eb 3f 6c 87 fb 40 9b 42 8b 3f 45 81 4f 40
       1.8429428 7.860281 1.0879701 3.242265

w f4 [1, 24, 1]
000000 00 00 20 41 00 00 20 41 00 00 20 41 00 00 20 41
       10.0 10.0 10.0 10.0
000010 8b 9d 06 41 72 89 18 41 6b 3a 1b 40 34 45 d9 40
       8.413463 9.533556 2.4254405 6.7896976
000020 74 7a 90 3f 55 c0 a1 3f 11 3f d8 3e 3d d6 a5 3e
       1.128737 1.263682 0.42235616 0.32390013
000030 bc 11 00 00 bc 11 00 00 91 02 24 2f 3b e2 18 2f
       6.362e-42 6.362e-42 1.4916625e-10 1.3904693e-10
000040 fb 68 09 41 64 f1 f2 40 28 28 8e 40 ae 98 80 40
       8.58813 7.5919666 4.442402 4.0186377
000050 8d e5 eb 3f 6c 87 fb 40 9b 42 8b 3f 45 81 4f 40
       1.8429428 7.860281 1.0879701 3.242265

w f4 [1, 24, 1]
000000 00 00 20 41 00 00 20 41 00 00 20 41 00 00 20 41
       10.0 10.0 10.0 10.0
000010 8b 9d 06 41 72 89 18 41 6b 3a 1b 40 34 45 d9 40
       8.413463 9.533556 2.4254405 6.7896976
000020 74 7a 90 3f 55 c0 a1 3f 11 3f d8 3e 3d d6 a5 3e
       1.128737 1.263682 0.42235616 0.32390013
000030 bc 11 00 00 bc 11 00 00 91 02 24 2f 3b e2 18 2f
       6.362e-42 6.362e-42 1.4916625e-10 1.3904693e-10
000040 fb 68 09 41 64 f1 f2 40 28 28 8e 40 ae 98 80 40
       8.58813 7.5919666 4.442402 4.0186377
000050 8d e5 eb 3f 6c 87 fb 40 9b 42 8b 3f 45 81 4f 40
       1.8429428 7.860281 1.0879701 3.242265

w f4 [1, 24, 1]
000000 00 00 20 41 00 00 20 41 00 00 20 41 00 00 20 41
       10.0 10.0 10.0 10.0
000010 8b 9d 06 41 72 89 18 41 6b 3a 1b 40 34 45 d9 40
       8.413463 9.533556 2.4254405 6.7896976
000020 74 7a 90 3f 55 c0 a1 3f 11 3f d8 3e 3d d6 a5 3e
       1.128737 1.263682 0.42235616 0.32390013
000030 bc 11 00 00 bc 11 00 00 91 02 24 2f 3b e2 18 2f
       6.362e-42 6.362e-42 1.4916625e-10 1.3904693e-10
000040 fb 68 09 41 64 f1 f2 40 28 28 8e 40 ae 98 80 40
       8.58813 7.5919666 4.442402 4.0186377
000050 8d e5 eb 3f 6c 87 fb 40 9b 42 8b 3f 45 81 4f 40
       1.8429428 7.860281 1.0879701 3.242265

w f4 [1, 24, 1]
000000 00 00 20 41 00 00 20 41 00 00 20 41 00 00 20 41
       10.0 10.0 10.0 10.0
000010 8b 9d 06 41 72 89 18 41 6b 3a 1b 40 34 45 d9 40
       8.413463 9.533556 2.4254405 6.7896976
000020 74 7a 90 3f 55 c0 a1 3f 11 3f d8 3e 3d d6 a5 3e
       1.128737 1.263682 0.42235616 0.32390013
000030 bc 11 00 00 bc 11 00 00 91 02 24 2f 3b e2 18 2f
       6.362e-42 6.362e-42 1.4916625e-10 1.3904693e-10
000040 fb 68 09 41 64 f1 f2 40 28 28 8e 40 ae 98 80 40
       8.58813 7.5919666 4.442402 4.0186377
000050 8d e5 eb 3f 6c 87 fb 40 9b 42 8b 3f 45 81 4f 40
       1.8429428 7.860281 1.0879701 3.242265

w f4 [1, 24, 1]
000000 00 00 20 41 00 00 20 41 00 00 20 41 00 00 20 41
       10.0 10.0 10.0 10.0
000010 8b 9d 06 41 72 89 18 41 6b 3a 1b 40 34 45 d9 40
       8.413463 9.533556 2.4254405 6.7896976
000020 74 7a 90 3f 55 c0 a1 3f 11 3f d8 3e 3d d6 a5 3e
       1.128737 1.263682 0.42235616 0.32390013
000030 bc 11 00 00 bc 11 00 00 91 02 24 2f 3b e2 18 2f
       6.362e-42 6.362e-42 1.4916625e-10 1.3904693e-10
000040 fb 68 09 41 64 f1 f2 40 28 28 8e 40 ae 98 80 40
       8.58813 7.5919666 4.442402 4.0186377
000050 8d e5 eb 3f 6c 87 fb 40 9b 42 8b 3f 45 81 4f 40
       1.8429428 7.860281 1.0879701 3.242265

w f4 [1, 24, 1]
000000 00 00 20 41 00 00 20 41 00 00 20 41 00 00 20 41
       10.0 10.0 10.0 10.0
000010 8b 9d 06 41 72 89 18 41 6b 3a 1b 40 34 45 d9 40
       8.413463 9.533556 2.4254405 6.7896976
000020 74 7a 90 3f 55 c0 a1 3f 11 3f d8 3e 3d d6 a5 3e
       1.128737 1.263682 0.42235616 0.32390013
000030 bc 11 00 00 bc 11 00 00 91 02 24 2f 3b e2 18 2f
       6.362e-42 6.362e-42 1.4916625e-10 1.3904693e-10
000040 fb 68 09 41 64 f1 f2 40 28 28 8e 40 ae 98 80 40
       8.58813 7.5919666 4.442402 4.0186377
000050 8d e5 eb 3f 6c 87 fb 40 9b 42 8b 3f 45 81 4f 40
       1.8429428 7.860281 1.0879701 3.242265

w f4 [1, 24, 1]
000000 00 00 20 41 00 00 20 41 00 00 20 41 00 00 20 41
       10.0 10.0 10.0 10.0
000010 8b 9d 06 41 72 89 18 41 6b 3a 1b 40 34 45 d9 40
       8.413463 9.533556 2.4254405 6.7896976
000020 74 7a 90 3f 55 c0 a1 3f 11 3f d8 3e 3d d6 a5 3e
       1.128737 1.263682 0.42235616 0.32390013
000030 bc 11 00 00 bc 11 00 00 91 02 24 2f 3b e2 18 2f
       6.362e-42 6.362e-42 1.4916625e-10 1.3904693e-10
000040 fb 68 09 41 64 f1 f2 40 28 28 8e 40 ae 98 80 40
       8.58813 7.5919666 4.442402 4.0186377
000050 8d e5 eb 3f 6c 87 fb 40 9b 42 8b 3f 45 81 4f 40
       1.8429428 7.860281 1.0879701 3.242265

w f4 [1, 24, 1]
000000 00 00 20 41 00 00 20 41 00 00 20 41 00 00 20 41
       10.0 10.0 10.0 10.0
000010 8b 9d 06 41 72 89 18 41 6b 3a 1b 40 34 45 d9 40
       8.413463 9.533556 2.4254405 6.7896976
000020 74 7a 90 3f 55 c0 a1 3f 11 3f d8 3e 3d d6 a5 3e
       1.128737 1.263682 0.42235616 0.32390013
000030 bc 11 00 00 bc 11 00 00 91 02 24 2f 3b e2 18 2f
       6.362e-42 6.362e-42 1.4916625e-10 1.3904693e-10
000040 fb 68 09 41 64 f1 f2 40 28 28 8e 40 ae 98 80 40
       8.58813 7.5919666 4.442402 4.0186377
000050 8d e5 eb 3f 6c 87 fb 40 9b 42 8b 3f 45 81 4f 40
       1.8429428 7.860281 1.0879701 3.242265

w f4 [1, 24, 1]
000000 00 00 20 41 00 00 20 41 00 00 20 41 00 00 20 41
       10.0 10.0 10.0 10.0
000010 8b 9d 06 41 72 89 18 41 6b 3a 1b 40 34 45 d9 40
       8.413463 9.533556 2.4254405 6.7896976
000020 74 7a 90 3f 55 c0 a1 3f 11 3f d8 3e 3d d6 a5 3e
       1.128737 1.263682 0.42235616 0.32390013
000030 bc 11 00 00 bc 11 00 00 91 02 24 2f 3b e2 18 2f
       6.362e-42 6.362e-42 1.4916625e-10 1.3904693e-10
000040 fb 68 09 41 64 f1 f2 40 28 28 8e 40 ae 98 80 40
       8.58813 7.5919666 4.442402 4.0186377
000050 8d e5 eb 3f 6c 87 fb 40 9b 42 8b 3f 45 81 4f 40
       1.8429428 7.860281 1.0879701 3.242265

w f4 [1, 24, 1]
000000 00 00 20 41 00 00 20 41 00 00 20 41 00 00 20 41
       10.0 10.0 10.0 10.0
000010 8b 9d 06 41 72 89 18 41 6b 3a 1b 40 34 45 d9 40
       8.413463 9.533556 2.4254405 6.7896976
000020 74 7a 90 3f 55 c0 a1 3f 11 3f d8 3e 3d d6 a5 3e
       1.128737 1.263682 0.42235616 0.32390013
000030 bc 11 00 00 bc 11 00 00 91 02 24 2f 3b e2 18 2f
       6.362e-42 6.362e-42 1.4916625e-10 1.3904693e-10
000040 fb 68 09 41 64 f1 f2 40 28 28 8e 40 ae 98 80 40
       8.58813 7.5919666 4.442402 4.0186377
000050 8d e5 eb 3f 6c 87 fb 40 9b 42 8b 3f 45 81 4f 40
       1.8429428 7.860281 1.0879701 3.242265

w f4 [1, 24, 1]
000000 00 00 20 41 00 00 20 41 00 00 20 41 00 00 20 41
       10.0 10.0 10.0 10.0
000010 8b 9d 06 41 72 89 18 41 6b 3a 1b 40 34 45 d9 40
       8.413463 9.533556 2.4254405 6.7896976
000020 74 7a 90 3f 55 c0 a1 3f 11 3f d8 3e 3d d6 a5 3e
       1.128737 1.263682 0.42235616 0.32390013
000030 bc 11 00 00 bc 11 00 00 91 02 24 2f 3b e2 18 2f
       6.362e-42 6.362e-42 1.4916625e-10 1.3904693e-10
000040 fb 68 09 41 64 f1 f2 40 28 28 8e 40 ae 98 80 40
       8.58813 7.5919666 4.442402 4.0186377
000050 8d e5 eb 3f 6c 87 fb 40 9b 42 8b 3f 45 81 4f 40
       1.8429428 7.860281 1.0879701 3.242265

w f4 [1, 24, 1]
000000 00 00 20 41 00 00 20 41 00 00 20 41 00 00 20 41
       10.0 10.0 10.0 10.0
000010 8b 9d 06 41 72 89 18 41 6b 3a 1b 40 34 45 d9 40
       8.413463 9.533556 2.4254405 6.7896976
000020 74 7a 90 3f 55 c0 a1 3f 11 3f d8 3e 3d d6 a5 3e
       1.128737 1.263682 0.42235616 0.32390013
000030 bc 11 00 00 bc 11 00 00 91 02 24 2f 3b e2 18 2f
       6.362e-42 6.362e-42 1.4916625e-10 1.3904693e-10
000040 fb 68 09 41 64 f1 f2 40 28 28 8e 40 ae 98 80 40
       8.58813 7.5919666 4.442402 4.0186377
000050 8d e5 eb 3f 6c 87 fb 40 9b 42 8b 3f 45 81 4f 40
       1.8429428 7.860281 1.0879701 3.242265

w f4 [1, 24, 1]
000000 00 00 20 41 00 00 20 41 00 00 20 41 00 00 20 41
       10.0 10.0 10.0 10.0
000010 8b 9d 06 41 72 89 18 41 6b 3a 1b 40 34 45 d9 40
       8.413463 9.533556 2.4254405 6.7896976
000020 74 7a 90 3f 55 c0 a1 3f 11 3f d8 3e 3d d6 a5 3e
       1.128737 1.263682 0.42235616 0.32390013
000030 bc 11 00 00 bc 11 00 00 91 02 24 2f 3b e2 18 2f
       6.362e-42 6.362e-42 1.4916625e-10 1.3904693e-10
000040 fb 68 09 41 64 f1 f2 40 28 28 8e 40 ae 98 80 40
       8.58813 7.5919666 4.442402 4.0186377
000050 8d e5 eb 3f 6c 87 fb 40 9b 42 8b 3f 45 81 4f 40
       1.8429428 7.860281 1.0879701 3.242265

w f4 [1, 24, 1]
000000 00 00 20 41 00 00 20 41 00 00 20 41 00 00 20 41
       10.0 10.0 10.0 10.0
000010 8b 9d 06 41 72 89 18 41 6b 3a 1b 40 34 45 d9 40
       8.413463 9.533556 2.4254405 6.7896976
000020 74 7a 90 3f 55 c0 a1 3f 11 3f d8 3e 3d d6 a5 3e
       1.128737 1.263682 0.42235616 0.32390013
000030 bc 11 00 00 bc 11 00 00 91 02 24 2f 3b e2 18 2f
       6.362e-42 6.362e-42 1.4916625e-10 1.3904693e-10
000040 fb 68 09 41 64 f1 f2 40 28 28 8e 40 ae 98 80 40
       8.58813 7.5919666 4.442402 4.0186377
000050 8d e5 eb 3f 6c 87 fb 40 9b 42 8b 3f 45 81 4f 40
       1.8429428 7.860281 1.0879701 3.242265

w f4 [1, 24, 1]
000000 00 00 20 41 00 00 20 41 00 00 20 41 00 00 20 41
       10.0 10.0 10.0 10.0
000010 8b 9d 06 41 72 89 18 41 6b 3a 1b 40 34 45 d9 40
       8.413463 9.533556 2.4254405 6.7896976
000020 74 7a 90 3f 55 c0 a1 3f 11 3f d8 3e 3d d6 a5 3e
       1.128737 1.263682 0.42235616 0.32390013
000030 bc 11 00 00 bc 11 00 00 91 02 24 2f 3b e2 18 2f
       6.362e-42 6.362e-42 1.4916625e-10 1.3904693e-10
000040 fb 68 09 41 64 f1 f2 40 28 28 8e 40 ae 98 80 40
       8.58813 7.5919666 4.442402 4.0186377
000050 8d e5 eb 3f 6c 87 fb 40 9b 42 8b 3f 45 81 4f 40
       1.8429428 7.860281 1.0879701 3.242265

w f4 [1, 24, 1]
000000 00 00 20 41 00 00 20 41 00 00 20 41 00 00 20 41
       10.0 10.0 10.0 10.0
000010 8b 9d 06 41 72 89 18 41 6b 3a 1b 40 34 45 d9 40
       8.413463 9.533556 2.4254405 6.7896976
000020 74 7a 90 3f 55 c0 a1 3f 11 3f d8 3e 3d d6 a5 3e
       1.128737 1.263682 0.42235616 0.32390013
000030 bc 11 00 00 bc 11 00 00 91 02 24 2f 3b e2 18 2f
       6.362e-42 6.362e-42 1.4916625e-10 1.3904693e-10
000040 fb 68 09 41 64 f1 f2 40 28 28 8e 40 ae 98 80 40
       8.58813 7.5919666 4.442402 4.0186377
000050 8d e5 eb 3f 6c 87 fb 40 9b 42 8b 3f 45 81 4f 40
       1.8429428 7.860281 1.0879701 3.242265

w f4 [1, 24, 1]
000000 00 00 20 41 00 00 20 41 00 00 20 41 00 00 20 41
       10.0 10.0 10.0 10.0
000010 8b 9d 06 41 72 89 18 41 6b 3a 1b 40 34 45 d9 40
       8.413463 9.533556 2.4254405 6.7896976
000020 74 7a 90 3f 55 c0 a1 3f 11 3f d8 3e 3d d6 a5 3e
       1.128737 1.263682 0.42235616 0.32390013
000030 bc 11 00 00 bc 11 00 00 91 02 24 2f 3b e2 18 2f
       6.362e-42 6.362e-42 1.4916625e-10 1.3904693e-10
000040 fb 68 09 41 64 f1 f2 40 28 28 8e 40 ae 98 80 40
       8.58813 7.5919666 4.442402 4.0186377
000050 8d e5 eb 3f 6c 87 fb 40 9b 42 8b 3f 45 81 4f 40
       1.8429428 7.860281 1.0879701 3.242265

w f4 [1, 24, 1]
000000 00 00 20 41 00 00 20 41 00 00 20 41 00 00 20 41
       10.0 10.0 10.0 10.0
000010 8b 9d 06 41 72 89 18 41 6b 3a 1b 40 34 45 d9 40
       8.413463 9.533556 2.4254405 6.7896976
000020 74 7a 90 3f 55 c0 a1 3f 11 3f d8 3e 3d d6 a5 3e
       1.128737 1.263682 0.42235616 0.32390013
000030 bc 11 00 00 bc 11 00 00 91 02 24 2f 3b e2 18 2f
       6.362e-42 6.362e-42 1.4916625e-10 1.3904693e-10
000040 fb 68 09 41 64 f1 f2 40 28 28 8e 40 ae 98 80 40
       8.58813 7.5919666 4.442402 4.0186377
000050 8d e5 eb 3f 6c 87 fb 40 9b 42 8b 3f 45 81 4f 40
       1.8429428 7.860281 1.0879701 3.242265

w f4 [1, 24, 1]
000000 00 00 20 41 00 00 20 41 00 00 20 41 00 00 20 41
       10.0 10.0 10.0 10.0
000010 8b 9d 06 41 72 89 18 41 6b 3a 1b 40 34 45 d9 40
       8.413463 9.533556 2.4254405 6.7896976
000020 74 7a 90 3f 55 c0 a1 3f 11 3f d8 3e 3d d6 a5 3e
       1.128737 1.263682 0.42235616 0.32390013
000030 bc 11 00 00 bc 11 00 00 91 02 24 2f 3b e2 18 2f
       6.362e-42 6.362e-42 1.4916625e-10 1.3904693e-10
000040 fb 68 09 41 64 f1 f2 40 28 28 8e 40 ae 98 80 40
       8.58813 7.5919666 4.442402 4.0186377
000050 8d e5 eb 3f 6c 87 fb 40 9b 42 8b 3f 45 81 4f 40
       1.8429428 7.860281 1.0879701 3.242265

w f4 [1, 24, 1]
000000 00 00 20 41 00 00 20 41 00 00 20 41 00 00 20 41
       10.0 10.0 10.0 10.0
000010 8b 9d 06 41 72 89 18 41 6b 3a 1b 40 34 45 d9 40
       8.413463 9.533556 2.4254405 6.7896976
000020 74 7a 90 3f 55 c0 a1 3f 11 3f d8 3e 3d d6 a5 3e
       1.128737 1.263682 0.42235616 0.32390013
000030 bc 11 00 00 bc 11 00 00 91 02 24 2f 3b e2 18 2f
       6.362e-42 6.362e-42 1.4916625e-10 1.3904693e-10
000040 fb 68 09 41 64 f1 f2 40 28 28 8e 40 ae 98 80 40
       8.58813 7.5919666 4.442402 4.0186377
000050 8d e5 eb 3f 6c 87 fb 40 9b 42 8b 3f 45 81 4f 40
       1.8429428 7.860281 1.0879701 3.242265

w f4 [1, 24, 1]
000000 00 00 20 41 00 00 20 41 00 00 20 41 00 00 20 41
       10.0 10.0 10.0 10.0
000010 8b 9d 06 41 72 89 18 41 6b 3a 1b 40 34 45 d9 40
       8.413463 9.533556 2.4254405 6.7896976
000020 74 7a 90 3f 55 c0 a1 3f 11 3f d8 3e 3d d6 a5 3e
       1.128737 1.263682 0.42235616 0.32390013
000030 bc 11 00 00 bc 11 00 00 91 02 24 2f 3b e2 18 2f
       6.362e-42 6.362e-42 1.4916625e-10 1.3904693e-10
000040 fb 68 09 41 64 f1 f2 40 28 28 8e 40 ae 98 80 40
       8.58813 7.5919666 4.442402 4.0186377
000050 8d e5 eb 3f 6c 87 fb 40 9b 42 8b 3f 45 81 4f 40
       1.8429428 7.860281 1.0879701 3.242265

w f4 [1, 24, 1]
000000 00 00 20 41 00 00 20 41 00 00 20 41 00 00 20 41
       10.0 10.0 10.0 10.0
000010 8b 9d 06 41 72 89 18 41 6b 3a 1b 40 34 45 d9 40
       8.413463 9.533556 2.4254405 6.7896976
000020 74 7a 90 3f 55 c0 a1 3f 11 3f d8 3e 3d d6 a5 3e
       1.128737 1.263682 0.42235616 0.32390013
000030 bc 11 00 00 bc 11 00 00 91 02 24 2f 3b e2 18 2f
       6.362e-42 6.362e-42 1.4916625e-10 1.3904693e-10
000040 fb 68 09 41 64 f1 f2 40 28 28 8e 40 ae 98 80 40
       8.58813 7.5919666 4.442402 4.0186377
000050 8d e5 eb 3f 6c 87 fb 40 9b 42 8b 3f 45 81 4f 40
       1.8429428 7.860281 1.0879701 3.242265

w f4 [1, 24, 1]
000000 00 00 20 41 00 00 20 41 00 00 20 41 00 00 20 41
       10.0 10.0 10.0 10.0
000010 8b 9d 06 41 72 89 18 41 6b 3a 1b 40 34 45 d9 40
       8.413463 9.533556 2.4254405 6.7896976
000020 74 7a 90 3f 55 c0 a1 3f 11 3f d8 3e 3d d6 a5 3e
       1.128737 1.263682 0.42235616 0.32390013
000030 bc 11 00 00 bc 11 00 00 91 02 24 2f 3b e2 18 2f
       6.362e-42 6.362e-42 1.4916625e-10 1.3904693e-10
000040 fb 68 09 41 64 f1 f2 40 28 28 8e 40 ae 98 80 40
       8.58813 7.5919666 4.442402 4.0186377
000050 8d e5 eb 3f 6c 87 fb 40 9b 42 8b 3f 45 81 4f 40
       1.8429428 7.860281 1.0879701 3.242265

w f4 [1, 24, 1]
000000 00 00 20 41 00 00 20 41 00 00 20 41 00 00 20 41
       10.0 10.0 10.0 10.0
000010 8b 9d 06 41 72 89 18 41 6b 3a 1b 40 34 45 d9 40
       8.413463 9.533556 2.4254405 6.7896976
000020 74 7a 90 3f 55 c0 a1 3f 11 3f d8 3e 3d d6 a5 3e
       1.128737 1.263682 0.42235616 0.32390013
000030 bc 11 00 00 bc 11 00 00 91 02 24 2f 3b e2 18 2f
       6.362e-42 6.362e-42 1.4916625e-10 1.3904693e-10
000040 fb 68 09 41 64 f1 f2 40 28 28 8e 40 ae 98 80 40
       8.58813 7.5919666 4.442402 4.0186377
000050 8d e5 eb 3f 6c 87 fb 40 9b 42 8b 3f 45 81 4f 40
       1.8429428 7.860281 1.0879701 3.242265

w f4 [1, 24, 1]
000000 00 00 20 41 00 00 20 41 00 00 20 41 00 00 20 41
       10.0 10.0 10.0 10.0
000010 8b 9d 06 41 72 89 18 41 6b 3a 1b 40 34 45 d9 40
       8.413463 9.533556 2.4254405 6.7896976
000020 74 7a 90 3f 55 c0 a1 3f 11 3f d8 3e 3d d6 a5 3e
       1.128737 1.263682 0.42235616 0.32390013
000030 bc 11 00 00 bc 11 00 00 91 02 24 2f 3b e2 18 2f
       6.362e-42 6.362e-42 1.4916625e-10 1.3904693e-10
000040 fb 68 09 41 64 f1 f2 40 28 28 8e 40 ae 98 80 40
       8.58813 7.5919666 4.442402 4.0186377
000050 8d e5 eb 3f 6c 87 fb 40 9b 42 8b 3f 45 81 4f 40
       1.8429428 7.860281 1.0879701 3.242265

w f4 [1, 24, 1]
000000 00 00 20 41 00 00 20 41 00 00 20 41 00 00 20 41
       10.0 10.0 10.0 10.0
000010 8b 9d 06 41 72 89 18 41 6b 3a 1b 40 34 45 d9 40
       8.413463 9.533556 2.4254405 6.7896976
000020 74 7a 90 3f 55 c0 a1 3f 11 3f d8 3e 3d d6 a5 3e
       1.128737 1.263682 0.42235616 0.32390013
000030 bc 11 00 00 bc 11 00 00 91 02 24 2f 3b e2 18 2f
       6.362e-42 6.362e-42 1.4916625e-10 1.3904693e-10
000040 fb 68 09 41 64 f1 f2 40 28 28 8e 40 ae 98 80 40
       8.58813 7.5919666 4.442402 4.0186377
000050 8d e5 eb 3f 6c 87 fb 40 9b 42 8b 3f 45 81 4f 40
       1.8429428 7.860281 1.0879701 3.242265

w f4 [1, 24, 1]
000000 00 00 20 41 00 00 20 41 00 00 20 41 00 00 20 41
       10.0 10.0 10.0 10.0
000010 8b 9d 06 41 72 89 18 41 6b 3a 1b 40 34 45 d9 40
       8.413463 9.533556 2.4254405 6.7896976
000020 74 7a 90 3f 55 c0 a1 3f 11 3f d8 3e 3d d6 a5 3e
       1.128737 1.263682 0.42235616 0.32390013
000030 bc 11 00 00 bc 11 00 00 91 02 24 2f 3b e2 18 2f
       6.362e-42 6.362e-42 1.4916625e-10 1.3904693e-10
000040 fb 68 09 41 64 f1 f2 40 28 28 8e 40 ae 98 80 40
       8.58813 7.5919666 4.442402 4.0186377
000050 8d e5 eb 3f 6c 87 fb 40 9b 42 8b 3f 45 81 4f 40
       1.8429428 7.860281 1.0879701 3.242265

w f4 [1, 24, 1]
000000 00 00 20 41 00 00 20 41 00 00 20 41 00 00 20 41
       10.0 10.0 10.0 10.0
000010 8b 9d 06 41 72 89 18 41 6b 3a 1b 40 34 45 d9 40
       8.413463 9.533556 2.4254405 6.7896976
000020 74 7a 90 3f 55 c0 a1 3f 11 3f d8 3e 3d d6 a5 3e
       1.128737 1.263682 0.42235616 0.32390013
000030 bc 11 00 00 bc 11 00 00 91 02 24 2f 3b e2 18 2f
       6.362e-42 6.362e-42 1.4916625e-10 1.3904693e-10
000040 fb 68 09 41 64 f1 f2 40 28 28 8e 40 ae 98 80 40
       8.58813 7.5919666 4.442402 4.0186377
000050 8d e5 eb 3f 6c 87 fb 40 9b 42 8b 3f 45 81 4f 40
       1.8429428 7.860281 1.0879701 3.242265

w f4 [1, 24, 1]
000000 00 00 20 41 00 00 20 41 00 00 20 41 00 00 20 41
       10.0 10.0 10.0 10.0
000010 8b 9d 06 41 72 89 18 41 6b 3a 1b 40 34 45 d9 40
       8.413463 9.533556 2.4254405 6.7896976
000020 74 7a 90 3f 55 c0 a1 3f 11 3f d8 3e 3d d6 a5 3e
       1.128737 1.263682 0.42235616 0.32390013
000030 bc 11 00 00 bc 11 00 00 91 02 24 2f 3b e2 18 2f
       6.362e-42 6.362e-42 1.4916625e-10 1.3904693e-10
000040 fb 68 09 41 64 f1 f2 40 28 28 8e 40 ae 98 80 40
       8.58813 7.5919666 4.442402 4.0186377
000050 8d e5 eb 3f 6c 87 fb 40 9b 42 8b 3f 45 81 4f 40
       1.8429428 7.860281 1.0879701 3.242265

w f4 [1, 24, 1]
000000 00 00 20 41 00 00 20 41 00 00 20 41 00 00 20 41
       10.0 10.0 10.0 10.0
000010 8b 9d 06 41 72 89 18 41 6b 3a 1b 40 34 45 d9 40
       8.413463 9.533556 2.4254405 6.7896976
000020 74 7a 90 3f 55 c0 a1 3f 11 3f d8 3e 3d d6 a5 3e
       1.128737 1.263682 0.42235616 0.32390013
000030 bc 11 00 00 bc 11 00 00 91 02 24 2f 3b e2 18 2f
       6.362e-42 6.362e-42 1.4916625e-10 1.3904693e-10
000040 fb 68 09 41 64 f1 f2 40 28 28 8e 40 ae 98 80 40
       8.58813 7.5919666 4.442402 4.0186377
000050 8d e5 eb 3f 6c 87 fb 40 9b 42 8b 3f 45 81 4f 40
       1.8429428 7.860281 1.0879701 3.242265

w f4 [1, 24, 1]
000000 00 00 20 41 00 00 20 41 00 00 20 41 00 00 20 41
       10.0 10.0 10.0 10.0
000010 8b 9d 06 41 72 89 18 41 6b 3a 1b 40 34 45 d9 40
       8.413463 9.533556 2.4254405 6.7896976
000020 74 7a 90 3f 55 c0 a1 3f 11 3f d8 3e 3d d6 a5 3e
       1.128737 1.263682 0.42235616 0.32390013
000030 bc 11 00 00 bc 11 00 00 91 02 24 2f 3b e2 18 2f
       6.362e-42 6.362e-42 1.4916625e-10 1.3904693e-10
000040 fb 68 09 41 64 f1 f2 40 28 28 8e 40 ae 98 80 40
       8.58813 7.5919666 4.442402 4.0186377
000050 8d e5 eb 3f 6c 87 fb 40 9b 42 8b 3f 45 81 4f 40
       1.8429428 7.860281 1.0879701 3.242265

w f4 [1, 24, 1]
000000 00 00 20 41 00 00 20 41 00 00 20 41 00 00 20 41
       10.0 10.0 10.0 10.0
000010 8b 9d 06 41 72 89 18 41 6b 3a 1b 40 34 45 d9 40
       8.413463 9.533556 2.4254405 6.7896976
000020 74 7a 90 3f 55 c0 a1 3f 11 3f d8 3e 3d d6 a5 3e
       1.128737 1.263682 0.42235616 0.32390013
000030 bc 11 00 00 bc 11 00 00 91 02 24 2f 3b e2 18 2f
       6.362e-42 6.362e-42 1.4916625e-10 1.3904693e-10
000040 fb 68 09 41 64 f1 f2 40 28 28 8e 40 ae 98 80 40
       8.58813 7.5919666 4.442402 4.0186377
000050 8d e5 eb 3f 6c 87 fb 40 9b 42 8b 3f 45 81 4f 40
       1.8429428 7.860281 1.0879701 3.242265

w f4 [1, 24, 1]
000000 00 00 20 41 00 00 20 41 00 00 20 41 00 00 20 41
       10.0 10.0 10.0 10.0
000010 8b 9d 06 41 72 89 18 41 6b 3a 1b 40 34 45 d9 40
       8.413463 9.533556 2.4254405 6.7896976
000020 74 7a 90 3f 55 c0 a1 3f 11 3f d8 3e 3d d6 a5 3e
       1.128737 1.263682 0.42235616 0.32390013
000030 bc 11 00 00 bc 11 00 00 91 02 24 2f 3b e2 18 2f
       6.362e-42 6.362e-42 1.4916625e-10 1.3904693e-10
000040 fb 68 09 41 64 f1 f2 40 28 28 8e 40 ae 98 80 40
       8.58813 7.5919666 4.442402 4.0186377
000050 8d e5 eb 3f 6c 87 fb 40 9b 42 8b 3f 45 81 4f 40
       1.8429428 7.860281 1.0879701 3.242265

w f4 [1, 24, 1]
000000 00 00 20 41 00 00 20 41 00 00 20 41 00 00 20 41
       10.0 10.0 10.0 10.0
000010 8b 9d 06 41 72 89 18 41 6b 3a 1b 40 34 45 d9 40
       8.413463 9.533556 2.4254405 6.7896976
000020 74 7a 90 3f 55 c0 a1 3f 11 3f d8 3e 3d d6 a5 3e
       1.128737 1.263682 0.42235616 0.32390013
000030 bc 11 00 00 bc 11 00 00 91 02 24 2f 3b e2 18 2f
       6.362e-42 6.362e-42 1.4916625e-10 1.3904693e-10
000040 fb 68 09 41 64 f1 f2 40 28 28 8e 40 ae 98 80 40
       8.58813 7.5919666 4.442402 4.0186377
000050 8d e5 eb 3f 6c 87 fb 40 9b 42 8b 3f 45 81 4f 40
       1.8429428 7.860281 1.0879701 3.242265

w f4 [1, 24, 1]
000000 00 00 20 41 00 00 20 41 00 00 20 41 00 00 20 41
       10.0 10.0 10.0 10.0
000010 8b 9d 06 41 72 89 18 41 6b 3a 1b 40 34 45 d9 40
       8.413463 9.533556 2.4254405 6.7896976
000020 74 7a 90 3f 55 c0 a1 3f 11 3f d8 3e 3d d6 a5 3e
       1.128737 1.263682 0.42235616 0.32390013
000030 bc 11 00 00 bc 11 00 00 91 02 24 2f 3b e2 18 2f
       6.362e-42 6.362e-42 1.4916625e-10 1.3904693e-10
000040 fb 68 09 41 64 f1 f2 40 28 28 8e 40 ae 98 80 40
       8.58813 7.5919666 4.442402 4.0186377
000050 8d e5 eb 3f 6c 87 fb 40 9b 42 8b 3f 45 81 4f 40
       1.8429428 7.860281 1.0879701 3.242265

w f4 [1, 24, 1]
000000 00 00 20 41 00 00 20 41 00 00 20 41 00 00 20 41
       10.0 10.0 10.0 10.0
000010 8b 9d 06 41 72 89 18 41 6b 3a 1b 40 34 45 d9 40
       8.413463 9.533556 2.4254405 6.7896976
000020 74 7a 90 3f 55 c0 a1 3f 11 3f d8 3e 3d d6 a5 3e
       1.128737 1.263682 0.42235616 0.32390013
000030 bc 11 00 00 bc 11 00 00 91 02 24 2f 3b e2 18 2f
       6.362e-42 6.362e-42 1.4916625e-10 1.3904693e-10
000040 fb 68 09 41 64 f1 f2 40 28 28 8e 40 ae 98 80 40
       8.58813 7.5919666 4.442402 4.0186377
000050 8d e5 eb 3f 6c 87 fb 40 9b 42 8b 3f 45 81 4f 40
       1.8429428 7.860281 1.0879701 3.242265

w f4 [1, 24, 1]
000000 00 00 20 41 00 00 20 41 00 00 20 41 00 00 20 41
       10.0 10.0 10.0 10.0
000010 8b 9d 06 41 72 89 18 41 6b 3a 1b 40 34 45 d9 40
       8.413463 9.533556 2.4254405 6.7896976
000020 74 7a 90 3f 55 c0 a1 3f 11 3f d8 3e 3d d6 a5 3e
       1.128737 1.263682 0.42235616 0.32390013
000030 bc 11 00 00 bc 11 00 00 91 02 24 2f 3b e2 18 2f
       6.362e-42 6.362e-42 1.4916625e-10 1.3904693e-10
000040 fb 68 09 41 64 f1 f2 40 28 28 8e 40 ae 98 80 40
       8.58813 7.5919666 4.442402 4.0186377
000050 8d e5 eb 3f 6c 87 fb 40 9b 42 8b 3f 45 81 4f 40
       1.8429428 7.860281 1.0879701 3.242265

w f4 [1, 24, 1]
000000 00 00 20 41 00 00 20 41 00 00 20 41 00 00 20 41
       10.0 10.0 10.0 10.0
000010 8b 9d 06 41 72 89 18 41 6b 3a 1b 40 34 45 d9 40
       8.413463 9.533556 2.4254405 6.7896976
000020 74 7a 90 3f 55 c0 a1 3f 11 3f d8 3e 3d d6 a5 3e
       1.128737 1.263682 0.42235616 0.32390013
000030 bc 11 00 00 bc 11 00 00 91 02 24 2f 3b e2 18 2f
       6.362e-42 6.362e-42 1.4916625e-10 1.3904693e-10
000040 fb 68 09 41 64 f1 f2 40 28 28 8e 40 ae 98 80 40
       8.58813 7.5919666 4.442402 4.0186377
000050 8d e5 eb 3f 6c 87 fb 40 9b 42 8b 3f 45 81 4f 40
       1.8429428 7.860281 1.0879701 3.242265

w f4 [1, 24, 1]
000000 00 00 20 41 00 00 20 41 00 00 20 41 00 00 20 41
       10.0 10.0 10.0 10.0
000010 8b 9d 06 41 72 89 18 41 6b 3a 1b 40 34 45 d9 40
       8.413463 9.533556 2.4254405 6.7896976
000020 74 7a 90 3f 55 c0 a1 3f 11 3f d8 3e 3d d6 a5 3e
       1.128737 1.263682 0.42235616 0.32390013
000030 bc 11 00 00 bc 11 00 00 91 02 24 2f 3b e2 18 2f
       6.362e-42 6.362e-42 1.4916625e-10 1.3904693e-10
000040 fb 68 09 41 64 f1 f2 40 28 28 8e 40 ae 98 80 40
       8.58813 7.5919666 4.442402 4.0186377
000050 8d e5 eb 3f 6c 87 fb 40 9b 42 8b 3f 45 81 4f 40
       1.8429428 7.860281 1.0879701 3.242265

w f4 [1, 24, 1]
000000 00 00 20 41 00 00 20 41 00 00 20 41 00 00 20 41
       10.0 10.0 10.0 10.0
000010 8b 9d 06 41 72 89 18 41 6b 3a 1b 40 34 45 d9 40
       8.413463 9.533556 2.4254405 6.7896976
000020 74 7a 90 3f 55 c0 a1 3f 11 3f d8 3e 3d d6 a5 3e
       1.128737 1.263682 0.42235616 0.32390013
000030 bc 11 00 00 bc 11 00 00 91 02 24 2f 3b e2 18 2f
       6.362e-42 6.362e-42 1.4916625e-10 1.3904693e-10
000040 fb 68 09 41 64 f1 f2 40 28 28 8e 40 ae 98 80 40
       8.58813 7.5919666 4.442402 4.0186377
000050 8d e5 eb 3f 6c 87 fb 40 9b 42 8b 3f 45 81 4f 40
       1.8429428 7.860281 1.0879701 3.242265

w f4 [1, 24, 1]
000000 00 00 20 41 00 00 20 41 00 00 20 41 00 00 20 41
       10.0 10.0 10.0 10.0
000010 8b 9d 06 41 72 89 18 41 6b 3a 1b 40 34 45 d9 40
       8.413463 9.533556 2.4254405 6.7896976
000020 74 7a 90 3f 55 c0 a1 3f 11 3f d8 3e 3d d6 a5 3e
       1.128737 1.263682 0.42235616 0.32390013
000030 bc 11 00 00 bc 11 00 00 91 02 24 2f 3b e2 18 2f
       6.362e-42 6.362e-42 1.4916625e-10 1.3904693e-10
000040 fb 68 09 41 64 f1 f2 40 28 28 8e 40 ae 98 80 40
       8.58813 7.5919666 4.442402 4.0186377
000050 8d e5 eb 3f 6c 87 fb 40 9b 42 8b 3f 45 81 4f 40
       1.8429428 7.860281 1.0879701 3.242265

w f4 [1, 24, 1]
000000 00 00 20 41 00 00 20 41 00 00 20 41 00 00 20 41
       10.0 10.0 10.0 10.0
000010 8b 9d 06 41 72 89 18 41 6b 3a 1b 40 34 45 d9 40
       8.413463 9.533556 2.4254405 6.7896976
000020 74 7a 90 3f 55 c0 a1 3f 11 3f d8 3e 3d d6 a5 3e
       1.128737 1.263682 0.42235616 0.32390013
000030 bc 11 00 00 bc 11 00 00 91 02 24 2f 3b e2 18 2f
       6.362e-42 6.362e-42 1.4916625e-10 1.3904693e-10
000040 fb 68 09 41 64 f1 f2 40 28 28 8e 40 ae 98 80 40
       8.58813 7.5919666 4.442402 4.0186377
000050 8d e5 eb 3f 6c 87 fb 40 9b 42 8b 3f 45 81 4f 40
       1.8429428 7.860281 1.0879701 3.242265

w f4 [1, 24, 1]
000000 00 00 20 41 00 00 20 41 00 00 20 41 00 00 20 41
       10.0 10.0 10.0 10.0
000010 8b 9d 06 41 72 89 18 41 6b 3a 1b 40 34 45 d9 40
       8.413463 9.533556 2.4254405 6.7896976
000020 74 7a 90 3f 55 c0 a1 3f 11 3f d8 3e 3d d6 a5 3e
       1.128737 1.263682 0.42235616 0.32390013
000030 bc 11 00 00 bc 11 00 00 91 02 24 2f 3b e2 18 2f
       6.362e-42 6.362e-42 1.4916625e-10 1.3904693e-10
000040 fb 68 09 41 64 f1 f2 40 28 28 8e 40 ae 98 80 40
       8.58813 7.5919666 4.442402 4.0186377
000050 8d e5 eb 3f 6c 87 fb 40 9b 42 8b 3f 45 81 4f 40
       1.8429428 7.860281 1.0879701 3.242265

w f4 [1, 24, 1]
000000 00 00 20 41 00 00 20 41 00 00 20 41 00 00 20 41
       10.0 10.0 10.0 10.0
000010 8b 9d 06 41 72 89 18 41 6b 3a 1b 40 34 45 d9 40
       8.413463 9.533556 2.4254405 6.7896976
000020 74 7a 90 3f 55 c0 a1 3f 11 3f d8 3e 3d d6 a5 3e
       1.128737 1.263682 0.42235616 0.32390013
000030 bc 11 00 00 bc 11 00 00 91 02 24 2f 3b e2 18 2f
       6.362e-42 6.362e-42 1.4916625e-10 1.3904693e-10
000040 fb 68 09 41 64 f1 f2 40 28 28 8e 40 ae 98 80 40
       8.58813 7.5919666 4.442402 4.0186377
000050 8d e5 eb 3f 6c 87 fb 40 9b 42 8b 3f 45 81 4f 40
       1.8429428 7.860281 1.0879701 3.242265

w f4 [1, 24, 1]
000000 00 00 20 41 00 00 20 41 00 00 20 41 00 00 20 41
       10.0 10.0 10.0 10.0
000010 8b 9d 06 41 72 89 18 41 6b 3a 1b 40 34 45 d9 40
       8.413463 9.533556 2.4254405 6.7896976
000020 74 7a 90 3f 55 c0 a1 3f 11 3f d8 3e 3d d6 a5 3e
       1.128737 1.263682 0.42235616 0.32390013
000030 bc 11 00 00 bc 11 00 00 91 02 24 2f 3b e2 18 2f
       6.362e-42 6.362e-42 1.4916625e-10 1.3904693e-10
000040 fb 68 09 41 64 f1 f2 40 28 28 8e 40 ae 98 80 40
       8.58813 7.5919666 4.442402 4.0186377
000050 8d e5 eb 3f 6c 87 fb 40 9b 42 8b 3f 45 81 4f 40
       1.8429428 7.860281 1.0879701 3.242265

w f4 [1, 24, 1]
000000 00 00 20 41 00 00 20 41 00 00 20 41 00 00 20 41
       10.0 10.0 10.0 10.0
000010 8b 9d 06 41 72 89 18 41 6b 3a 1b 40 34 45 d9 40
       8.413463 9.533556 2.4254405 6.7896976
000020 74 7a 90 3f 55 c0 a1 3f 11 3f d8 3e 3d d6 a5 3e
       1.128737 1.263682 0.42235616 0.32390013
000030 bc 11 00 00 bc 11 00 00 91 02 24 2f 3b e2 18 2f
       6.362e-42 6.362e-42 1.4916625e-10 1.3904693e-10
000040 fb 68 09 41 64 f1 f2 40 28 28 8e 40 ae 98 80 40
       8.58813 7.5919666 4.442402 4.0186377
000050 8d e5 eb 3f 6c 87 fb 40 9b 42 8b 3f 45 81 4f 40
       1.8429428 7.860281 1.0879701 3.242265

w f4 [1, 24, 1]
000000 00 00 20 41 00 00 20 41 00 00 20 41 00 00 20 41
       10.0 10.0 10.0 10.0
000010 8b 9d 06 41 72 89 18 41 6b 3a 1b 40 34 45 d9 40
       8.413463 9.533556 2.4254405 6.7896976
000020 74 7a 90 3f 55 c0 a1 3f 11 3f d8 3e 3d d6 a5 3e
       1.128737 1.263682 0.42235616 0.32390013
000030 bc 11 00 00 bc 11 00 00 91 02 24 2f 3b e2 18 2f
       6.362e-42 6.362e-42 1.4916625e-10 1.3904693e-10
000040 fb 68 09 41 64 f1 f2 40 28 28 8e 40 ae 98 80 40
       8.58813 7.5919666 4.442402 4.0186377
000050 8d e5 eb 3f 6c 87 fb 40 9b 42 8b 3f 45 81 4f 40
       1.8429428 7.860281 1.0879701 3.242265

w f4 [1, 24, 1]
000000 00 00 20 41 00 00 20 41 00 00 20 41 00 00 20 41
       10.0 10.0 10.0 10.0
000010 8b 9d 06 41 72 89 18 41 6b 3a 1b 40 34 45 d9 40
       8.413463 9.533556 2.4254405 6.7896976
000020 74 7a 90 3f 55 c0 a1 3f 11 3f d8 3e 3d d6 a5 3e
       1.128737 1.263682 0.42235616 0.32390013
000030 bc 11 00 00 bc 11 00 00 91 02 24 2f 3b e2 18 2f
       6.362e-42 6.362e-42 1.4916625e-10 1.3904693e-10
000040 fb 68 09 41 64 f1 f2 40 28 28 8e 40 ae 98 80 40
       8.58813 7.5919666 4.442402 4.0186377
000050 8d e5 eb 3f 6c 87 fb 40 9b 42 8b 3f 45 81 4f 40
       1.8429428 7.860281 1.0879701 3.242265

w f4 [1, 24, 1]
000000 00 00 20 41 00 00 20 41 00 00 20 41 00 00 20 41
       10.0 10.0 10.0 10.0
000010 8b 9d 06 41 72 89 18 41 6b 3a 1b 40 34 45 d9 40
       8.413463 9.533556 2.4254405 6.7896976
000020 74 7a 90 3f 55 c0 a1 3f 11 3f d8 3e 3d d6 a5 3e
       1.128737 1.263682 0.42235616 0.32390013
000030 bc 11 00 00 bc 11 00 00 91 02 24 2f 3b e2 18 2f
       6.362e-42 6.362e-42 1.4916625e-10 1.3904693e-10
000040 fb 68 09 41 64 f1 f2 40 28 28 8e 40 ae 98 80 40
       8.58813 7.5919666 4.442402 4.0186377
000050 8d e5 eb 3f 6c 87 fb 40 9b 42 8b 3f 45 81 4f 40
       1.8429428 7.860281 1.0879701 3.242265

w f4 [1, 24, 1]
000000 00 00 20 41 00 00 20 41 00 00 20 41 00 00 20 41
       10.0 10.0 10.0 10.0
000010 8b 9d 06 41 72 89 18 41 6b 3a 1b 40 34 45 d9 40
       8.413463 9.533556 2.4254405 6.7896976
000020 74 7a 90 3f 55 c0 a1 3f 11 3f d8 3e 3d d6 a5 3e
       1.128737 1.263682 0.42235616 0.32390013
000030 bc 11 00 00 bc 11 00 00 91 02 24 2f 3b e2 18 2f
       6.362e-42 6.362e-42 1.4916625e-10 1.3904693e-10
000040 fb 68 09 41 64 f1 f2 40 28 28 8e 40 ae 98 80 40
       8.58813 7.5919666 4.442402 4.0186377
000050 8d e5 eb 3f 6c 87 fb 40 9b 42 8b 3f 45 81 4f 40
       1.8429428 7.860281 1.0879701 3.242265

w f4 [1, 24, 1]
000000 00 00 20 41 00 00 20 41 00 00 20 41 00 00 20 41
       10.0 10.0 10.0 10.0
000010 8b 9d 06 41 72 89 18 41 6b 3a 1b 40 34 45 d9 40
       8.413463 9.533556 2.4254405 6.7896976
000020 74 7a 90 3f 55 c0 a1 3f 11 3f d8 3e 3d d6 a5 3e
       1.128737 1.263682 0.42235616 0.32390013
000030 bc 11 00 00 bc 11 00 00 91 02 24 2f 3b e2 18 2f
       6.362e-42 6.362e-42 1.4916625e-10 1.3904693e-10
000040 fb 68 09 41 64 f1 f2 40 28 28 8e 40 ae 98 80 40
       8.58813 7.5919666 4.442402 4.0186377
000050 8d e5 eb 3f 6c 87 fb 40 9b 42 8b 3f 45 81 4f 40
       1.8429428 7.860281 1.0879701 3.242265

w f4 [1, 24, 1]
000000 00 00 20 41 00 00 20 41 00 00 20 41 00 00 20 41
       10.0 10.0 10.0 10.0
000010 8b 9d 06 41 72 89 18 41 6b 3a 1b 40 34 45 d9 40
       8.413463 9.533556 2.4254405 6.7896976
000020 74 7a 90 3f 55 c0 a1 3f 11 3f d8 3e 3d d6 a5 3e
       1.128737 1.263682 0.42235616 0.32390013
000030 bc 11 00 00 bc 11 00 00 91 02 24 2f 3b e2 18 2f
       6.362e-42 6.362e-42 1.4916625e-10 1.3904693e-10
000040 fb 68 09 41 64 f1 f2 40 28 28 8e 40 ae 98 80 40
       8.58813 7.5919666 4.442402 4.0186377
000050 8d e5 eb 3f 6c 87 fb 40 9b 42 8b 3f 45 81 4f 40
       1.8429428 7.860281 1.0879701 3.242265

w f4 [1, 24, 1]
000000 00 00 20 41 00 00 20 41 00 00 20 41 00 00 20 41
       10.0 10.0 10.0 10.0
000010 8b 9d 06 41 72 89 18 41 6b 3a 1b 40 34 45 d9 40
       8.413463 9.533556 2.4254405 6.7896976
000020 74 7a 90 3f 55 c0 a1 3f 11 3f d8 3e 3d d6 a5 3e
       1.128737 1.263682 0.42235616 0.32390013
000030 bc 11 00 00 bc 11 00 00 91 02 24 2f 3b e2 18 2f
       6.362e-42 6.362e-42 1.4916625e-10 1.3904693e-10
000040 fb 68 09 41 64 f1 f2 40 28 28 8e 40 ae 98 80 40
       8.58813 7.5919666 4.442402 4.0186377
000050 8d e5 eb 3f 6c 87 fb 40 9b 42 8b 3f 45 81 4f 40
       1.8429428 7.860281 1.0879701 3.242265

w f4 [1, 24, 1]
000000 00 00 20 41 00 00 20 41 00 00 20 41 00 00 20 41
       10.0 10.0 10.0 10.0
000010 8b 9d 06 41 72 89 18 41 6b 3a 1b 40 34 45 d9 40
       8.413463 9.533556 2.4254405 6.7896976
000020 74 7a 90 3f 55 c0 a1 3f 11 3f d8 3e 3d d6 a5 3e
       1.128737 1.263682 0.42235616 0.32390013
000030 bc 11 00 00 bc 11 00 00 91 02 24 2f 3b e2 18 2f
       6.362e-42 6.362e-42 1.4916625e-10 1.3904693e-10
000040 fb 68 09 41 64 f1 f2 40 28 28 8e 40 ae 98 80 40
       8.58813 7.5919666 4.442402 4.0186377
000050 8d e5 eb 3f 6c 87 fb 40 9b 42 8b 3f 45 81 4f 40
       1.8429428 7.860281 1.0879701 3.242265

w f4 [1, 24, 1]
000000 00 00 20 41 00 00 20 41 00 00 20 41 00 00 20 41
       10.0 10.0 10.0 10.0
000010 8b 9d 06 41 72 89 18 41 6b 3a 1b 40 34 45 d9 40
       8.413463 9.533556 2.4254405 6.7896976
000020 74 7a 90 3f 55 c0 a1 3f 11 3f d8 3e 3d d6 a5 3e
       1.128737 1.263682 0.42235616 0.32390013
000030 bc 11 00 00 bc 11 00 00 91 02 24 2f 3b e2 18 2f
       6.362e-42 6.362e-42 1.4916625e-10 1.3904693e-10
000040 fb 68 09 41 64 f1 f2 40 28 28 8e 40 ae 98 80 40
       8.58813 7.5919666 4.442402 4.0186377
000050 8d e5 eb 3f 6c 87 fb 40 9b 42 8b 3f 45 81 4f 40
       1.8429428 7.860281 1.0879701 3.242265

w f4 [1, 24, 1]
000000 00 00 20 41 00 00 20 41 00 00 20 41 00 00 20 41
       10.0 10.0 10.0 10.0
000010 8b 9d 06 41 72 89 18 41 6b 3a 1b 40 34 45 d9 40
       8.413463 9.533556 2.4254405 6.7896976
000020 74 7a 90 3f 55 c0 a1 3f 11 3f d8 3e 3d d6 a5 3e
       1.128737 1.263682 0.42235616 0.32390013
000030 bc 11 00 00 bc 11 00 00 91 02 24 2f 3b e2 18 2f
       6.362e-42 6.362e-42 1.4916625e-10 1.3904693e-10
000040 fb 68 09 41 64 f1 f2 40 28 28 8e 40 ae 98 80 40
       8.58813 7.5919666 4.442402 4.0186377
000050 8d e5 eb 3f 6c 87 fb 40 9b 42 8b 3f 45 81 4f 40
       1.8429428 7.860281 1.0879701 3.242265

w f4 [1, 24, 1]
000000 00 00 20 41 00 00 20 41 00 00 20 41 00 00 20 41
       10.0 10.0 10.0 10.0
000010 8b 9d 06 41 72 89 18 41 6b 3a 1b 40 34 45 d9 40
       8.413463 9.533556 2.4254405 6.7896976
000020 74 7a 90 3f 55 c0 a1 3f 11 3f d8 3e 3d d6 a5 3e
       1.128737 1.263682 0.42235616 0.32390013
000030 bc 11 00 00 bc 11 00 00 91 02 24 2f 3b e2 18 2f
       6.362e-42 6.362e-42 1.4916625e-10 1.3904693e-10
000040 fb 68 09 41 64 f1 f2 40 28 28 8e 40 ae 98 80 40
       8.58813 7.5919666 4.442402 4.0186377
000050 8d e5 eb 3f 6c 87 fb 40 9b 42 8b 3f 45 81 4f 40
       1.8429428 7.860281 1.0879701 3.242265

w f4 [1, 24, 1]
000000 00 00 20 41 00 00 20 41 00 00 20 41 00 00 20 41
       10.0 10.0 10.0 10.0
000010 8b 9d 06 41 72 89 18 41 6b 3a 1b 40 34 45 d9 40
       8.413463 9.533556 2.4254405 6.7896976
000020 74 7a 90 3f 55 c0 a1 3f 11 3f d8 3e 3d d6 a5 3e
       1.128737 1.263682 0.42235616 0.32390013
000030 bc 11 00 00 bc 11 00 00 91 02 24 2f 3b e2 18 2f
       6.362e-42 6.362e-42 1.4916625e-10 1.3904693e-10
000040 fb 68 09 41 64 f1 f2 40 28 28 8e 40 ae 98 80 40
       8.58813 7.5919666 4.442402 4.0186377
000050 8d e5 eb 3f 6c 87 fb 40 9b 42 8b 3f 45 81 4f 40
       1.8429428 7.860281 1.0879701 3.242265

w f4 [1, 24, 1]
000000 00 00 20 41 00 00 20 41 00 00 20 41 00 00 20 41
       10.0 10.0 10.0 10.0
000010 8b 9d 06 41 72 89 18 41 6b 3a 1b 40 34 45 d9 40
       8.413463 9.533556 2.4254405 6.7896976
000020 74 7a 90 3f 55 c0 a1 3f 11 3f d8 3e 3d d6 a5 3e
       1.128737 1.263682 0.42235616 0.32390013
000030 bc 11 00 00 bc 11 00 00 91 02 24 2f 3b e2 18 2f
       6.362e-42 6.362e-42 1.4916625e-10 1.3904693e-10
000040 fb 68 09 41 64 f1 f2 40 28 28 8e 40 ae 98 80 40
       8.58813 7.5919666 4.442402 4.0186377
000050 8d e5 eb 3f 6c 87 fb 40 9b 42 8b 3f 45 81 4f 40
       1.8429428 7.860281 1.0879701 3.242265

w f4 [1, 24, 1]
000000 00 00 20 41 00 00 20 41 00 00 20 41 00 00 20 41
       10.0 10.0 10.0 10.0
000010 8b 9d 06 41 72 89 18 41 6b 3a 1b 40 34 45 d9 40
       8.413463 9.533556 2.4254405 6.7896976
000020 74 7a 90 3f 55 c0 a1 3f 11 3f d8 3e 3d d6 a5 3e
       1.128737 1.263682 0.42235616 0.32390013
000030 bc 11 00 00 bc 11 00 00 91 02 24 2f 3b e2 18 2f
       6.362e-42 6.362e-42 1.4916625e-10 1.3904693e-10
000040 fb 68 09 41 64 f1 f2 40 28 28 8e 40 ae 98 80 40
       8.58813 7.5919666 4.442402 4.0186377
000050 8d e5 eb 3f 6c 87 fb 40 9b 42 8b 3f 45 81 4f 40
       1.8429428 7.860281 1.0879701 3.242265

w f4 [1, 24, 1]
000000 00 00 20 41 00 00 20 41 00 00 20 41 00 00 20 41
       10.0 10.0 10.0 10.0
000010 8b 9d 06 41 72 89 18 41 6b 3a 1b 40 34 45 d9 40
       8.413463 9.533556 2.4254405 6.7896976
000020 74 7a 90 3f 55 c0 a1 3f 11 3f d8 3e 3d d6 a5 3e
       1.128737 1.263682 0.42235616 0.32390013
000030 bc 11 00 00 bc 11 00 00 91 02 24 2f 3b e2 18 2f
       6.362e-42 6.362e-42 1.4916625e-10 1.3904693e-10
000040 fb 68 09 41 64 f1 f2 40 28 28 8e 40 ae 98 80 40
       8.58813 7.5919666 4.442402 4.0186377
000050 8d e5 eb 3f 6c 87 fb 40 9b 42 8b 3f 45 81 4f 40
       1.8429428 7.860281 1.0879701 3.242265

w f4 [1, 24, 1]
000000 00 00 20 41 00 00 20 41 00 00 20 41 00 00 20 41
       10.0 10.0 10.0 10.0
000010 8b 9d 06 41 72 89 18 41 6b 3a 1b 40 34 45 d9 40
       8.413463 9.533556 2.4254405 6.7896976
000020 74 7a 90 3f 55 c0 a1 3f 11 3f d8 3e 3d d6 a5 3e
       1.128737 1.263682 0.42235616 0.32390013
000030 bc 11 00 00 bc 11 00 00 91 02 24 2f 3b e2 18 2f
       6.362e-42 6.362e-42 1.4916625e-10 1.3904693e-10
000040 fb 68 09 41 64 f1 f2 40 28 28 8e 40 ae 98 80 40
       8.58813 7.5919666 4.442402 4.0186377
000050 8d e5 eb 3f 6c 87 fb 40 9b 42 8b 3f 45 81 4f 40
       1.8429428 7.860281 1.0879701 3.242265

w f4 [1, 24, 1]
000000 00 00 20 41 00 00 20 41 00 00 20 41 00 00 20 41
       10.0 10.0 10.0 10.0
000010 8b 9d 06 41 72 89 18 41 6b 3a 1b 40 34 45 d9 40
       8.413463 9.533556 2.4254405 6.7896976
000020 74 7a 90 3f 55 c0 a1 3f 11 3f d8 3e 3d d6 a5 3e
       1.128737 1.263682 0.42235616 0.32390013
000030 bc 11 00 00 bc 11 00 00 91 02 24 2f 3b e2 18 2f
       6.362e-42 6.362e-42 1.4916625e-10 1.3904693e-10
000040 fb 68 09 41 64 f1 f2 40 28 28 8e 40 ae 98 80 40
       8.58813 7.5919666 4.442402 4.0186377
000050 8d e5 eb 3f 6c 87 fb 40 9b 42 8b 3f 45 81 4f 40
       1.8429428 7.860281 1.0879701 3.242265

w f4 [1, 24, 1]
000000 00 00 20 41 00 00 20 41 00 00 20 41 00 00 20 41
       10.0 10.0 10.0 10.0
000010 8b 9d 06 41 72 89 18 41 6b 3a 1b 40 34 45 d9 40
       8.413463 9.533556 2.4254405 6.7896976
000020 74 7a 90 3f 55 c0 a1 3f 11 3f d8 3e 3d d6 a5 3e
       1.128737 1.263682 0.42235616 0.32390013
000030 bc 11 00 00 bc 11 00 00 91 02 24 2f 3b e2 18 2f
       6.362e-42 6.362e-42 1.4916625e-10 1.3904693e-10
000040 fb 68 09 41 64 f1 f2 40 28 28 8e 40 ae 98 80 40
       8.58813 7.5919666 4.442402 4.0186377
000050 8d e5 eb 3f 6c 87 fb 40 9b 42 8b 3f 45 81 4f 40
       1.8429428 7.860281 1.0879701 3.242265

w f4 [1, 24, 1]
000000 00 00 20 41 00 00 20 41 00 00 20 41 00 00 20 41
       10.0 10.0 10.0 10.0
000010 8b 9d 06 41 72 89 18 41 6b 3a 1b 40 34 45 d9 40
       8.413463 9.533556 2.4254405 6.7896976
000020 74 7a 90 3f 55 c0 a1 3f 11 3f d8 3e 3d d6 a5 3e
       1.128737 1.263682 0.42235616 0.32390013
000030 bc 11 00 00 bc 11 00 00 91 02 24 2f 3b e2 18 2f
       6.362e-42 6.362e-42 1.4916625e-10 1.3904693e-10
000040 fb 68 09 41 64 f1 f2 40 28 28 8e 40 ae 98 80 40
       8.58813 7.5919666 4.442402 4.0186377
000050 8d e5 eb 3f 6c 87 fb 40 9b 42 8b 3f 45 81 4f 40
       1.8429428 7.860281 1.0879701 3.242265

w f4 [1, 24, 1]
000000 00 00 20 41 00 00 20 41 00 00 20 41 00 00 20 41
       10.0 10.0 10.0 10.0
000010 8b 9d 06 41 72 89 18 41 6b 3a 1b 40 34 45 d9 40
       8.413463 9.533556 2.4254405 6.7896976
000020 74 7a 90 3f 55 c0 a1 3f 11 3f d8 3e 3d d6 a5 3e
       1.128737 1.263682 0.42235616 0.32390013
000030 bc 11 00 00 bc 11 00 00 91 02 24 2f 3b e2 18 2f
       6.362e-42 6.362e-42 1.4916625e-10 1.3904693e-10
000040 fb 68 09 41 64 f1 f2 40 28 28 8e 40 ae 98 80 40
       8.58813 7.5919666 4.442402 4.0186377
000050 8d e5 eb 3f 6c 87 fb 40 9b 42 8b 3f 45 81 4f 40
       1.8429428 7.860281 1.0879701 3.242265

w f4 [1, 24, 1]
000000 00 00 20 41 00 00 20 41 00 00 20 41 00 00 20 41
       10.0 10.0 10.0 10.0
000010 8b 9d 06 41 72 89 18 41 6b 3a 1b 40 34 45 d9 40
       8.413463 9.533556 2.4254405 6.7896976
000020 74 7a 90 3f 55 c0 a1 3f 11 3f d8 3e 3d d6 a5 3e
       1.128737 1.263682 0.42235616 0.32390013
000030 bc 11 00 00 bc 11 00 00 91 02 24 2f 3b e2 18 2f
       6.362e-42 6.362e-42 1.4916625e-10 1.3904693e-10
000040 fb 68 09 41 64 f1 f2 40 28 28 8e 40 ae 98 80 40
       8.58813 7.5919666 4.442402 4.0186377
000050 8d e5 eb 3f 6c 87 fb 40 9b 42 8b 3f 45 81 4f 40
       1.8429428 7.860281 1.0879701 3.242265

w f4 [1, 24, 1]
000000 00 00 20 41 00 00 20 41 00 00 20 41 00 00 20 41
       10.0 10.0 10.0 10.0
000010 8b 9d 06 41 72 89 18 41 6b 3a 1b 40 34 45 d9 40
       8.413463 9.533556 2.4254405 6.7896976
000020 74 7a 90 3f 55 c0 a1 3f 11 3f d8 3e 3d d6 a5 3e
       1.128737 1.263682 0.42235616 0.32390013
000030 bc 11 00 00 bc 11 00 00 91 02 24 2f 3b e2 18 2f
       6.362e-42 6.362e-42 1.4916625e-10 1.3904693e-10
000040 fb 68 09 41 64 f1 f2 40 28 28 8e 40 ae 98 80 40
       8.58813 7.5919666 4.442402 4.0186377
000050 8d e5 eb 3f 6c 87 fb 40 9b 42 8b 3f 45 81 4f 40
       1.8429428 7.860281 1.0879701 3.242265

w f4 [1, 24, 1]
000000 00 00 20 41 00 00 20 41 00 00 20 41 00 00 20 41
       10.0 10.0 10.0 10.0
000010 8b 9d 06 41 72 89 18 41 6b 3a 1b 40 34 45 d9 40
       8.413463 9.533556 2.4254405 6.7896976
000020 74 7a 90 3f 55 c0 a1 3f 11 3f d8 3e 3d d6 a5 3e
       1.128737 1.263682 0.42235616 0.32390013
000030 bc 11 00 00 bc 11 00 00 91 02 24 2f 3b e2 18 2f
       6.362e-42 6.362e-42 1.4916625e-10 1.3904693e-10
000040 fb 68 09 41 64 f1 f2 40 28 28 8e 40 ae 98 80 40
       8.58813 7.5919666 4.442402 4.0186377
000050 8d e5 eb 3f 6c 87 fb 40 9b 42 8b 3f 45 81 4f 40
       1.8429428 7.860281 1.0879701 3.242265

w f4 [1, 24, 1]
000000 00 00 20 41 00 00 20 41 00 00 20 41 00 00 20 41
       10.0 10.0 10.0 10.0
000010 8b 9d 06 41 72 89 18 41 6b 3a 1b 40 34 45 d9 40
       8.413463 9.533556 2.4254405 6.7896976
000020 74 7a 90 3f 55 c0 a1 3f 11 3f d8 3e 3d d6 a5 3e
       1.128737 1.263682 0.42235616 0.32390013
000030 bc 11 00 00 bc 11 00 00 91 02 24 2f 3b e2 18 2f
       6.362e-42 6.362e-42 1.4916625e-10 1.3904693e-10
000040 fb 68 09 41 64 f1 f2 40 28 28 8e 40 ae 98 80 40
       8.58813 7.5919666 4.442402 4.0186377
000050 8d e5 eb 3f 6c 87 fb 40 9b 42 8b 3f 45 81 4f 40
       1.8429428 7.860281 1.0879701 3.242265

w f4 [1, 24, 1]
000000 00 00 20 41 00 00 20 41 00 00 20 41 00 00 20 41
       10.0 10.0 10.0 10.0
000010 8b 9d 06 41 72 89 18 41 6b 3a 1b 40 34 45 d9 40
       8.413463 9.533556 2.4254405 6.7896976
000020 74 7a 90 3f 55 c0 a1 3f 11 3f d8 3e 3d d6 a5 3e
       1.128737 1.263682 0.42235616 0.32390013
000030 bc 11 00 00 bc 11 00 00 91 02 24 2f 3b e2 18 2f
       6.362e-42 6.362e-42 1.4916625e-10 1.3904693e-10
000040 fb 68 09 41 64 f1 f2 40 28 28 8e 40 ae 98 80 40
       8.58813 7.5919666 4.442402 4.0186377
000050 8d e5 eb 3f 6c 87 fb 40 9b 42 8b 3f 45 81 4f 40
       1.8429428 7.860281 1.0879701 3.242265

w f4 [1, 24, 1]
000000 00 00 20 41 00 00 20 41 00 00 20 41 00 00 20 41
       10.0 10.0 10.0 10.0
000010 8b 9d 06 41 72 89 18 41 6b 3a 1b 40 34 45 d9 40
       8.413463 9.533556 2.4254405 6.7896976
000020 74 7a 90 3f 55 c0 a1 3f 11 3f d8 3e 3d d6 a5 3e
       1.128737 1.263682 0.42235616 0.32390013
000030 bc 11 00 00 bc 11 00 00 91 02 24 2f 3b e2 18 2f
       6.362e-42 6.362e-42 1.4916625e-10 1.3904693e-10
000040 fb 68 09 41 64 f1 f2 40 28 28 8e 40 ae 98 80 40
       8.58813 7.5919666 4.442402 4.0186377
000050 8d e5 eb 3f 6c 87 fb 40 9b 42 8b 3f 45 81 4f 40
       1.8429428 7.860281 1.0879701 3.242265

w f4 [1, 24, 1]
000000 00 00 20 41 00 00 20 41 00 00 20 41 00 00 20 41
       10.0 10.0 10.0 10.0
000010 8b 9d 06 41 72 89 18 41 6b 3a 1b 40 34 45 d9 40
       8.413463 9.533556 2.4254405 6.7896976
000020 74 7a 90 3f 55 c0 a1 3f 11 3f d8 3e 3d d6 a5 3e
       1.128737 1.263682 0.42235616 0.32390013
000030 bc 11 00 00 bc 11 00 00 91 02 24 2f 3b e2 18 2f
       6.362e-42 6.362e-42 1.4916625e-10 1.3904693e-10
000040 fb 68 09 41 64 f1 f2 40 28 28 8e 40 ae 98 80 40
       8.58813 7.5919666 4.442402 4.0186377
000050 8d e5 eb 3f 6c 87 fb 40 9b 42 8b 3f 45 81 4f 40
       1.8429428 7.860281 1.0879701 3.242265

w f4 [1, 24, 1]
000000 00 00 20 41 00 00 20 41 00 00 20 41 00 00 20 41
       10.0 10.0 10.0 10.0
000010 8b 9d 06 41 72 89 18 41 6b 3a 1b 40 34 45 d9 40
       8.413463 9.533556 2.4254405 6.7896976
000020 74 7a 90 3f 55 c0 a1 3f 11 3f d8 3e 3d d6 a5 3e
       1.128737 1.263682 0.42235616 0.32390013
000030 bc 11 00 00 bc 11 00 00 91 02 24 2f 3b e2 18 2f
       6.362e-42 6.362e-42 1.4916625e-10 1.3904693e-10
000040 fb 68 09 41 64 f1 f2 40 28 28 8e 40 ae 98 80 40
       8.58813 7.5919666 4.442402 4.0186377
000050 8d e5 eb 3f 6c 87 fb 40 9b 42 8b 3f 45 81 4f 40
       1.8429428 7.860281 1.0879701 3.242265

w f4 [1, 24, 1]
000000 00 00 20 41 00 00 20 41 00 00 20 41 00 00 20 41
       10.0 10.0 10.0 10.0
000010 8b 9d 06 41 72 89 18 41 6b 3a 1b 40 34 45 d9 40
       8.413463 9.533556 2.4254405 6.7896976
000020 74 7a 90 3f 55 c0 a1 3f 11 3f d8 3e 3d d6 a5 3e
       1.128737 1.263682 0.42235616 0.32390013
000030 bc 11 00 00 bc 11 00 00 91 02 24 2f 3b e2 18 2f
       6.362e-42 6.362e-42 1.4916625e-10 1.3904693e-10
000040 fb 68 09 41 64 f1 f2 40 28 28 8e 40 ae 98 80 40
       8.58813 7.5919666 4.442402 4.0186377
000050 8d e5 eb 3f 6c 87 fb 40 9b 42 8b 3f 45 81 4f 40
       1.8429428 7.860281 1.0879701 3.242265

w f4 [1, 24, 1]
000000 00 00 20 41 00 00 20 41 00 00 20 41 00 00 20 41
       10.0 10.0 10.0 10.0
000010 8b 9d 06 41 72 89 18 41 6b 3a 1b 40 34 45 d9 40
       8.413463 9.533556 2.4254405 6.7896976
000020 74 7a 90 3f 55 c0 a1 3f 11 3f d8 3e 3d d6 a5 3e
       1.128737 1.263682 0.42235616 0.32390013
000030 bc 11 00 00 bc 11 00 00 91 02 24 2f 3b e2 18 2f
       6.362e-42 6.362e-42 1.4916625e-10 1.3904693e-10
000040 fb 68 09 41 64 f1 f2 40 28 28 8e 40 ae 98 80 40
       8.58813 7.5919666 4.442402 4.0186377
000050 8d e5 eb 3f 6c 87 fb 40 9b 42 8b 3f 45 81 4f 40
       1.8429428 7.860281 1.0879701 3.242265

w f4 [1, 24, 1]
000000 00 00 20 41 00 00 20 41 00 00 20 41 00 00 20 41
       10.0 10.0 10.0 10.0
000010 8b 9d 06 41 72 89 18 41 6b 3a 1b 40 34 45 d9 40
       8.413463 9.533556 2.4254405 6.7896976
000020 74 7a 90 3f 55 c0 a1 3f 11 3f d8 3e 3d d6 a5 3e
       1.128737 1.263682 0.42235616 0.32390013
000030 bc 11 00 00 bc 11 00 00 91 02 24 2f 3b e2 18 2f
       6.362e-42 6.362e-42 1.4916625e-10 1.3904693e-10
000040 fb 68 09 41 64 f1 f2 40 28 28 8e 40 ae 98 80 40
       8.58813 7.5919666 4.442402 4.0186377
000050 8d e5 eb 3f 6c 87 fb 40 9b 42 8b 3f 45 81 4f 40
       1.8429428 7.860281 1.0879701 3.242265

w f4 [1, 24, 1]
000000 00 00 20 41 00 00 20 41 00 00 20 41 00 00 20 41
       10.0 10.0 10.0 10.0
000010 8b 9d 06 41 72 89 18 41 6b 3a 1b 40 34 45 d9 40
       8.413463 9.533556 2.4254405 6.7896976
000020 74 7a 90 3f 55 c0 a1 3f 11 3f d8 3e 3d d6 a5 3e
       1.128737 1.263682 0.42235616 0.32390013
000030 bc 11 00 00 bc 11 00 00 91 02 24 2f 3b e2 18 2f
       6.362e-42 6.362e-42 1.4916625e-10 1.3904693e-10
000040 fb 68 09 41 64 f1 f2 40 28 28 8e 40 ae 98 80 40
       8.58813 7.5919666 4.442402 4.0186377
000050 8d e5 eb 3f 6c 87 fb 40 9b 42 8b 3f 45 81 4f 40
       1.8429428 7.860281 1.0879701 3.242265

w f4 [1, 24, 1]
000000 00 00 20 41 00 00 20 41 00 00 20 41 00 00 20 41
       10.0 10.0 10.0 10.0
000010 8b 9d 06 41 72 89 18 41 6b 3a 1b 40 34 45 d9 40
       8.413463 9.533556 2.4254405 6.7896976
000020 74 7a 90 3f 55 c0 a1 3f 11 3f d8 3e 3d d6 a5 3e
       1.128737 1.263682 0.42235616 0.32390013
000030 bc 11 00 00 bc 11 00 00 91 02 24 2f 3b e2 18 2f
       6.362e-42 6.362e-42 1.4916625e-10 1.3904693e-10
000040 fb 68 09 41 64 f1 f2 40 28 28 8e 40 ae 98 80 40
       8.58813 7.5919666 4.442402 4.0186377
000050 8d e5 eb 3f 6c 87 fb 40 9b 42 8b 3f 45 81 4f 40
       1.8429428 7.860281 1.0879701 3.242265
