SNN_Codes/Spiking_codes_real/Trained_SNN/sail_1012.pt (torch, 797260 bytes, 505 tensors)

x f4 [1, 120]
0	0x00000000	0.0
1	0x00000000	0.0
2	0x00000000	0.0
3	0x00000000	0.0
4	0x00000000	0.0
5	0x00000000	0.0
6	0x00000000	0.0
7	0x00000000	0.0
8	0x00000000	0.0
9	0x00000000	0.0
10	0x00000000	0.0
11	0x00000000	0.0
12	0x00000000	0.0
13	0x00000000	0.0
14	0x00000000	0.0
15	0x00000000	0.0
16	0x00000000	0.0
17	0x00000000	0.0
18	0x00000000	0.0
19	0x00000000	0.0
20	0x00000000	0.0
21	0x00000000	0.0
22	0x00000000	0.0
23	0x00000000	0.0
24	0x00000000	0.0
25	0x00000000	0.0
26	0x00000000	0.0
27	0x00000000	0.0
28	0x00000000	0.0
29	0x00000000	0.0
30	0x00000000	0.0
31	0x00000000	0.0
32	0x00000000	0.0
33	0x00000000	0.0
34	0x00000000	0.0
35	0x00000000	0.0
36	0x00000000	0.0
37	0x00000000	0.0
38	0x00000000	0.0
39	0x00000000	0.0
40	0x00000000	0.0
41	0x00000000	0.0
42	0x00000000	0.0
43	0x00000000	0.0
44	0x00000000	0.0
45	0x00000000	0.0
46	0x00000000	0.0
47	0x00000000	0.0
48	0x00000000	0.0
49	0x00000000	0.0
50	0x00000000	0.0
51	0x00000000	0.0
52	0x00000000	0.0
53	0x00000000	0.0
54	0x00000000	0.0
55	0x00000000	0.0
56	0x00000000	0.0
57	0x00000000	0.0
58	0x00000000	0.0
59	0x00000000	0.0
60	0x0000000a	1.4e-44
61	0x0000000a	1.4e-44
62	0x00000000	0.0
63	0x00000000	0.0
64	0x00000000	0.0
65	0x00000000	0.0
66	0x00000000	0.0
67	0x00000000	0.0
68	0x00000000	0.0
69	0x00000000	0.0
70	0x00000000	0.0
71	0x00000000	0.0
72	0x00000000	0.0
73	0x00000000	0.0
74	0x00000000	0.0
75	0x00000000	0.0
76	0x00000000	0.0
77	0x00000000	0.0
78	0x00000000	0.0
79	0x00000000	0.0
80	0x00000000	0.0
81	0x00000000	0.0
82	0x00000000	0.0
83	0x00000000	0.0
84	0x00000000	0.0
85	0x00000000	0.0
86	0x00000000	0.0
87	0x00000000	0.0
88	0x00000000	0.0
89	0x00000000	0.0
90	0x00000000	0.0
91	0x00000000	0.0
92	0x00000000	0.0
93	0x00000000	0.0
94	0x00000000	0.0
95	0x00000000	0.0
96	0x00000000	0.0
97	0x00000000	0.0
98	0x00000000	0.0
99	0x00000000	0.0
100	0x3f67a36e	0.9048375
101	0x3f800000	1.0
102	0x2d5d1293	1.256652e-11
103	0x2d524a6d	1.1953644e-11
104	0x0000000a	1.4e-44
105	0x0000000a	1.4e-44
106	0x00000000	0.0
107	0x00000000	0.0
108	0x0000000a	1.4e-44
109	0x0000000a	1.4e-44
110	0x0000000a	1.4e-44
111	0x0000000a	1.4e-44
112	0x0000000a	1.4e-44
113	0x0000000a	1.4e-44
114	0x0000000a	1.4e-44
115	0x0000000a	1.4e-44
116	0x0000000a	1.4e-44
117	0x0000000a	1.4e-44
118	0x0000000a	1.4e-44
119	0x0000000a	1.4e-44

w f4 [120, 1]
0	0x4023abbc	2.5573568
1	0x3fa62caa	1.298238
2	0x3fcc268e	1.5949266
3	0x3fcb6a72	1.589186
4	0x4003b1a6	2.0577178
5	0x3f8cbbe9	1.0994846
6	0x406de01b	3.7168033
7	0x3f9dc95e	1.2327077
8	0x3f48ab69	0.7838655
9	0x402f8cbe	2.7429652
10	0x3f32adc6	0.6979641
11	0x401fd0d8	2.4971218
12	0x3f581344	0.84404397
13	0x4007df0f	2.1229894
14	0x3fc080e2	1.5039332
15	0x3f834ec9	1.0258418
16	0x3f0958e1	0.53651243
17	0x4017e5bd	2.373397
18	0x3f942ffc	1.1577144
19	0x3f6e792e	0.93153656
20	0x3f04705b	0.5173394
21	0x3fa49289	1.2857219
22	0x3f85d977	1.045699
23	0x3f20560e	0.6263131
24	0x3e5b9f25	0.21447428
25	0x3fa2dcf4	1.272368
26	0x3ec0113b	0.37513146
27	0x3f242a03	0.64126605
28	0x3d9a00ca	0.07519682
29	0x3e1aeec4	0.15130144
30	0x411a6d3b	9.651668
31	0x4113e9e9	9.244607
32	0x40cb08ec	6.344839
33	0x40fcebdd	7.903792
34	0x41063471	8.387803
35	0x4088bf23	4.273332
36	0x40e15c7e	7.0425406
37	0x40a709fe	5.2199697
38	0x408d4c65	4.4155755
39	0x40bc3f72	5.882745
40	0x40456eeb	3.084895
41	0x4094e77e	4.6532583
42	0x40973e97	4.7263904
43	0x40670031	3.6093867
44	0x40242360	2.564659
45	0x40a0f533	5.0299315
46	0x40436119	3.0528014
47	0x40832b7c	4.099058
48	0x3ffbabbd	1.9661785
49	0x40937faa	4.609334
50	0x00000015	3e-44
51	0x40a5e72c	5.184469
52	0x4012c414	2.2932177
53	0x405c30e1	3.4404833
54	0x3fbe350e	1.4859941
55	0x40770c40	3.8601227
56	0x4027957b	2.6184986
57	0x4068784e	3.6323428
58	0x401da16a	2.462977
59	0x400f011f	2.2344434
60	0x40cf19c9	6.4718976
61	0x41000caa	8.003092
62	0x4083a41a	4.113782
63	0x41200000	10.0
64	0x40dffd44	6.999666
65	0x40df2d89	6.9743085
66	0x40939b0e	4.6126776
67	0x41092024	8.570347
68	0x411cc0a8	9.797035
69	0x4066cce9	3.6062567
70	0x40886c1d	4.2631974
71	0x40c8094f	6.2511363
72	0x40af66cb	5.481298
73	0x40811382	4.0336313
74	0x401e773a	2.476027
75	0x40fb438f	7.851997
76	0x40930b28	4.595112
77	0x40939c81	4.6128545
78	0x40cc2884	6.3799458
79	0x3fef2833	1.8684143
80	0x3f4fe504	0.81208825
81	0x40a51cc4	5.1597614
82	0x404c7dce	3.1951785
83	0x400f8528	2.2425022
84	0x40b3d7b4	5.620081
85	0x3e8de4d5	0.27713647
86	0x401f8c21	2.4929278
87	0x4002f0ac	2.0459394
88	0x3ff4b7ef	1.9118632
89	0x408a62ca	4.324559
90	0x3fe6b468	1.8023806
91	0x3fd20b8d	1.6409775
92	0x406cfca7	3.7029207
93	0x410d845b	8.844813
94	0x3f82cd7d	1.021896
95	0x3f813c31	1.0096494
96	0x00000015	3e-44
97	0x3f56825a	0.8379265
98	0x00000015	3e-44
99	0x3ea3bbf8	0.31979346
100	0x3f950345	1.1641623
101	0x3fc1eee2	1.5151026
102	0x3f7861c9	0.9702421
103	0x3f6c786a	0.9237124
104	0x3fd4ffca	1.6640561
105	0x3f470d0a	0.7775427
106	0x3f69cba4	0.91326356
107	0x3f4640da	0.77442706
108	0x3fda156a	1.7037785
109	0x00000015	3e-44
110	0x3f322a9c	0.69596267
111	0x3f13bd00	0.57710266
112	0x3f429655	0.7601064
113	0x3ec530c8	0.3851378
114	0x3f219501	0.63117987
115	0x3efb4df5	0.49082914
116	0x3e67f844	0.226533
117	0x3e78a52f	0.24281763
118	0x2d1efa39	9.036821e-12
119	0x2d031d8a	7.453047e-12

nu f4 [2]
0	0x3f800000	1.0
1	0x3f800000	1.0

p_plus f4 [1, 120]
0	0x0000000a	1.4e-44
1	0x0000000a	1.4e-44
2	0x0000000a	1.4e-44
3	0x0000000a	1.4e-44
4	0x0000000a	1.4e-44
5	0x0000000a	1.4e-44
6	0x0000000a	1.4e-44
7	0x0000000a	1.4e-44
8	0x0000000a	1.4e-44
9	0x0000000a	1.4e-44
10	0x0000000a	1.4e-44
11	0x0000000a	1.4e-44
12	0x0000000a	1.4e-44
13	0x0000000a	1.4e-44
14	0x0000000a	1.4e-44
15	0x0000000a	1.4e-44
16	0x0000000a	1.4e-44
17	0x0000000a	1.4e-44
18	0x0000000a	1.4e-44
19	0x0000000a	1.4e-44
20	0x0000000a	1.4e-44
21	0x0000000a	1.4e-44
22	0x0000000a	1.4e-44
23	0x0000000a	1.4e-44
24	0x0000000a	1.4e-44
25	0x0000000a	1.4e-44
26	0x0000000a	1.4e-44
27	0x0000000a	1.4e-44
28	0x0000000a	1.4e-44
29	0x0000000a	1.4e-44
30	0x0000000a	1.4e-44
31	0x0000000a	1.4e-44
32	0x0000000a	1.4e-44
33	0x0000000a	1.4e-44
34	0x0000000a	1.4e-44
35	0x0000000a	1.4e-44
36	0x0000000a	1.4e-44
37	0x0000000a	1.4e-44
38	0x0000000a	1.4e-44
39	0x0000000a	1.4e-44
40	0x0000000a	1.4e-44
41	0x0000000a	1.4e-44
42	0x0000000a	1.4e-44
43	0x0000000a	1.4e-44
44	0x0000000a	1.4e-44
45	0x0000000a	1.4e-44
46	0x0000000a	1.4e-44
47	0x0000000a	1.4e-44
48	0x0000000a	1.4e-44
49	0x0000000a	1.4e-44
50	0x0000000a	1.4e-44
51	0x0000000a	1.4e-44
52	0x0000000a	1.4e-44
53	0x0000000a	1.4e-44
54	0x0000000a	1.4e-44
55	0x0000000a	1.4e-44
56	0x0000000a	1.4e-44
57	0x0000000a	1.4e-44
58	0x0000000a	1.4e-44
59	0x0000000a	1.4e-44
60	0x0000000a	1.4e-44
61	0x0000000a	1.4e-44
62	0x0000000a	1.4e-44
63	0x0000000a	1.4e-44
64	0x0000000a	1.4e-44
65	0x0000000a	1.4e-44
66	0x0000000a	1.4e-44
67	0x0000000a	1.4e-44
68	0x0000000a	1.4e-44
69	0x0000000a	1.4e-44
70	0x0000000a	1.4e-44
71	0x0000000a	1.4e-44
72	0x0000000a	1.4e-44
73	0x0000000a	1.4e-44
74	0x0000000a	1.4e-44
75	0x0000000a	1.4e-44
76	0x0000000a	1.4e-44
77	0x0000000a	1.4e-44
78	0x0000000a	1.4e-44
79	0x0000000a	1.4e-44
80	0x0000000a	1.4e-44
81	0x0000000a	1.4e-44
82	0x0000000a	1.4e-44
83	0x0000000a	1.4e-44
84	0x0000000a	1.4e-44
85	0x0000000a	1.4e-44
86	0x0000000a	1.4e-44
87	0x0000000a	1.4e-44
88	0x0000000a	1.4e-44
89	0x0000000a	1.4e-44
90	0x0000000a	1.4e-44
91	0x0000000a	1.4e-44
92	0x0000000a	1.4e-44
93	0x0000000a	1.4e-44
94	0x0000000a	1.4e-44
95	0x0000000a	1.4e-44
96	0x0000000a	1.4e-44
97	0x0000000a	1.4e-44
98	0x0000000a	1.4e-44
99	0x0000000a	1.4e-44
100	0x40a9d794	5.3075657
101	0x409666f4	4.7000675
102	0x2eab3a98	7.786588e-11
103	0x2e828aaa	5.936347e-11
104	0x0000000a	1.4e-44
105	0x0000000a	1.4e-44
106	0x0000000a	1.4e-44
107	0x0000000a	1.4e-44
108	0x0000000a	1.4e-44
109	0x0000000a	1.4e-44
110	0x0000000a	1.4e-44
111	0x0000000a	1.4e-44
112	0x0000000a	1.4e-44
113	0x0000000a	1.4e-44
114	0x0000000a	1.4e-44
115	0x0000000a	1.4e-44
116	0x0000000a	1.4e-44
117	0x0000000a	1.4e-44
118	0x0000000a	1.4e-44
119	0x0000000a	1.4e-44

eligibility f4 [1, 120, 1]
0	0x00000000	0.0
1	0x00000000	0.0
2	0x00000000	0.0
3	0x00000000	0.0
4	0x00000000	0.0
5	0x00000000	0.0
6	0x00000000	0.0
7	0x00000000	0.0
8	0x00000000	0.0
9	0x00000000	0.0
10	0x00000000	0.0
11	0x00000000	0.0
12	0x00000000	0.0
13	0x00000000	0.0
14	0x00000000	0.0
15	0x00000000	0.0
16	0x00000000	0.0
17	0x00000000	0.0
18	0x00000000	0.0
19	0x00000000	0.0
20	0x00000000	0.0
21	0x00000000	0.0
22	0x00000000	0.0
23	0x00000000	0.0
24	0x00000000	0.0
25	0x00000000	0.0
26	0x00000000	0.0
27	0x00000000	0.0
28	0x00000000	0.0
29	0x00000000	0.0
30	0x00000000	0.0
31	0x00000000	0.0
32	0x00000000	0.0
33	0x00000000	0.0
34	0x00000000	0.0
35	0x00000000	0.0
36	0x00000000	0.0
37	0x00000000	0.0
38	0x00000000	0.0
39	0x00000000	0.0
40	0x00000000	0.0
41	0x00000000	0.0
42	0x00000000	0.0
43	0x00000000	0.0
44	0x00000000	0.0
45	0x00000000	0.0
46	0x00000000	0.0
47	0x00000000	0.0
48	0x00000000	0.0
49	0x00000000	0.0
50	0x00000000	0.0
51	0x00000000	0.0
52	0x00000000	0.0
53	0x00000000	0.0
54	0x00000000	0.0
55	0x00000000	0.0
56	0x00000000	0.0
57	0x00000000	0.0
58	0x00000000	0.0
59	0x00000000	0.0
60	0x00000000	0.0
61	0x00000000	0.0
62	0x00000000	0.0
63	0x00000000	0.0
64	0x00000000	0.0
65	0x00000000	0.0
66	0x00000000	0.0
67	0x00000000	0.0
68	0x00000000	0.0
69	0x00000000	0.0
70	0x00000000	0.0
71	0x00000000	0.0
72	0x00000000	0.0
73	0x00000000	0.0
74	0x00000000	0.0
75	0x00000000	0.0
76	0x00000000	0.0
77	0x00000000	0.0
78	0x00000000	0.0
79	0x00000000	0.0
80	0x00000000	0.0
81	0x00000000	0.0
82	0x00000000	0.0
83	0x00000000	0.0
84	0x00000000	0.0
85	0x00000000	0.0
86	0x00000000	0.0
87	0x00000000	0.0
88	0x00000000	0.0
89	0x00000000	0.0
90	0x00000000	0.0
91	0x00000000	0.0
92	0x00000000	0.0
93	0x00000000	0.0
94	0x00000000	0.0
95	0x00000000	0.0
96	0x00000000	0.0
97	0x00000000	0.0
98	0x00000000	0.0
99	0x00000000	0.0
100	0x00000000	0.0
101	0xbf848401	-1.0352784
102	0x00000000	0.0
103	0x00000000	0.0
104	0x00000000	0.0
105	0x00000000	0.0
106	0x00000000	0.0
107	0x00000000	0.0
108	0x00000000	0.0
109	0x00000000	0.0
110	0x00000000	0.0
111	0x00000000	0.0
112	0x00000000	0.0
113	0x00000000	0.0
114	0x00000000	0.0
115	0x00000000	0.0
116	0x00000000	0.0
117	0x00000000	0.0
118	0x00000000	0.0
119	0x00000000	0.0

w f4 [1, 120, 1]
0	0x4023abbc	2.5573568
1	0x3fa62caa	1.298238
2	0x3fcc268e	1.5949266
3	0x3fcb6a72	1.589186
4	0x4003b1a6	2.0577178
5	0x3f8cbbe9	1.0994846
6	0x406de01b	3.7168033
7	0x3f9dc95e	1.2327077
8	0x3f48ab69	0.7838655
9	0x402f8cbe	2.7429652
10	0x3f32adc6	0.6979641
11	0x401fd0d8	2.4971218
12	0x3f581344	0.84404397
13	0x4007df0f	2.1229894
14	0x3fc080e2	1.5039332
15	0x3f834ec9	1.0258418
16	0x3f0958e1	0.53651243
17	0x4017e5bd	2.373397
18	0x3f942ffc	1.1577144
19	0x3f6e792e	0.93153656
20	0x3f04705b	0.5173394
21	0x3fa49289	1.2857219
22	0x3f85d977	1.045699
23	0x3f20560e	0.6263131
24	0x3e5b9f25	0.21447428
25	0x3fa2dcf4	1.272368
26	0x3ec0113b	0.37513146
27	0x3f242a03	0.64126605
28	0x3d9a00ca	0.07519682
29	0x3e1aeec4	0.15130144
30	0x411a6d3b	9.651668
31	0x4113e9e9	9.244607
32	0x40cb08ec	6.344839
33	0x40fcebdd	7.903792
34	0x41063471	8.387803
35	0x4088bf23	4.273332
36	0x40e15c7e	7.0425406
37	0x40a709fe	5.2199697
38	0x408d4c65	4.4155755
39	0x40bc3f72	5.882745
40	0x40456eeb	3.084895
41	0x4094e77e	4.6532583
42	0x40973e97	4.7263904
43	0x40670031	3.6093867
44	0x40242360	2.564659
45	0x40a0f533	5.0299315
46	0x40436119	3.0528014
47	0x40832b7c	4.099058
48	0x3ffbabbd	1.9661785
49	0x40937faa	4.609334
50	0x00000015	3e-44
51	0x40a5e72c	5.184469
52	0x4012c414	2.2932177
53	0x405c30e1	3.4404833
54	0x3fbe350e	1.4859941
55	0x40770c40	3.8601227
56	0x4027957b	2.6184986
57	0x4068784e	3.6323428
58	0x401da16a	2.462977
59	0x400f011f	2.2344434
60	0x40cf19c9	6.4718976
61	0x41000caa	8.003092
62	0x4083a41a	4.113782
63	0x41200000	10.0
64	0x40dffd44	6.999666
65	0x40df2d89	6.9743085
66	0x40939b0e	4.6126776
67	0x41092024	8.570347
68	0x411cc0a8	9.797035
69	0x4066cce9	3.6062567
70	0x40886c1d	4.2631974
71	0x40c8094f	6.2511363
72	0x40af66cb	5.481298
73	0x40811382	4.0336313
74	0x401e773a	2.476027
75	0x40fb438f	7.851997
76	0x40930b28	4.595112
77	0x40939c81	4.6128545
78	0x40cc2884	6.3799458
79	0x3fef2833	1.8684143
80	0x3f4fe504	0.81208825
81	0x40a51cc4	5.1597614
82	0x404c7dce	3.1951785
83	0x400f8528	2.2425022
84	0x40b3d7b4	5.620081
85	0x3e8de4d5	0.27713647
86	0x401f8c21	2.4929278
87	0x4002f0ac	2.0459394
88	0x3ff4b7ef	1.9118632
89	0x408a62ca	4.324559
90	0x3fe6b468	1.8023806
91	0x3fd20b8d	1.6409775
92	0x406cfca7	3.7029207
93	0x410d845b	8.844813
94	0x3f82cd7d	1.021896
95	0x3f813c31	1.0096494
96	0x00000015	3e-44
97	0x3f56825a	0.8379265
98	0x00000015	3e-44
99	0x3ea3bbf8	0.31979346
100	0x3f950345	1.1641623
101	0x3fc1eee2	1.5151026
102	0x3f7861c9	0.9702421
103	0x3f6c786a	0.9237124
104	0x3fd4ffca	1.6640561
105	0x3f470d0a	0.7775427
106	0x3f69cba4	0.91326356
107	0x3f4640da	0.77442706
108	0x3fda156a	1.7037785
109	0x00000015	3e-44
110	0x3f322a9c	0.69596267
111	0x3f13bd00	0.57710266
112	0x3f429655	0.7601064
113	0x3ec530c8	0.3851378
114	0x3f219501	0.63117987
115	0x3efb4df5	0.49082914
116	0x3e67f844	0.226533
117	0x3e78a52f	0.24281763
118	0x2d1efa39	9.036821e-12
119	0x2d031d8a	7.453047e-12

w f4 [1, 120, 1]
0	0x4023abbc	2.5573568
1	0x3fa62caa	1.298238
2	0x3fcc268e	1.5949266
3	0x3fcb6a72	1.589186
4	0x4003b1a6	2.0577178
5	0x3f8cbbe9	1.0994846
6	0x406de01b	3.7168033
7	0x3f9dc95e	1.2327077
8	0x3f48ab69	0.7838655
9	0x402f8cbe	2.7429652
10	0x3f32adc6	0.6979641
11	0x401fd0d8	2.4971218
12	0x3f581344	0.84404397
13	0x4007df0f	2.1229894
14	0x3fc080e2	1.5039332
15	0x3f834ec9	1.0258418
16	0x3f0958e1	0.53651243
17	0x4017e5bd	2.373397
18	0x3f942ffc	1.1577144
19	0x3f6e792e	0.93153656
20	0x3f04705b	0.5173394
21	0x3fa49289	1.2857219
22	0x3f85d977	1.045699
23	0x3f20560e	0.6263131
24	0x3e5b9f25	0.21447428
25	0x3fa2dcf4	1.272368
26	0x3ec0113b	0.37513146
27	0x3f242a03	0.64126605
28	0x3d9a00ca	0.07519682
29	0x3e1aeec4	0.15130144
30	0x411a6d3b	9.651668
31	0x4113e9e9	9.244607
32	0x40cb08ec	6.344839
33	0x40fcebdd	7.903792
34	0x41063471	8.387803
35	0x4088bf23	4.273332
36	0x40e15c7e	7.0425406
37	0x40a709fe	5.2199697
38	0x408d4c65	4.4155755
39	0x40bc3f72	5.882745
40	0x40456eeb	3.084895
41	0x4094e77e	4.6532583
42	0x40973e97	4.7263904
43	0x40670031	3.6093867
44	0x40242360	2.564659
45	0x40a0f533	5.0299315
46	0x40436119	3.0528014
47	0x40832b7c	4.099058
48	0x3ffbabbd	1.9661785
49	0x40937faa	4.609334
50	0x00000015	3e-44
51	0x40a5e72c	5.184469
52	0x4012c414	2.2932177
53	0x405c30e1	3.4404833
54	0x3fbe350e	1.4859941
55	0x40770c40	3.8601227
56	0x4027957b	2.6184986
57	0x4068784e	3.6323428
58	0x401da16a	2.462977
59	0x400f011f	2.2344434
60	0x40cf19c9	6.4718976
61	0x41000caa	8.003092
62	0x4083a41a	4.113782
63	0x41200000	10.0
64	0x40dffd44	6.999666
65	0x40df2d89	6.9743085
66	0x40939b0e	4.6126776
67	0x41092024	8.570347
68	0x411cc0a8	9.797035
69	0x4066cce9	3.6062567
70	0x40886c1d	4.2631974
71	0x40c8094f	6.2511363
72	0x40af66cb	5.481298
73	0x40811382	4.0336313
74	0x401e773a	2.476027
75	0x40fb438f	7.851997
76	0x40930b28	4.595112
77	0x40939c81	4.6128545
78	0x40cc2884	6.3799458
79	0x3fef2833	1.8684143
80	0x3f4fe504	0.81208825
81	0x40a51cc4	5.1597614
82	0x404c7dce	3.1951785
83	0x400f8528	2.2425022
84	0x40b3d7b4	5.620081
85	0x3e8de4d5	0.27713647
86	0x401f8c21	2.4929278
87	0x4002f0ac	2.0459394
88	0x3ff4b7ef	1.9118632
89	0x408a62ca	4.324559
90	0x3fe6b468	1.8023806
91	0x3fd20b8d	1.6409775
92	0x406cfca7	3.7029207
93	0x410d845b	8.844813
94	0x3f82cd7d	1.021896
95	0x3f813c31	1.0096494
96	0x00000015	3e-44
97	0x3f56825a	0.8379265
98	0x00000015	3e-44
99	0x3ea3bbf8	0.31979346
100	0x3f950345	1.1641623
101	0x3fc1eee2	1.5151026
102	0x3f7861c9	0.9702421
103	0x3f6c786a	0.9237124
104	0x3fd4ffca	1.6640561
105	0x3f470d0a	0.7775427
106	0x3f69cba4	0.91326356
107	0x3f4640da	0.77442706
108	0x3fda156a	1.7037785
109	0x00000015	3e-44
110	0x3f322a9c	0.69596267
111	0x3f13bd00	0.57710266
112	0x3f429655	0.7601064
113	0x3ec530c8	0.3851378
114	0x3f219501	0.63117987
115	0x3efb4df5	0.49082914
116	0x3e67f844	0.226533
117	0x3e78a52f	0.24281763
118	0x2d1efa39	9.036821e-12
119	0x2d031d8a	7.453047e-12

w f4 [1, 120, 1]
0	0x4023abbc	2.5573568
1	0x3fa62caa	1.298238
2	0x3fcc268e	1.5949266
3	0x3fcb6a72	1.589186
4	0x4003b1a6	2.0577178
5	0x3f8cbbe9	1.0994846
6	0x406de01b	3.7168033
7	0x3f9dc95e	1.2327077
8	0x3f48ab69	0.7838655
9	0x402f8cbe	2.7429652
10	0x3f32adc6	0.6979641
11	0x401fd0d8	2.4971218
12	0x3f581344	0.84404397
13	0x4007df0f	2.1229894
14	0x3fc080e2	1.5039332
15	0x3f834ec9	1.0258418
16	0x3f0958e1	0.53651243
17	0x4017e5bd	2.373397
18	0x3f942ffc	1.1577144
19	0x3f6e792e	0.93153656
20	0x3f04705b	0.5173394
21	0x3fa49289	1.2857219
22	0x3f85d977	1.045699
23	0x3f20560e	0.6263131
24	0x3e5b9f25	0.21447428
25	0x3fa2dcf4	1.272368
26	0x3ec0113b	0.37513146
27	0x3f242a03	0.64126605
28	0x3d9a00ca	0.07519682
29	0x3e1aeec4	0.15130144
30	0x411a6d3b	9.651668
31	0x4113e9e9	9.244607
32	0x40cb08ec	6.344839
33	0x40fcebdd	7.903792
34	0x41063471	8.387803
35	0x4088bf23	4.273332
36	0x40e15c7e	7.0425406
37	0x40a709fe	5.2199697
38	0x408d4c65	4.4155755
39	0x40bc3f72	5.882745
40	0x40456eeb	3.084895
41	0x4094e77e	4.6532583
42	0x40973e97	4.7263904
43	0x40670031	3.6093867
44	0x40242360	2.564659
45	0x40a0f533	5.0299315
46	0x40436119	3.0528014
47	0x40832b7c	4.099058
48	0x3ffbabbd	1.9661785
49	0x40937faa	4.609334
50	0x00000015	3e-44
51	0x40a5e72c	5.184469
52	0x4012c414	2.2932177
53	0x405c30e1	3.4404833
54	0x3fbe350e	1.4859941
55	0x40770c40	3.8601227
56	0x4027957b	2.6184986
57	0x4068784e	3.6323428
58	0x401da16a	2.462977
59	0x400f011f	2.2344434
60	0x40cf19c9	6.4718976
61	0x41000caa	8.003092
62	0x4083a41a	4.113782
63	0x41200000	10.0
64	0x40dffd44	6.999666
65	0x40df2d89	6.9743085
66	0x40939b0e	4.6126776
67	0x41092024	8.570347
68	0x411cc0a8	9.797035
69	0x4066cce9	3.6062567
70	0x40886c1d	4.2631974
71	0x40c8094f	6.2511363
72	0x40af66cb	5.481298
73	0x40811382	4.0336313
74	0x401e773a	2.476027
75	0x40fb438f	7.851997
76	0x40930b28	4.595112
77	0x40939c81	4.6128545
78	0x40cc2884	6.3799458
79	0x3fef2833	1.8684143
80	0x3f4fe504	0.81208825
81	0x40a51cc4	5.1597614
82	0x404c7dce	3.1951785
83	0x400f8528	2.2425022
84	0x40b3d7b4	5.620081
85	0x3e8de4d5	0.27713647
86	0x401f8c21	2.4929278
87	0x4002f0ac	2.0459394
88	0x3ff4b7ef	1.9118632
89	0x408a62ca	4.324559
90	0x3fe6b468	1.8023806
91	0x3fd20b8d	1.6409775
92	0x406cfca7	3.7029207
93	0x410d845b	8.844813
94	0x3f82cd7d	1.021896
95	0x3f813c31	1.0096494
96	0x00000015	3e-44
97	0x3f56825a	0.8379265
98	0x00000015	3e-44
99	0x3ea3bbf8	0.31979346
100	0x3f950345	1.1641623
101	0x3fc1eee2	1.5151026
102	0x3f7861c9	0.9702421
103	0x3f6c786a	0.9237124
104	0x3fd4ffca	1.6640561
105	0x3f470d0a	0.7775427
106	0x3f69cba4	0.91326356
107	0x3f4640da	0.77442706
108	0x3fda156a	1.7037785
109	0x00000015	3e-44
110	0x3f322a9c	0.69596267
111	0x3f13bd00	0.57710266
112	0x3f429655	0.7601064
113	0x3ec530c8	0.3851378
114	0x3f219501	0.63117987
115	0x3efb4df5	0.49082914
116	0x3e67f844	0.226533
117	0x3e78a52f	0.24281763
118	0x2d1efa39	9.036821e-12
119	0x2d031d8a	7.453047e-12

w f4 [1, 120, 1]
0	0x4023abbc	2.5573568
1	0x3fa62caa	1.298238
2	0x3fcc268e	1.5949266
3	0x3fcb6a72	1.589186
4	0x4003b1a6	2.0577178
5	0x3f8cbbe9	1.0994846
6	0x406de01b	3.7168033
7	0x3f9dc95e	1.2327077
8	0x3f48ab69	0.7838655
9	0x402f8cbe	2.7429652
10	0x3f32adc6	0.6979641
11	0x401fd0d8	2.4971218
12	0x3f581344	0.84404397
13	0x4007df0f	2.1229894
14	0x3fc080e2	1.5039332
15	0x3f834ec9	1.0258418
16	0x3f0958e1	0.53651243
17	0x4017e5bd	2.373397
18	0x3f942ffc	1.1577144
19	0x3f6e792e	0.93153656
20	0x3f04705b	0.5173394
21	0x3fa49289	1.2857219
22	0x3f85d977	1.045699
23	0x3f20560e	0.6263131
24	0x3e5b9f25	0.21447428
25	0x3fa2dcf4	1.272368
26	0x3ec0113b	0.37513146
27	0x3f242a03	0.64126605
28	0x3d9a00ca	0.07519682
29	0x3e1aeec4	0.15130144
30	0x411a6d3b	9.651668
31	0x4113e9e9	9.244607
32	0x40cb08ec	6.344839
33	0x40fcebdd	7.903792
34	0x41063471	8.387803
35	0x4088bf23	4.273332
36	0x40e15c7e	7.0425406
37	0x40a709fe	5.2199697
38	0x408d4c65	4.4155755
39	0x40bc3f72	5.882745
40	0x40456eeb	3.084895
41	0x4094e77e	4.6532583
42	0x40973e97	4.7263904
43	0x40670031	3.6093867
44	0x40242360	2.564659
45	0x40a0f533	5.0299315
46	0x40436119	3.0528014
47	0x40832b7c	4.099058
48	0x3ffbabbd	1.9661785
49	0x40937faa	4.609334
50	0x00000015	3e-44
51	0x40a5e72c	5.184469
52	0x4012c414	2.2932177
53	0x405c30e1	3.4404833
54	0x3fbe350e	1.4859941
55	0x40770c40	3.8601227
56	0x4027957b	2.6184986
57	0x4068784e	3.6323428
58	0x401da16a	2.462977
59	0x400f011f	2.2344434
60	0x40cf19c9	6.4718976
61	0x41000caa	8.003092
62	0x4083a41a	4.113782
63	0x41200000	10.0
64	0x40dffd44	6.999666
65	0x40df2d89	6.9743085
66	0x40939b0e	4.6126776
67	0x41092024	8.570347
68	0x411cc0a8	9.797035
69	0x4066cce9	3.6062567
70	0x40886c1d	4.2631974
71	0x40c8094f	6.2511363
72	0x40af66cb	5.481298
73	0x40811382	4.0336313
74	0x401e773a	2.476027
75	0x40fb438f	7.851997
76	0x40930b28	4.595112
77	0x40939c81	4.6128545
78	0x40cc2884	6.3799458
79	0x3fef2833	1.8684143
80	0x3f4fe504	0.81208825
81	0x40a51cc4	5.1597614
82	0x404c7dce	3.1951785
83	0x400f8528	2.2425022
84	0x40b3d7b4	5.620081
85	0x3e8de4d5	0.27713647
86	0x401f8c21	2.4929278
87	0x4002f0ac	2.0459394
88	0x3ff4b7ef	1.9118632
89	0x408a62ca	4.324559
90	0x3fe6b468	1.8023806
91	0x3fd20b8d	1.6409775
92	0x406cfca7	3.7029207
93	0x410d845b	8.844813
94	0x3f82cd7d	1.021896
95	0x3f813c31	1.0096494
96	0x00000015	3e-44
97	0x3f56825a	0.8379265
98	0x00000015	3e-44
99	0x3ea3bbf8	0.31979346
100	0x3f950345	1.1641623
101	0x3fc1eee2	1.5151026
102	0x3f7861c9	0.9702421
103	0x3f6c786a	0.9237124
104	0x3fd4ffca	1.6640561
105	0x3f470d0a	0.7775427
106	0x3f69cba4	0.91326356
107	0x3f4640da	0.77442706
108	0x3fda156a	1.7037785
109	0x00000015	3e-44
110	0x3f322a9c	0.69596267
111	0x3f13bd00	0.57710266
112	0x3f429655	0.7601064
113	0x3ec530c8	0.3851378
114	0x3f219501	0.63117987
115	0x3efb4df5	0.49082914
116	0x3e67f844	0.226533
117	0x3e78a52f	0.24281763
118	0x2d1efa39	9.036821e-12
119	0x2d031d8a	7.453047e-12

w f4 [1, 120, 1]
0	0x4023abbc	2.5573568
1	0x3fa62caa	1.298238
2	0x3fcc268e	1.5949266
3	0x3fcb6a72	1.589186
4	0x4003b1a6	2.0577178
5	0x3f8cbbe9	1.0994846
6	0x406de01b	3.7168033
7	0x3f9dc95e	1.2327077
8	0x3f48ab69	0.7838655
9	0x402f8cbe	2.7429652
10	0x3f32adc6	0.6979641
11	0x401fd0d8	2.4971218
12	0x3f581344	0.84404397
13	0x4007df0f	2.1229894
14	0x3fc080e2	1.5039332
15	0x3f834ec9	1.0258418
16	0x3f0958e1	0.53651243
17	0x4017e5bd	2.373397
18	0x3f942ffc	1.1577144
19	0x3f6e792e	0.93153656
20	0x3f04705b	0.5173394
21	0x3fa49289	1.2857219
22	0x3f85d977	1.045699
23	0x3f20560e	0.6263131
24	0x3e5b9f25	0.21447428
25	0x3fa2dcf4	1.272368
26	0x3ec0113b	0.37513146
27	0x3f242a03	0.64126605
28	0x3d9a00ca	0.07519682
29	0x3e1aeec4	0.15130144
30	0x411a6d3b	9.651668
31	0x4113e9e9	9.244607
32	0x40cb08ec	6.344839
33	0x40fcebdd	7.903792
34	0x41063471	8.387803
35	0x4088bf23	4.273332
36	0x40e15c7e	7.0425406
37	0x40a709fe	5.2199697
38	0x408d4c65	4.4155755
39	0x40bc3f72	5.882745
40	0x40456eeb	3.084895
41	0x4094e77e	4.6532583
42	0x40973e97	4.7263904
43	0x40670031	3.6093867
44	0x40242360	2.564659
45	0x40a0f533	5.0299315
46	0x40436119	3.0528014
47	0x40832b7c	4.099058
48	0x3ffbabbd	1.9661785
49	0x40937faa	4.609334
50	0x00000015	3e-44
51	0x40a5e72c	5.184469
52	0x4012c414	2.2932177
53	0x405c30e1	3.4404833
54	0x3fbe350e	1.4859941
55	0x40770c40	3.8601227
56	0x4027957b	2.6184986
57	0x4068784e	3.6323428
58	0x401da16a	2.462977
59	0x400f011f	2.2344434
60	0x40cf19c9	6.4718976
61	0x41000caa	8.003092
62	0x4083a41a	4.113782
63	0x41200000	10.0
64	0x40dffd44	6.999666
65	0x40df2d89	6.9743085
66	0x40939b0e	4.6126776
67	0x41092024	8.570347
68	0x411cc0a8	9.797035
69	0x4066cce9	3.6062567
70	0x40886c1d	4.2631974
71	0x40c8094f	6.2511363
72	0x40af66cb	5.481298
73	0x40811382	4.0336313
74	0x401e773a	2.476027
75	0x40fb438f	7.851997
76	0x40930b28	4.595112
77	0x40939c81	4.6128545
78	0x40cc2884	6.3799458
79	0x3fef2833	1.8684143
80	0x3f4fe504	0.81208825
81	0x40a51cc4	5.1597614
82	0x404c7dce	3.1951785
83	0x400f8528	2.2425022
84	0x40b3d7b4	5.620081
85	0x3e8de4d5	0.27713647
86	0x401f8c21	2.4929278
87	0x4002f0ac	2.0459394
88	0x3ff4b7ef	1.9118632
89	0x408a62ca	4.324559
90	0x3fe6b468	1.8023806
91	0x3fd20b8d	1.6409775
92	0x406cfca7	3.7029207
93	0x410d845b	8.844813
94	0x3f82cd7d	1.021896
95	0x3f813c31	1.0096494
96	0x00000015	3e-44
97	0x3f56825a	0.8379265
98	0x00000015	3e-44
99	0x3ea3bbf8	0.31979346
100	0x3f950345	1.1641623
101	0x3fc1eee2	1.5151026
102	0x3f7861c9	0.9702421
103	0x3f6c786a	0.9237124
104	0x3fd4ffca	1.6640561
105	0x3f470d0a	0.7775427
106	0x3f69cba4	0.91326356
107	0x3f4640da	0.77442706
108	0x3fda156a	1.7037785
109	0x00000015	3e-44
110	0x3f322a9c	0.69596267
111	0x3f13bd00	0.57710266
112	0x3f429655	0.7601064
113	0x3ec530c8	0.3851378
114	0x3f219501	0.63117987
115	0x3efb4df5	0.49082914
116	0x3e67f844	0.226533
117	0x3e78a52f	0.24281763
118	0x2d1efa39	9.036821e-12
119	0x2d031d8a	7.453047e-12

w f4 [1, 120, 1]
0	0x4023abbc	2.5573568
1	0x3fa62caa	1.298238
2	0x3fcc268e	1.5949266
3	0x3fcb6a72	1.589186
4	0x4003b1a6	2.0577178
5	0x3f8cbbe9	1.0994846
6	0x406de01b	3.7168033
7	0x3f9dc95e	1.2327077
8	0x3f48ab69	0.7838655
9	0x402f8cbe	2.7429652
10	0x3f32adc6	0.6979641
11	0x401fd0d8	2.4971218
12	0x3f581344	0.84404397
13	0x4007df0f	2.1229894
14	0x3fc080e2	1.5039332
15	0x3f834ec9	1.0258418
16	0x3f0958e1	0.53651243
17	0x4017e5bd	2.373397
18	0x3f942ffc	1.1577144
19	0x3f6e792e	0.93153656
20	0x3f04705b	0.5173394
21	0x3fa49289	1.2857219
22	0x3f85d977	1.045699
23	0x3f20560e	0.6263131
24	0x3e5b9f25	0.21447428
25	0x3fa2dcf4	1.272368
26	0x3ec0113b	0.37513146
27	0x3f242a03	0.64126605
28	0x3d9a00ca	0.07519682
29	0x3e1aeec4	0.15130144
30	0x411a6d3b	9.651668
31	0x4113e9e9	9.244607
32	0x40cb08ec	6.344839
33	0x40fcebdd	7.903792
34	0x41063471	8.387803
35	0x4088bf23	4.273332
36	0x40e15c7e	7.0425406
37	0x40a709fe	5.2199697
38	0x408d4c65	4.4155755
39	0x40bc3f72	5.882745
40	0x40456eeb	3.084895
41	0x4094e77e	4.6532583
42	0x40973e97	4.7263904
43	0x40670031	3.6093867
44	0x40242360	2.564659
45	0x40a0f533	5.0299315
46	0x40436119	3.0528014
47	0x40832b7c	4.099058
48	0x3ffbabbd	1.9661785
49	0x40937faa	4.609334
50	0x00000015	3e-44
51	0x40a5e72c	5.184469
52	0x4012c414	2.2932177
53	0x405c30e1	3.4404833
54	0x3fbe350e	1.4859941
55	0x40770c40	3.8601227
56	0x4027957b	2.6184986
57	0x4068784e	3.6323428
58	0x401da16a	2.462977
59	0x400f011f	2.2344434
60	0x40cf19c9	6.4718976
61	0x41000caa	8.003092
62	0x4083a41a	4.113782
63	0x41200000	10.0
64	0x40dffd44	6.999666
65	0x40df2d89	6.9743085
66	0x40939b0e	4.6126776
67	0x41092024	8.570347
68	0x411cc0a8	9.797035
69	0x4066cce9	3.6062567
70	0x40886c1d	4.2631974
71	0x40c8094f	6.2511363
72	0x40af66cb	5.481298
73	0x40811382	4.0336313
74	0x401e773a	2.476027
75	0x40fb438f	7.851997
76	0x40930b28	4.595112
77	0x40939c81	4.6128545
78	0x40cc2884	6.3799458
79	0x3fef2833	1.8684143
80	0x3f4fe504	0.81208825
81	0x40a51cc4	5.1597614
82	0x404c7dce	3.1951785
83	0x400f8528	2.2425022
84	0x40b3d7b4	5.620081
85	0x3e8de4d5	0.27713647
86	0x401f8c21	2.4929278
87	0x4002f0ac	2.0459394
88	0x3ff4b7ef	1.9118632
89	0x408a62ca	4.324559
90	0x3fe6b468	1.8023806
91	0x3fd20b8d	1.6409775
92	0x406cfca7	3.7029207
93	0x410d845b	8.844813
94	0x3f82cd7d	1.021896
95	0x3f813c31	1.0096494
96	0x00000015	3e-44
97	0x3f56825a	0.8379265
98	0x00000015	3e-44
99	0x3ea3bbf8	0.31979346
100	0x3f950345	1.1641623
101	0x3fc1eee2	1.5151026
102	0x3f7861c9	0.9702421
103	0x3f6c786a	0.9237124
104	0x3fd4ffca	1.6640561
105	0x3f470d0a	0.7775427
106	0x3f69cba4	0.91326356
107	0x3f4640da	0.77442706
108	0x3fda156a	1.7037785
109	0x00000015	3e-44
110	0x3f322a9c	0.69596267
111	0x3f13bd00	0.57710266
112	0x3f429655	0.7601064
113	0x3ec530c8	0.3851378
114	0x3f219501	0.63117987
115	0x3efb4df5	0.49082914
116	0x3e67f844	0.226533
117	0x3e78a52f	0.24281763
118	0x2d1efa39	9.036821e-12
119	0x2d031d8a	7.453047e-12

w f4 [1, 120, 1]
0	0x4023abbc	2.5573568
1	0x3fa62caa	1.298238
2	0x3fcc268e	1.5949266
3	0x3fcb6a72	1.589186
4	0x4003b1a6	2.0577178
5	0x3f8cbbe9	1.0994846
6	0x406de01b	3.7168033
7	0x3f9dc95e	1.2327077
8	0x3f48ab69	0.7838655
9	0x402f8cbe	2.7429652
10	0x3f32adc6	0.6979641
11	0x401fd0d8	2.4971218
12	0x3f581344	0.84404397
13	0x4007df0f	2.1229894
14	0x3fc080e2	1.5039332
15	0x3f834ec9	1.0258418
16	0x3f0958e1	0.53651243
17	0x4017e5bd	2.373397
18	0x3f942ffc	1.1577144
19	0x3f6e792e	0.93153656
20	0x3f04705b	0.5173394
21	0x3fa49289	1.2857219
22	0x3f85d977	1.045699
23	0x3f20560e	0.6263131
24	0x3e5b9f25	0.21447428
25	0x3fa2dcf4	1.272368
26	0x3ec0113b	0.37513146
27	0x3f242a03	0.64126605
28	0x3d9a00ca	0.07519682
29	0x3e1aeec4	0.15130144
30	0x411a6d3b	9.651668
31	0x4113e9e9	9.244607
32	0x40cb08ec	6.344839
33	0x40fcebdd	7.903792
34	0x41063471	8.387803
35	0x4088bf23	4.273332
36	0x40e15c7e	7.0425406
37	0x40a709fe	5.2199697
38	0x408d4c65	4.4155755
39	0x40bc3f72	5.882745
40	0x40456eeb	3.084895
41	0x4094e77e	4.6532583
42	0x40973e97	4.7263904
43	0x40670031	3.6093867
44	0x40242360	2.564659
45	0x40a0f533	5.0299315
46	0x40436119	3.0528014
47	0x40832b7c	4.099058
48	0x3ffbabbd	1.9661785
49	0x40937faa	4.609334
50	0x00000015	3e-44
51	0x40a5e72c	5.184469
52	0x4012c414	2.2932177
53	0x405c30e1	3.4404833
54	0x3fbe350e	1.4859941
55	0x40770c40	3.8601227
56	0x4027957b	2.6184986
57	0x4068784e	3.6323428
58	0x401da16a	2.462977
59	0x400f011f	2.2344434
60	0x40cf19c9	6.4718976
61	0x41000caa	8.003092
62	0x4083a41a	4.113782
63	0x41200000	10.0
64	0x40dffd44	6.999666
65	0x40df2d89	6.9743085
66	0x40939b0e	4.6126776
67	0x41092024	8.570347
68	0x411cc0a8	9.797035
69	0x4066cce9	3.6062567
70	0x40886c1d	4.2631974
71	0x40c8094f	6.2511363
72	0x40af66cb	5.481298
73	0x40811382	4.0336313
74	0x401e773a	2.476027
75	0x40fb438f	7.851997
76	0x40930b28	4.595112
77	0x40939c81	4.6128545
78	0x40cc2884	6.3799458
79	0x3fef2833	1.8684143
80	0x3f4fe504	0.81208825
81	0x40a51cc4	5.1597614
82	0x404c7dce	3.1951785
83	0x400f8528	2.2425022
84	0x40b3d7b4	5.620081
85	0x3e8de4d5	0.27713647
86	0x401f8c21	2.4929278
87	0x4002f0ac	2.0459394
88	0x3ff4b7ef	1.9118632
89	0x408a62ca	4.324559
90	0x3fe6b468	1.8023806
91	0x3fd20b8d	1.6409775
92	0x406cfca7	3.7029207
93	0x410d845b	8.844813
94	0x3f82cd7d	1.021896
95	0x3f813c31	1.0096494
96	0x00000015	3e-44
97	0x3f56825a	0.8379265
98	0x00000015	3e-44
99	0x3ea3bbf8	0.31979346
100	0x3f950345	1.1641623
101	0x3fc1eee2	1.5151026
102	0x3f7861c9	0.9702421
103	0x3f6c786a	0.9237124
104	0x3fd4ffca	1.6640561
105	0x3f470d0a	0.7775427
106	0x3f69cba4	0.91326356
107	0x3f4640da	0.77442706
108	0x3fda156a	1.7037785
109	0x00000015	3e-44
110	0x3f322a9c	0.69596267
111	0x3f13bd00	0.57710266
112	0x3f429655	0.7601064
113	0x3ec530c8	0.3851378
114	0x3f219501	0.63117987
115	0x3efb4df5	0.49082914
116	0x3e67f844	0.226533
117	0x3e78a52f	0.24281763
118	0x2d1efa39	9.036821e-12
119	0x2d031d8a	7.453047e-12

w f4 [1, 120, 1]
0	0x4023abbc	2.5573568
1	0x3fa62caa	1.298238
2	0x3fcc268e	1.5949266
3	0x3fcb6a72	1.589186
4	0x4003b1a6	2.0577178
5	0x3f8cbbe9	1.0994846
6	0x406de01b	3.7168033
7	0x3f9dc95e	1.2327077
8	0x3f48ab69	0.7838655
9	0x402f8cbe	2.7429652
10	0x3f32adc6	0.6979641
11	0x401fd0d8	2.4971218
12	0x3f581344	0.84404397
13	0x4007df0f	2.1229894
14	0x3fc080e2	1.5039332
15	0x3f834ec9	1.0258418
16	0x3f0958e1	0.53651243
17	0x4017e5bd	2.373397
18	0x3f942ffc	1.1577144
19	0x3f6e792e	0.93153656
20	0x3f04705b	0.5173394
21	0x3fa49289	1.2857219
22	0x3f85d977	1.045699
23	0x3f20560e	0.6263131
24	0x3e5b9f25	0.21447428
25	0x3fa2dcf4	1.272368
26	0x3ec0113b	0.37513146
27	0x3f242a03	0.64126605
28	0x3d9a00ca	0.07519682
29	0x3e1aeec4	0.15130144
30	0x411a6d3b	9.651668
31	0x4113e9e9	9.244607
32	0x40cb08ec	6.344839
33	0x40fcebdd	7.903792
34	0x41063471	8.387803
35	0x4088bf23	4.273332
36	0x40e15c7e	7.0425406
37	0x40a709fe	5.2199697
38	0x408d4c65	4.4155755
39	0x40bc3f72	5.882745
40	0x40456eeb	3.084895
41	0x4094e77e	4.6532583
42	0x40973e97	4.7263904
43	0x40670031	3.6093867
44	0x40242360	2.564659
45	0x40a0f533	5.0299315
46	0x40436119	3.0528014
47	0x40832b7c	4.099058
48	0x3ffbabbd	1.9661785
49	0x40937faa	4.609334
50	0x00000015	3e-44
51	0x40a5e72c	5.184469
52	0x4012c414	2.2932177
53	0x405c30e1	3.4404833
54	0x3fbe350e	1.4859941
55	0x40770c40	3.8601227
56	0x4027957b	2.6184986
57	0x4068784e	3.6323428
58	0x401da16a	2.462977
59	0x400f011f	2.2344434
60	0x40cf19c9	6.4718976
61	0x41000caa	8.003092
62	0x4083a41a	4.113782
63	0x41200000	10.0
64	0x40dffd44	6.999666
65	0x40df2d89	6.9743085
66	0x40939b0e	4.6126776
67	0x41092024	8.570347
68	0x411cc0a8	9.797035
69	0x4066cce9	3.6062567
70	0x40886c1d	4.2631974
71	0x40c8094f	6.2511363
72	0x40af66cb	5.481298
73	0x40811382	4.0336313
74	0x401e773a	2.476027
75	0x40fb438f	7.851997
76	0x40930b28	4.595112
77	0x40939c81	4.6128545
78	0x40cc2884	6.3799458
79	0x3fef2833	1.8684143
80	0x3f4fe504	0.81208825
81	0x40a51cc4	5.1597614
82	0x404c7dce	3.1951785
83	0x400f8528	2.2425022
84	0x40b3d7b4	5.620081
85	0x3e8de4d5	0.27713647
86	0x401f8c21	2.4929278
87	0x4002f0ac	2.0459394
88	0x3ff4b7ef	1.9118632
89	0x408a62ca	4.324559
90	0x3fe6b468	1.8023806
91	0x3fd20b8d	1.6409775
92	0x406cfca7	3.7029207
93	0x410d845b	8.844813
94	0x3f82cd7d	1.021896
95	0x3f813c31	1.0096494
96	0x00000015	3e-44
97	0x3f56825a	0.8379265
98	0x00000015	3e-44
99	0x3ea3bbf8	0.31979346
100	0x3f950345	1.1641623
101	0x3fc1eee2	1.5151026
102	0x3f7861c9	0.9702421
103	0x3f6c786a	0.9237124
104	0x3fd4ffca	1.6640561
105	0x3f470d0a	0.7775427
106	0x3f69cba4	0.91326356
107	0x3f4640da	0.77442706
108	0x3fda156a	1.7037785
109	0x00000015	3e-44
110	0x3f322a9c	0.69596267
111	0x3f13bd00	0.57710266
112	0x3f429655	0.7601064
113	0x3ec530c8	0.3851378
114	0x3f219501	0.63117987
115	0x3efb4df5	0.49082914
116	0x3e67f844	0.226533
117	0x3e78a52f	0.24281763
118	0x2d1efa39	9.036821e-12
119	0x2d031d8a	7.453047e-12

w f4 [1, 120, 1]
0	0x4023abbc	2.5573568
1	0x3fa62caa	1.298238
2	0x3fcc268e	1.5949266
3	0x3fcb6a72	1.589186
4	0x4003b1a6	2.0577178
5	0x3f8cbbe9	1.0994846
6	0x406de01b	3.7168033
7	0x3f9dc95e	1.2327077
8	0x3f48ab69	0.7838655
9	0x402f8cbe	2.7429652
10	0x3f32adc6	0.6979641
11	0x401fd0d8	2.4971218
12	0x3f581344	0.84404397
13	0x4007df0f	2.1229894
14	0x3fc080e2	1.5039332
15	0x3f834ec9	1.0258418
16	0x3f0958e1	0.53651243
17	0x4017e5bd	2.373397
18	0x3f942ffc	1.1577144
19	0x3f6e792e	0.93153656
20	0x3f04705b	0.5173394
21	0x3fa49289	1.2857219
22	0x3f85d977	1.045699
23	0x3f20560e	0.6263131
24	0x3e5b9f25	0.21447428
25	0x3fa2dcf4	1.272368
26	0x3ec0113b	0.37513146
27	0x3f242a03	0.64126605
28	0x3d9a00ca	0.07519682
29	0x3e1aeec4	0.15130144
30	0x411a6d3b	9.651668
31	0x4113e9e9	9.244607
32	0x40cb08ec	6.344839
33	0x40fcebdd	7.903792
34	0x41063471	8.387803
35	0x4088bf23	4.273332
36	0x40e15c7e	7.0425406
37	0x40a709fe	5.2199697
38	0x408d4c65	4.4155755
39	0x40bc3f72	5.882745
40	0x40456eeb	3.084895
41	0x4094e77e	4.6532583
42	0x40973e97	4.7263904
43	0x40670031	3.6093867
44	0x40242360	2.564659
45	0x40a0f533	5.0299315
46	0x40436119	3.0528014
47	0x40832b7c	4.099058
48	0x3ffbabbd	1.9661785
49	0x40937faa	4.609334
50	0x00000015	3e-44
51	0x40a5e72c	5.184469
52	0x4012c414	2.2932177
53	0x405c30e1	3.4404833
54	0x3fbe350e	1.4859941
55	0x40770c40	3.8601227
56	0x4027957b	2.6184986
57	0x4068784e	3.6323428
58	0x401da16a	2.462977
59	0x400f011f	2.2344434
60	0x40cf19c9	6.4718976
61	0x41000caa	8.003092
62	0x4083a41a	4.113782
63	0x41200000	10.0
64	0x40dffd44	6.999666
65	0x40df2d89	6.9743085
66	0x40939b0e	4.6126776
67	0x41092024	8.570347
68	0x411cc0a8	9.797035
69	0x4066cce9	3.6062567
70	0x40886c1d	4.2631974
71	0x40c8094f	6.2511363
72	0x40af66cb	5.481298
73	0x40811382	4.0336313
74	0x401e773a	2.476027
75	0x40fb438f	7.851997
76	0x40930b28	4.595112
77	0x40939c81	4.6128545
78	0x40cc2884	6.3799458
79	0x3fef2833	1.8684143
80	0x3f4fe504	0.81208825
81	0x40a51cc4	5.1597614
82	0x404c7dce	3.1951785
83	0x400f8528	2.2425022
84	0x40b3d7b4	5.620081
85	0x3e8de4d5	0.27713647
86	0x401f8c21	2.4929278
87	0x4002f0ac	2.0459394
88	0x3ff4b7ef	1.9118632
89	0x408a62ca	4.324559
90	0x3fe6b468	1.8023806
91	0x3fd20b8d	1.6409775
92	0x406cfca7	3.7029207
93	0x410d845b	8.844813
94	0x3f82cd7d	1.021896
95	0x3f813c31	1.0096494
96	0x00000015	3e-44
97	0x3f56825a	0.8379265
98	0x00000015	3e-44
99	0x3ea3bbf8	0.31979346
100	0x3f950345	1.1641623
101	0x3fc1eee2	1.5151026
102	0x3f7861c9	0.9702421
103	0x3f6c786a	0.9237124
104	0x3fd4ffca	1.6640561
105	0x3f470d0a	0.7775427
106	0x3f69cba4	0.91326356
107	0x3f4640da	0.77442706
108	0x3fda156a	1.7037785
109	0x00000015	3e-44
110	0x3f322a9c	0.69596267
111	0x3f13bd00	0.57710266
112	0x3f429655	0.7601064
113	0x3ec530c8	0.3851378
114	0x3f219501	0.63117987
115	0x3efb4df5	0.49082914
116	0x3e67f844	0.226533
117	0x3e78a52f	0.24281763
118	0x2d1efa39	9.036821e-12
119	0x2d031d8a	7.453047e-12

w f4 [1, 120, 1]
0	0x4023abbc	2.5573568
1	0x3fa62caa	1.298238
2	0x3fcc268e	1.5949266
3	0x3fcb6a72	1.589186
4	0x4003b1a6	2.0577178
5	0x3f8cbbe9	1.0994846
6	0x406de01b	3.7168033
7	0x3f9dc95e	1.2327077
8	0x3f48ab69	0.7838655
9	0x402f8cbe	2.7429652
10	0x3f32adc6	0.6979641
11	0x401fd0d8	2.4971218
12	0x3f581344	0.84404397
13	0x4007df0f	2.1229894
14	0x3fc080e2	1.5039332
15	0x3f834ec9	1.0258418
16	0x3f0958e1	0.53651243
17	0x4017e5bd	2.373397
18	0x3f942ffc	1.1577144
19	0x3f6e792e	0.93153656
20	0x3f04705b	0.5173394
21	0x3fa49289	1.2857219
22	0x3f85d977	1.045699
23	0x3f20560e	0.6263131
24	0x3e5b9f25	0.21447428
25	0x3fa2dcf4	1.272368
26	0x3ec0113b	0.37513146
27	0x3f242a03	0.64126605
28	0x3d9a00ca	0.07519682
29	0x3e1aeec4	0.15130144
30	0x411a6d3b	9.651668
31	0x4113e9e9	9.244607
32	0x40cb08ec	6.344839
33	0x40fcebdd	7.903792
34	0x41063471	8.387803
35	0x4088bf23	4.273332
36	0x40e15c7e	7.0425406
37	0x40a709fe	5.2199697
38	0x408d4c65	4.4155755
39	0x40bc3f72	5.882745
40	0x40456eeb	3.084895
41	0x4094e77e	4.6532583
42	0x40973e97	4.7263904
43	0x40670031	3.6093867
44	0x40242360	2.564659
45	0x40a0f533	5.0299315
46	0x40436119	3.0528014
47	0x40832b7c	4.099058
48	0x3ffbabbd	1.9661785
49	0x40937faa	4.609334
50	0x00000015	3e-44
51	0x40a5e72c	5.184469
52	0x4012c414	2.2932177
53	0x405c30e1	3.4404833
54	0x3fbe350e	1.4859941
55	0x40770c40	3.8601227
56	0x4027957b	2.6184986
57	0x4068784e	3.6323428
58	0x401da16a	2.462977
59	0x400f011f	2.2344434
60	0x40cf19c9	6.4718976
61	0x41000caa	8.003092
62	0x4083a41a	4.113782
63	0x41200000	10.0
64	0x40dffd44	6.999666
65	0x40df2d89	6.9743085
66	0x40939b0e	4.6126776
67	0x41092024	8.570347
68	0x411cc0a8	9.797035
69	0x4066cce9	3.6062567
70	0x40886c1d	4.2631974
71	0x40c8094f	6.2511363
72	0x40af66cb	5.481298
73	0x40811382	4.0336313
74	0x401e773a	2.476027
75	0x40fb438f	7.851997
76	0x40930b28	4.595112
77	0x40939c81	4.6128545
78	0x40cc2884	6.3799458
79	0x3fef2833	1.8684143
80	0x3f4fe504	0.81208825
81	0x40a51cc4	5.1597614
82	0x404c7dce	3.1951785
83	0x400f8528	2.2425022
84	0x40b3d7b4	5.620081
85	0x3e8de4d5	0.27713647
86	0x401f8c21	2.4929278
87	0x4002f0ac	2.0459394
88	0x3ff4b7ef	1.9118632
89	0x408a62ca	4.324559
90	0x3fe6b468	1.8023806
91	0x3fd20b8d	1.6409775
92	0x406cfca7	3.7029207
93	0x410d845b	8.844813
94	0x3f82cd7d	1.021896
95	0x3f813c31	1.0096494
96	0x00000015	3e-44
97	0x3f56825a	0.8379265
98	0x00000015	3e-44
99	0x3ea3bbf8	0.31979346
100	0x3f950345	1.1641623
101	0x3fc1eee2	1.5151026
102	0x3f7861c9	0.9702421
103	0x3f6c786a	0.9237124
104	0x3fd4ffca	1.6640561
105	0x3f470d0a	0.7775427
106	0x3f69cba4	0.91326356
107	0x3f4640da	0.77442706
108	0x3fda156a	1.7037785
109	0x00000015	3e-44
110	0x3f322a9c	0.69596267
111	0x3f13bd00	0.57710266
112	0x3f429655	0.7601064
113	0x3ec530c8	0.3851378
114	0x3f219501	0.63117987
115	0x3efb4df5	0.49082914
116	0x3e67f844	0.226533
117	0x3e78a52f	0.24281763
118	0x2d1efa39	9.036821e-12
119	0x2d031d8a	7.453047e-12

w f4 [1, 120, 1]
0	0x4023abbc	2.5573568
1	0x3fa62caa	1.298238
2	0x3fcc268e	1.5949266
3	0x3fcb6a72	1.589186
4	0x4003b1a6	2.0577178
5	0x3f8cbbe9	1.0994846
6	0x406de01b	3.7168033
7	0x3f9dc95e	1.2327077
8	0x3f48ab69	0.7838655
9	0x402f8cbe	2.7429652
10	0x3f32adc6	0.6979641
11	0x401fd0d8	2.4971218
12	0x3f581344	0.84404397
13	0x4007df0f	2.1229894
14	0x3fc080e2	1.5039332
15	0x3f834ec9	1.0258418
16	0x3f0958e1	0.53651243
17	0x4017e5bd	2.373397
18	0x3f942ffc	1.1577144
19	0x3f6e792e	0.93153656
20	0x3f04705b	0.5173394
21	0x3fa49289	1.2857219
22	0x3f85d977	1.045699
23	0x3f20560e	0.6263131
24	0x3e5b9f25	0.21447428
25	0x3fa2dcf4	1.272368
26	0x3ec0113b	0.37513146
27	0x3f242a03	0.64126605
28	0x3d9a00ca	0.07519682
29	0x3e1aeec4	0.15130144
30	0x411a6d3b	9.651668
31	0x4113e9e9	9.244607
32	0x40cb08ec	6.344839
33	0x40fcebdd	7.903792
34	0x41063471	8.387803
35	0x4088bf23	4.273332
36	0x40e15c7e	7.0425406
37	0x40a709fe	5.2199697
38	0x408d4c65	4.4155755
39	0x40bc3f72	5.882745
40	0x40456eeb	3.084895
41	0x4094e77e	4.6532583
42	0x40973e97	4.7263904
43	0x40670031	3.6093867
44	0x40242360	2.564659
45	0x40a0f533	5.0299315
46	0x40436119	3.0528014
47	0x40832b7c	4.099058
48	0x3ffbabbd	1.9661785
49	0x40937faa	4.609334
50	0x00000015	3e-44
51	0x40a5e72c	5.184469
52	0x4012c414	2.2932177
53	0x405c30e1	3.4404833
54	0x3fbe350e	1.4859941
55	0x40770c40	3.8601227
56	0x4027957b	2.6184986
57	0x4068784e	3.6323428
58	0x401da16a	2.462977
59	0x400f011f	2.2344434
60	0x40cf19c9	6.4718976
61	0x41000caa	8.003092
62	0x4083a41a	4.113782
63	0x41200000	10.0
64	0x40dffd44	6.999666
65	0x40df2d89	6.9743085
66	0x40939b0e	4.6126776
67	0x41092024	8.570347
68	0x411cc0a8	9.797035
69	0x4066cce9	3.6062567
70	0x40886c1d	4.2631974
71	0x40c8094f	6.2511363
72	0x40af66cb	5.481298
73	0x40811382	4.0336313
74	0x401e773a	2.476027
75	0x40fb438f	7.851997
76	0x40930b28	4.595112
77	0x40939c81	4.6128545
78	0x40cc2884	6.3799458
79	0x3fef2833	1.8684143
80	0x3f4fe504	0.81208825
81	0x40a51cc4	5.1597614
82	0x404c7dce	3.1951785
83	0x400f8528	2.2425022
84	0x40b3d7b4	5.620081
85	0x3e8de4d5	0.27713647
86	0x401f8c21	2.4929278
87	0x4002f0ac	2.0459394
88	0x3ff4b7ef	1.9118632
89	0x408a62ca	4.324559
90	0x3fe6b468	1.8023806
91	0x3fd20b8d	1.6409775
92	0x406cfca7	3.7029207
93	0x410d845b	8.844813
94	0x3f82cd7d	1.021896
95	0x3f813c31	1.0096494
96	0x00000015	3e-44
97	0x3f56825a	0.8379265
98	0x00000015	3e-44
99	0x3ea3bbf8	0.31979346
100	0x3f950345	1.1641623
101	0x3fc1eee2	1.5151026
102	0x3f7861c9	0.9702421
103	0x3f6c786a	0.9237124
104	0x3fd4ffca	1.6640561
105	0x3f470d0a	0.7775427
106	0x3f69cba4	0.91326356
107	0x3f4640da	0.77442706
108	0x3fda156a	1.7037785
109	0x00000015	3e-44
110	0x3f322a9c	0.69596267
111	0x3f13bd00	0.57710266
112	0x3f429655	0.7601064
113	0x3ec530c8	0.3851378
114	0x3f219501	0.63117987
115	0x3efb4df5	0.49082914
116	0x3e67f844	0.226533
117	0x3e78a52f	0.24281763
118	0x2d1efa39	9.036821e-12
119	0x2d031d8a	7.453047e-12

w f4 [1, 120, 1]
0	0x4023abbc	2.5573568
1	0x3fa62caa	1.298238
2	0x3fcc268e	1.5949266
3	0x3fcb6a72	1.589186
4	0x4003b1a6	2.0577178
5	0x3f8cbbe9	1.0994846
6	0x406de01b	3.7168033
7	0x3f9dc95e	1.2327077
8	0x3f48ab69	0.7838655
9	0x402f8cbe	2.7429652
10	0x3f32adc6	0.6979641
11	0x401fd0d8	2.4971218
12	0x3f581344	0.84404397
13	0x4007df0f	2.1229894
14	0x3fc080e2	1.5039332
15	0x3f834ec9	1.0258418
16	0x3f0958e1	0.53651243
17	0x4017e5bd	2.373397
18	0x3f942ffc	1.1577144
19	0x3f6e792e	0.93153656
20	0x3f04705b	0.5173394
21	0x3fa49289	1.2857219
22	0x3f85d977	1.045699
23	0x3f20560e	0.6263131
24	0x3e5b9f25	0.21447428
25	0x3fa2dcf4	1.272368
26	0x3ec0113b	0.37513146
27	0x3f242a03	0.64126605
28	0x3d9a00ca	0.07519682
29	0x3e1aeec4	0.15130144
30	0x411a6d3b	9.651668
31	0x4113e9e9	9.244607
32	0x40cb08ec	6.344839
33	0x40fcebdd	7.903792
34	0x41063471	8.387803
35	0x4088bf23	4.273332
36	0x40e15c7e	7.0425406
37	0x40a709fe	5.2199697
38	0x408d4c65	4.4155755
39	0x40bc3f72	5.882745
40	0x40456eeb	3.084895
41	0x4094e77e	4.6532583
42	0x40973e97	4.7263904
43	0x40670031	3.6093867
44	0x40242360	2.564659
45	0x40a0f533	5.0299315
46	0x40436119	3.0528014
47	0x40832b7c	4.099058
48	0x3ffbabbd	1.9661785
49	0x40937faa	4.609334
50	0x00000015	3e-44
51	0x40a5e72c	5.184469
52	0x4012c414	2.2932177
53	0x405c30e1	3.4404833
54	0x3fbe350e	1.4859941
55	0x40770c40	3.8601227
56	0x4027957b	2.6184986
57	0x4068784e	3.6323428
58	0x401da16a	2.462977
59	0x400f011f	2.2344434
60	0x40cf19c9	6.4718976
61	0x41000caa	8.003092
62	0x4083a41a	4.113782
63	0x41200000	10.0
64	0x40dffd44	6.999666
65	0x40df2d89	6.9743085
66	0x40939b0e	4.6126776
67	0x41092024	8.570347
68	0x411cc0a8	9.797035
69	0x4066cce9	3.6062567
70	0x40886c1d	4.2631974
71	0x40c8094f	6.2511363
72	0x40af66cb	5.481298
73	0x40811382	4.0336313
74	0x401e773a	2.476027
75	0x40fb438f	7.851997
76	0x40930b28	4.595112
77	0x40939c81	4.6128545
78	0x40cc2884	6.3799458
79	0x3fef2833	1.8684143
80	0x3f4fe504	0.81208825
81	0x40a51cc4	5.1597614
82	0x404c7dce	3.1951785
83	0x400f8528	2.2425022
84	0x40b3d7b4	5.620081
85	0x3e8de4d5	0.27713647
86	0x401f8c21	2.4929278
87	0x4002f0ac	2.0459394
88	0x3ff4b7ef	1.9118632
89	0x408a62ca	4.324559
90	0x3fe6b468	1.8023806
91	0x3fd20b8d	1.6409775
92	0x406cfca7	3.7029207
93	0x410d845b	8.844813
94	0x3f82cd7d	1.021896
95	0x3f813c31	1.0096494
96	0x00000015	3e-44
97	0x3f56825a	0.8379265
98	0x00000015	3e-44
99	0x3ea3bbf8	0.31979346
100	0x3f950345	1.1641623
101	0x3fc1eee2	1.5151026
102	0x3f7861c9	0.9702421
103	0x3f6c786a	0.9237124
104	0x3fd4ffca	1.6640561
105	0x3f470d0a	0.7775427
106	0x3f69cba4	0.91326356
107	0x3f4640da	0.77442706
108	0x3fda156a	1.7037785
109	0x00000015	3e-44
110	0x3f322a9c	0.69596267
111	0x3f13bd00	0.57710266
112	0x3f429655	0.7601064
113	0x3ec530c8	0.3851378
114	0x3f219501	0.63117987
115	0x3efb4df5	0.49082914
116	0x3e67f844	0.226533
117	0x3e78a52f	0.24281763
118	0x2d1efa39	9.036821e-12
119	0x2d031d8a	7.453047e-12

w f4 [1, 120, 1]
0	0x4023abbc	2.5573568
1	0x3fa62caa	1.298238
2	0x3fcc268e	1.5949266
3	0x3fcb6a72	1.589186
4	0x4003b1a6	2.0577178
5	0x3f8cbbe9	1.0994846
6	0x406de01b	3.7168033
7	0x3f9dc95e	1.2327077
8	0x3f48ab69	0.7838655
9	0x402f8cbe	2.7429652
10	0x3f32adc6	0.6979641
11	0x401fd0d8	2.4971218
12	0x3f581344	0.84404397
13	0x4007df0f	2.1229894
14	0x3fc080e2	1.5039332
15	0x3f834ec9	1.0258418
16	0x3f0958e1	0.53651243
17	0x4017e5bd	2.373397
18	0x3f942ffc	1.1577144
19	0x3f6e792e	0.93153656
20	0x3f04705b	0.5173394
21	0x3fa49289	1.2857219
22	0x3f85d977	1.045699
23	0x3f20560e	0.6263131
24	0x3e5b9f25	0.21447428
25	0x3fa2dcf4	1.272368
26	0x3ec0113b	0.37513146
27	0x3f242a03	0.64126605
28	0x3d9a00ca	0.07519682
29	0x3e1aeec4	0.15130144
30	0x411a6d3b	9.651668
31	0x4113e9e9	9.244607
32	0x40cb08ec	6.344839
33	0x40fcebdd	7.903792
34	0x41063471	8.387803
35	0x4088bf23	4.273332
36	0x40e15c7e	7.0425406
37	0x40a709fe	5.2199697
38	0x408d4c65	4.4155755
39	0x40bc3f72	5.882745
40	0x40456eeb	3.084895
41	0x4094e77e	4.6532583
42	0x40973e97	4.7263904
43	0x40670031	3.6093867
44	0x40242360	2.564659
45	0x40a0f533	5.0299315
46	0x40436119	3.0528014
47	0x40832b7c	4.099058
48	0x3ffbabbd	1.9661785
49	0x40937faa	4.609334
50	0x00000015	3e-44
51	0x40a5e72c	5.184469
52	0x4012c414	2.2932177
53	0x405c30e1	3.4404833
54	0x3fbe350e	1.4859941
55	0x40770c40	3.8601227
56	0x4027957b	2.6184986
57	0x4068784e	3.6323428
58	0x401da16a	2.462977
59	0x400f011f	2.2344434
60	0x40cf19c9	6.4718976
61	0x41000caa	8.003092
62	0x4083a41a	4.113782
63	0x41200000	10.0
64	0x40dffd44	6.999666
65	0x40df2d89	6.9743085
66	0x40939b0e	4.6126776
67	0x41092024	8.570347
68	0x411cc0a8	9.797035
69	0x4066cce9	3.6062567
70	0x40886c1d	4.2631974
71	0x40c8094f	6.2511363
72	0x40af66cb	5.481298
73	0x40811382	4.0336313
74	0x401e773a	2.476027
75	0x40fb438f	7.851997
76	0x40930b28	4.595112
77	0x40939c81	4.6128545
78	0x40cc2884	6.3799458
79	0x3fef2833	1.8684143
80	0x3f4fe504	0.81208825
81	0x40a51cc4	5.1597614
82	0x404c7dce	3.1951785
83	0x400f8528	2.2425022
84	0x40b3d7b4	5.620081
85	0x3e8de4d5	0.27713647
86	0x401f8c21	2.4929278
87	0x4002f0ac	2.0459394
88	0x3ff4b7ef	1.9118632
89	0x408a62ca	4.324559
90	0x3fe6b468	1.8023806
91	0x3fd20b8d	1.6409775
92	0x406cfca7	3.7029207
93	0x410d845b	8.844813
94	0x3f82cd7d	1.021896
95	0x3f813c31	1.0096494
96	0x00000015	3e-44
97	0x3f56825a	0.8379265
98	0x00000015	3e-44
99	0x3ea3bbf8	0.31979346
100	0x3f950345	1.1641623
101	0x3fc1eee2	1.5151026
102	0x3f7861c9	0.9702421
103	0x3f6c786a	0.9237124
104	0x3fd4ffca	1.6640561
105	0x3f470d0a	0.7775427
106	0x3f69cba4	0.91326356
107	0x3f4640da	0.77442706
108	0x3fda156a	1.7037785
109	0x00000015	3e-44
110	0x3f322a9c	0.69596267
111	0x3f13bd00	0.57710266
112	0x3f429655	0.7601064
113	0x3ec530c8	0.3851378
114	0x3f219501	0.63117987
115	0x3efb4df5	0.49082914
116	0x3e67f844	0.226533
117	0x3e78a52f	0.24281763
118	0x2d1efa39	9.036821e-12
119	0x2d031d8a	7.453047e-12
