SNN_Codes/Spiking_codes_real/control/sail1.pt (torch, 873804 bytes, 505 tensors)

x f4 [1, 144]
0	0x00000000	0.0
1	0x00000000	0.0
2	0x00000000	0.0
3	0x00000000	0.0
4	0x00000000	0.0
5	0x00000000	0.0
6	0x00000000	0.0
7	0x00000000	0.0
8	0x00000000	0.0
9	0x00000000	0.0
10	0x00000000	0.0
11	0x00000000	0.0
12	0x00000000	0.0
13	0x00000000	0.0
14	0x00000000	0.0
15	0x00000000	0.0
16	0x00000000	0.0
17	0x00000000	0.0
18	0x00000000	0.0
19	0x00000000	0.0
20	0x00000000	0.0
21	0x00000000	0.0
22	0x00000000	0.0
23	0x00000000	0.0
24	0x00000000	0.0
25	0x00000000	0.0
26	0x00000000	0.0
27	0x00000000	0.0
28	0x00000000	0.0
29	0x00000000	0.0
30	0x00000000	0.0
31	0x00000000	0.0
32	0x00000000	0.0
33	0x00000000	0.0
34	0x00000000	0.0
35	0x00000000	0.0
36	0x00000000	0.0
37	0x00000000	0.0
38	0x00000000	0.0
39	0x00000000	0.0
40	0x00000000	0.0
41	0x00000000	0.0
42	0x00000000	0.0
43	0x00000000	0.0
44	0x00000000	0.0
45	0x00000000	0.0
46	0x00000000	0.0
47	0x00000000	0.0
48	0x00000000	0.0
49	0x00000000	0.0
50	0x00000000	0.0
51	0x00000000	0.0
52	0x00000000	0.0
53	0x00000000	0.0
54	0x00000000	0.0
55	0x00000000	0.0
56	0x00000000	0.0
57	0x00000000	0.0
58	0x00000000	0.0
59	0x00000000	0.0
60	0x00000000	0.0
61	0x00000000	0.0
62	0x00000000	0.0
63	0x00000000	0.0
64	0x00000000	0.0
65	0x00000000	0.0
66	0x00000000	0.0
67	0x00000000	0.0
68	0x00000000	0.0
69	0x00000000	0.0
70	0x00000000	0.0
71	0x00000000	0.0
72	0x00000000	0.0
73	0x00000000	0.0
74	0x0000000a	1.4e-44
75	0x0000000a	1.4e-44
76	0x2d3e4768	1.0816105e-11
77	0x2d5d1293	1.256652e-11
78	0x0000000a	1.4e-44
79	0x0000000a	1.4e-44
80	0x3f5c575d	0.86070806
81	0x3f5c575d	0.86070806
82	0x0000000a	1.4e-44
83	0x0000000a	1.4e-44
84	0x0000000a	1.4e-44
85	0x0000000a	1.4e-44
86	0x00000000	0.0
87	0x00000000	0.0
88	0x00000000	0.0
89	0x00000000	0.0
90	0x00000000	0.0
91	0x00000000	0.0
92	0x00000000	0.0
93	0x00000000	0.0
94	0x00000000	0.0
95	0x00000000	0.0
96	0x00000000	0.0
97	0x00000000	0.0
98	0x00000000	0.0
99	0x00000000	0.0
100	0x00000000	0.0
101	0x00000000	0.0
102	0x00000000	0.0
103	0x00000000	0.0
104	0x00000000	0.0
105	0x00000000	0.0
106	0x00000000	0.0
107	0x00000000	0.0
108	0x00000000	0.0
109	0x00000000	0.0
110	0x00000000	0.0
111	0x00000000	0.0
112	0x00000000	0.0
113	0x00000000	0.0
114	0x00000000	0.0
115	0x00000000	0.0
116	0x00000000	0.0
117	0x00000000	0.0
118	0x00000000	0.0
119	0x00000000	0.0
120	0x00000000	0.0
121	0x00000000	0.0
122	0x00000000	0.0
123	0x00000000	0.0
124	0x00000000	0.0
125	0x00000000	0.0
126	0x00000000	0.0
127	0x00000000	0.0
128	0x00000000	0.0
129	0x00000000	0.0
130	0x00000000	0.0
131	0x00000000	0.0
132	0x00000000	0.0
133	0x00000000	0.0
134	0x00000000	0.0
135	0x00000000	0.0
136	0x00000000	0.0
137	0x00000000	0.0
138	0x00000000	0.0
139	0x00000000	0.0
140	0x00000000	0.0
141	0x00000000	0.0
142	0x0000000a	1.4e-44
143	0x0000000a	1.4e-44

w f4 [144, 1]
0	0x401d297d	2.4556572
1	0x401bf324	2.4367151
2	0x405f2fd4	3.4872942
3	0x3fe98b18	1.8245573
4	0x40afd653	5.4949126
5	0x000003af	1.321e-42
6	0x4014ccc5	2.3249981
7	0x401030b0	2.2529716
8	0x3fcec37d	1.6153408
9	0x4008fde5	2.1404965
10	0x3fc6fcbb	1.5545877
11	0x400f0b3c	2.2350607
12	0x3f57f5c7	0.843594
13	0x404064d4	3.006154
14	0x3fd0e450	1.6319675
15	0x3fff6a05	1.995423
16	0x405c3616	3.4408011
17	0x3eed656b	0.46366438
18	0x3fd518cb	1.6648191
19	0x3f89f3a7	1.0777482
20	0x3f558f3e	0.83421695
21	0x3faffc8d	1.3748947
22	0x3f8075dc	1.0035968
23	0x3fbf6d7d	1.4955288
24	0x3f518655	0.818456
25	0x3fa4056f	1.2814158
26	0x3f45c386	0.7725147
27	0x3f9927f8	1.1965322
28	0x3fb3ba5b	1.4041246
29	0x3e6f4462	0.2336593
30	0x3f0277d2	0.5096408
31	0x3f3c6d07	0.7360386
32	0x3f41d8c8	0.75721407
33	0x3f500472	0.81256783
34	0x000003af	1.321e-42
35	0x000003af	1.321e-42
36	0x411dc68f	9.860976
37	0x411b5363	9.707858
38	0x41200000	10.0
39	0x41200000	10.0
40	0x40e6281f	7.1923976
41	0x40fb705d	7.857466
42	0x40ea5f2b	7.324117
43	0x40e1624b	7.0432487
44	0x40595a0c	3.396121
45	0x4107db20	8.490997
46	0x4038269e	2.877357
47	0x411259bd	9.146909
48	0x402c30b8	2.6904736
49	0x40fba5fe	7.8640127
50	0x4054bbb1	3.3239558
51	0x40ec3169	7.3810315
52	0x40c2ca2b	6.0871787
53	0x40aab256	5.3342695
54	0x40838525	4.110003
55	0x408b8aca	4.360692
56	0x4013cee0	2.3095016
57	0x40aa1bb1	5.3158803
58	0x3fadfd22	1.3592875
59	0x40ac0744	5.375887
60	0x40278813	2.6176803
61	0x40b17364	5.545336
62	0x40c2d957	6.0890307
63	0x3f489927	0.7835869
64	0x406fec8f	3.7488134
65	0x40873dd4	4.2262974
66	0x40380f2d	2.8759263
67	0x404c8d1a	3.1961122
68	0x40c2c579	6.0866055
69	0x3f02a460	0.51032066
70	0x407e615d	3.9746926
71	0x3f5da346	0.8657726
72	0x4111f549	9.122384
73	0x41200000	10.0
74	0x41200000	10.0
75	0x41200000	10.0
76	0x41200000	10.0
77	0x41200000	10.0
78	0x411d399d	9.826566
79	0x411c134a	9.754709
80	0x40f4b164	7.646654
81	0x4118e401	9.555665
82	0x4115985b	9.349696
83	0x410384d1	8.219926
84	0x40b2ca8e	5.587226
85	0x4105149d	8.317533
86	0x40c02a71	6.005181
87	0x40e488ad	7.141684
88	0x40d973ac	6.79537
89	0x40a7e995	5.2472634
90	0x40aff991	5.4992146
91	0x40af852e	5.4850073
92	0x40bd10c4	5.9082966
93	0x40f27cbb	7.577726
94	0x40a1c533	5.055322
95	0x408e1cca	4.4410143
96	0x4031daeb	2.7789867
97	0x410cf3eb	8.80955
98	0x40ecdb59	7.401776
99	0x4099cd1f	4.806289
100	0x408c6307	4.3870883
101	0x410c2efb	8.76147
102	0x3fd802a7	1.687581
103	0x40c3d1cf	6.1193614
104	0x4078c226	3.8868499
105	0x40d0d45e	6.5259237
106	0x40f3ba6e	7.6165075
107	0x3fe53a85	1.7908484
108	0x3f9fa69b	1.2472719
109	0x40ac7668	5.389454
110	0x410327a4	8.197178
111	0x400d72d2	2.210133
112	0x40aa8747	5.3290133
113	0x3ff191a4	1.8872571
114	0x3ecc5ee8	0.39916158
115	0x3fb10378	1.3829184
116	0x40deae63	6.9587874
117	0x40592849	3.3930838
118	0x40bf783c	5.983427
119	0x40d47db5	6.640345
120	0x3f5890fa	0.84596217
121	0x400f3846	2.2378097
122	0x3f28d87e	0.6595534
123	0x3fdf33de	1.7437704
124	0x3f8340d7	1.0254163
125	0x3f8599e1	1.0437585
126	0x3e8c6d77	0.27427265
127	0x4034c134	2.8242922
128	0x3f6e7456	0.93146265
129	0x3f2b896e	0.67006576
130	0x3f41e879	0.7574535
131	0x3f3adac9	0.7299009
132	0x3fef2673	1.8683609
133	0x3e9eb8b4	0.31000292
134	0x3fabea02	1.3430789
135	0x3e003f4a	0.12524143
136	0x3f54634c	0.82964015
137	0x3f072479	0.5279003
138	0x3ef6d53f	0.4820957
139	0x3ecdf1c5	0.40223518
140	0x2d0b3be9	7.914538e-12
141	0x2d1188b6	8.272652e-12
142	0x2d864859	1.5266165e-11
143	0x2d963825	1.7077959e-11

nu f4 [2]
0	0x3f800000	1.0
1	0x3f800000	1.0

p_plus f4 [1, 144]
0	0x0000000a	1.4e-44
1	0x0000000a	1.4e-44
2	0x0000000a	1.4e-44
3	0x0000000a	1.4e-44
4	0x0000000a	1.4e-44
5	0x0000000a	1.4e-44
6	0x0000000a	1.4e-44
7	0x0000000a	1.4e-44
8	0x0000000a	1.4e-44
9	0x0000000a	1.4e-44
10	0x0000000a	1.4e-44
11	0x0000000a	1.4e-44
12	0x0000000a	1.4e-44
13	0x0000000a	1.4e-44
14	0x0000000a	1.4e-44
15	0x0000000a	1.4e-44
16	0x0000000a	1.4e-44
17	0x0000000a	1.4e-44
18	0x0000000a	1.4e-44
19	0x0000000a	1.4e-44
20	0x0000000a	1.4e-44
21	0x0000000a	1.4e-44
22	0x0000000a	1.4e-44
23	0x0000000a	1.4e-44
24	0x0000000a	1.4e-44
25	0x0000000a	1.4e-44
26	0x0000000a	1.4e-44
27	0x0000000a	1.4e-44
28	0x0000000a	1.4e-44
29	0x0000000a	1.4e-44
30	0x0000000a	1.4e-44
31	0x0000000a	1.4e-44
32	0x0000000a	1.4e-44
33	0x0000000a	1.4e-44
34	0x0000000a	1.4e-44
35	0x0000000a	1.4e-44
36	0x0000000a	1.4e-44
37	0x0000000a	1.4e-44
38	0x0000000a	1.4e-44
39	0x0000000a	1.4e-44
40	0x0000000a	1.4e-44
41	0x0000000a	1.4e-44
42	0x0000000a	1.4e-44
43	0x0000000a	1.4e-44
44	0x0000000a	1.4e-44
45	0x0000000a	1.4e-44
46	0x0000000a	1.4e-44
47	0x0000000a	1.4e-44
48	0x0000000a	1.4e-44
49	0x0000000a	1.4e-44
50	0x0000000a	1.4e-44
51	0x0000000a	1.4e-44
52	0x0000000a	1.4e-44
53	0x0000000a	1.4e-44
54	0x0000000a	1.4e-44
55	0x0000000a	1.4e-44
56	0x0000000a	1.4e-44
57	0x0000000a	1.4e-44
58	0x0000000a	1.4e-44
59	0x0000000a	1.4e-44
60	0x0000000a	1.4e-44
61	0x0000000a	1.4e-44
62	0x0000000a	1.4e-44
63	0x0000000a	1.4e-44
64	0x0000000a	1.4e-44
65	0x0000000a	1.4e-44
66	0x0000000a	1.4e-44
67	0x0000000a	1.4e-44
68	0x0000000a	1.4e-44
69	0x0000000a	1.4e-44
70	0x0000000a	1.4e-44
71	0x0000000a	1.4e-44
72	0x0000000a	1.4e-44
73	0x0000000a	1.4e-44
74	0x0000000a	1.4e-44
75	0x0000000a	1.4e-44
76	0x2e466917	4.5113326e-11
77	0x2eb69ab8	8.3038854e-11
78	0x0000000a	1.4e-44
79	0x0000000a	1.4e-44
80	0x408bab74	4.3646793
81	0x40a65e0c	5.1989803
82	0x0000000a	1.4e-44
83	0x0000000a	1.4e-44
84	0x0000000a	1.4e-44
85	0x0000000a	1.4e-44
86	0x0000000a	1.4e-44
87	0x0000000a	1.4e-44
88	0x0000000a	1.4e-44
89	0x0000000a	1.4e-44
90	0x0000000a	1.4e-44
91	0x0000000a	1.4e-44
92	0x0000000a	1.4e-44
93	0x0000000a	1.4e-44
94	0x0000000a	1.4e-44
95	0x0000000a	1.4e-44
96	0x0000000a	1.4e-44
97	0x0000000a	1.4e-44
98	0x00000000	0.0
99	0x00000000	0.0
100	0x00000000	0.0
101	0x00000000	0.0
102	0x00000000	0.0
103	0x00000000	0.0
104	0x00000000	0.0
105	0x00000000	0.0
106	0x00000000	0.0
107	0x00000000	0.0
108	0x00000000	0.0
109	0x00000000	0.0
110	0x00000000	0.0
111	0x00000000	0.0
112	0x00000000	0.0
113	0x00000000	0.0
114	0x00000000	0.0
115	0x00000000	0.0
116	0x00000000	0.0
117	0x00000000	0.0
118	0x0000000a	1.4e-44
119	0x0000000a	1.4e-44
120	0x0000000a	1.4e-44
121	0x0000000a	1.4e-44
122	0x0000000a	1.4e-44
123	0x0000000a	1.4e-44
124	0x0000000a	1.4e-44
125	0x0000000a	1.4e-44
126	0x0000000a	1.4e-44
127	0x0000000a	1.4e-44
128	0x0000000a	1.4e-44
129	0x0000000a	1.4e-44
130	0x0000000a	1.4e-44
131	0x0000000a	1.4e-44
132	0x0000000a	1.4e-44
133	0x0000000a	1.4e-44
134	0x0000000a	1.4e-44
135	0x0000000a	1.4e-44
136	0x0000000a	1.4e-44
137	0x0000000a	1.4e-44
138	0x0000000a	1.4e-44
139	0x0000000a	1.4e-44
140	0x0000000a	1.4e-44
141	0x0000000a	1.4e-44
142	0x0000000a	1.4e-44
143	0x0000000a	1.4e-44

eligibility f4 [1, 144, 1]
0	0x00000000	0.0
1	0x00000000	0.0
2	0x00000000	0.0
3	0x00000000	0.0
4	0x00000000	0.0
5	0x00000000	0.0
6	0x00000000	0.0
7	0x00000000	0.0
8	0x00000000	0.0
9	0x00000000	0.0
10	0x00000000	0.0
11	0x00000000	0.0
12	0x00000000	0.0
13	0x00000000	0.0
14	0x00000000	0.0
15	0x00000000	0.0
16	0x00000000	0.0
17	0x00000000	0.0
18	0x00000000	0.0
19	0x00000000	0.0
20	0x00000000	0.0
21	0x00000000	0.0
22	0x00000000	0.0
23	0x00000000	0.0
24	0x00000000	0.0
25	0x00000000	0.0
26	0x00000000	0.0
27	0x00000000	0.0
28	0x00000000	0.0
29	0x00000000	0.0
30	0x00000000	0.0
31	0x00000000	0.0
32	0x00000000	0.0
33	0x00000000	0.0
34	0x00000000	0.0
35	0x00000000	0.0
36	0x00000000	0.0
37	0x00000000	0.0
38	0x00000000	0.0
39	0x00000000	0.0
40	0x00000000	0.0
41	0x00000000	0.0
42	0x00000000	0.0
43	0x00000000	0.0
44	0x00000000	0.0
45	0x00000000	0.0
46	0x00000000	0.0
47	0x00000000	0.0
48	0x00000000	0.0
49	0x00000000	0.0
50	0x00000000	0.0
51	0x00000000	0.0
52	0x00000000	0.0
53	0x00000000	0.0
54	0x00000000	0.0
55	0x00000000	0.0
56	0x00000000	0.0
57	0x00000000	0.0
58	0x00000000	0.0
59	0x00000000	0.0
60	0x00000000	0.0
61	0x00000000	0.0
62	0x00000000	0.0
63	0x00000000	0.0
64	0x00000000	0.0
65	0x00000000	0.0
66	0x00000000	0.0
67	0x00000000	0.0
68	0x00000000	0.0
69	0x00000000	0.0
70	0x00000000	0.0
71	0x00000000	0.0
72	0x00000000	0.0
73	0x00000000	0.0
74	0x00000000	0.0
75	0x00000000	0.0
76	0x00000000	0.0
77	0x00000000	0.0
78	0x00000000	0.0
79	0x00000000	0.0
80	0x00000000	0.0
81	0x00000000	0.0
82	0x00000000	0.0
83	0x00000000	0.0
84	0x00000000	0.0
85	0x00000000	0.0
86	0x00000000	0.0
87	0x00000000	0.0
88	0x00000000	0.0
89	0x00000000	0.0
90	0x00000000	0.0
91	0x00000000	0.0
92	0x00000000	0.0
93	0x00000000	0.0
94	0x00000000	0.0
95	0x00000000	0.0
96	0x00000000	0.0
97	0x00000000	0.0
98	0x00000000	0.0
99	0x00000000	0.0
100	0x00000000	0.0
101	0x00000000	0.0
102	0x00000000	0.0
103	0x00000000	0.0
104	0x00000000	0.0
105	0x00000000	0.0
106	0x00000000	0.0
107	0x00000000	0.0
108	0x00000000	0.0
109	0x00000000	0.0
110	0x00000000	0.0
111	0x00000000	0.0
112	0x00000000	0.0
113	0x00000000	0.0
114	0x00000000	0.0
115	0x00000000	0.0
116	0x00000000	0.0
117	0x00000000	0.0
118	0x00000000	0.0
119	0x00000000	0.0
120	0x00000000	0.0
121	0x00000000	0.0
122	0x00000000	0.0
123	0x00000000	0.0
124	0x00000000	0.0
125	0x00000000	0.0
126	0x00000000	0.0
127	0x00000000	0.0
128	0x00000000	0.0
129	0x00000000	0.0
130	0x00000000	0.0
131	0x00000000	0.0
132	0x00000000	0.0
133	0x00000000	0.0
134	0x00000000	0.0
135	0x00000000	0.0
136	0x00000000	0.0
137	0x00000000	0.0
138	0x00000000	0.0
139	0x00000000	0.0
140	0x00000000	0.0
141	0x00000000	0.0
142	0x00000000	0.0
143	0x00000000	0.0

w f4 [1, 144, 1]
0	0x401d297d	2.4556572
1	0x401bf324	2.4367151
2	0x405f2fd4	3.4872942
3	0x3fe98b18	1.8245573
4	0x40afd653	5.4949126
5	0x00000377	1.243e-42
6	0x4014ccc5	2.3249981
7	0x401030b0	2.2529716
8	0x3fcec37d	1.6153408
9	0x4008fde5	2.1404965
10	0x3fc6fcbb	1.5545877
11	0x400f0b3c	2.2350607
12	0x3f57f5c7	0.843594
13	0x404064d4	3.006154
14	0x3fd0e450	1.6319675
15	0x3fff6a05	1.995423
16	0x405c3616	3.4408011
17	0x3eed656b	0.46366438
18	0x3fd518cb	1.6648191
19	0x3f89f3a7	1.0777482
20	0x3f558f3e	0.83421695
21	0x3faffc8d	1.3748947
22	0x3f8075dc	1.0035968
23	0x3fbf6d7d	1.4955288
24	0x3f518655	0.818456
25	0x3fa4056f	1.2814158
26	0x3f45c386	0.7725147
27	0x3f9927f8	1.1965322
28	0x3fb3ba5b	1.4041246
29	0x3e6f4462	0.2336593
30	0x3f0277d2	0.5096408
31	0x3f3c6d07	0.7360386
32	0x3f41d8c8	0.75721407
33	0x3f500472	0.81256783
34	0x00000377	1.243e-42
35	0x00000377	1.243e-42
36	0x411dc68f	9.860976
37	0x411b5363	9.707858
38	0x41200000	10.0
39	0x41200000	10.0
40	0x40e6281f	7.1923976
41	0x40fb705d	7.857466
42	0x40ea5f2b	7.324117
43	0x40e1624b	7.0432487
44	0x40595a0c	3.396121
45	0x4107db20	8.490997
46	0x4038269e	2.877357
47	0x411259bd	9.146909
48	0x402c30b8	2.6904736
49	0x40fba5fe	7.8640127
50	0x4054bbb1	3.3239558
51	0x40ec3169	7.3810315
52	0x40c2ca2b	6.0871787
53	0x40aab256	5.3342695
54	0x40838525	4.110003
55	0x408b8aca	4.360692
56	0x4013cee0	2.3095016
57	0x40aa1bb1	5.3158803
58	0x3fadfd22	1.3592875
59	0x40ac0744	5.375887
60	0x40278813	2.6176803
61	0x40b17364	5.545336
62	0x40c2d957	6.0890307
63	0x3f489927	0.7835869
64	0x406fec8f	3.7488134
65	0x40873dd4	4.2262974
66	0x40380f2d	2.8759263
67	0x404c8d1a	3.1961122
68	0x40c2c579	6.0866055
69	0x3f02a460	0.51032066
70	0x407e615d	3.9746926
71	0x3f5da346	0.8657726
72	0x4111f549	9.122384
73	0x41200000	10.0
74	0x41200000	10.0
75	0x41200000	10.0
76	0x411dff35	9.874806
77	0x411cff2b	9.812297
78	0x411d399d	9.826566
79	0x411c134a	9.754709
80	0x40e40aef	7.1263347
81	0x410c7864	8.779392
82	0x4115985b	9.349696
83	0x410384d1	8.219926
84	0x40b2ca8e	5.587226
85	0x4105149d	8.317533
86	0x40c02a71	6.005181
87	0x40e488ad	7.141684
88	0x40d973ac	6.79537
89	0x40a7e995	5.2472634
90	0x40aff991	5.4992146
91	0x40af852e	5.4850073
92	0x40bd10c4	5.9082966
93	0x40f27cbb	7.577726
94	0x40a1c533	5.055322
95	0x408e1cca	4.4410143
96	0x4031daeb	2.7789867
97	0x410cf3eb	8.80955
98	0x40ecdb59	7.401776
99	0x4099cd1f	4.806289
100	0x408c6307	4.3870883
101	0x410c2efb	8.76147
102	0x3fd802a7	1.687581
103	0x40c3d1cf	6.1193614
104	0x4078c226	3.8868499
105	0x40d0d45e	6.5259237
106	0x40f3ba6e	7.6165075
107	0x3fe53a85	1.7908484
108	0x3f9fa69b	1.2472719
109	0x40ac7668	5.389454
110	0x410327a4	8.197178
111	0x400d72d2	2.210133
112	0x40aa8747	5.3290133
113	0x3ff191a4	1.8872571
114	0x3ecc5ee8	0.39916158
115	0x3fb10378	1.3829184
116	0x40deae63	6.9587874
117	0x40592849	3.3930838
118	0x40bf783c	5.983427
119	0x40d47db5	6.640345
120	0x3f5890fa	0.84596217
121	0x400f3846	2.2378097
122	0x3f28d87e	0.6595534
123	0x3fdf33de	1.7437704
124	0x3f8340d7	1.0254163
125	0x3f8599e1	1.0437585
126	0x3e8c6d77	0.27427265
127	0x4034c134	2.8242922
128	0x3f6e7456	0.93146265
129	0x3f2b896e	0.67006576
130	0x3f41e879	0.7574535
131	0x3f3adac9	0.7299009
132	0x3fef2673	1.8683609
133	0x3e9eb8b4	0.31000292
134	0x3fabea02	1.3430789
135	0x3e003f4a	0.12524143
136	0x3f54634c	0.82964015
137	0x3f072479	0.5279003
138	0x3ef6d53f	0.4820957
139	0x3ecdf1c5	0.40223518
140	0x2d0b3be9	7.914538e-12
141	0x2d1188b6	8.272652e-12
142	0x2d864859	1.5266165e-11
143	0x2d963825	1.7077959e-11

w f4 [1, 144, 1]
0	0x401d297d	2.4556572
1	0x401bf324	2.4367151
2	0x405f2fd4	3.4872942
3	0x3fe98b18	1.8245573
4	0x40afd653	5.4949126
5	0x00000377	1.243e-42
6	0x4014ccc5	2.3249981
7	0x401030b0	2.2529716
8	0x3fcec37d	1.6153408
9	0x4008fde5	2.1404965
10	0x3fc6fcbb	1.5545877
11	0x400f0b3c	2.2350607
12	0x3f57f5c7	0.843594
13	0x404064d4	3.006154
14	0x3fd0e450	1.6319675
15	0x3fff6a05	1.995423
16	0x405c3616	3.4408011
17	0x3eed656b	0.46366438
18	0x3fd518cb	1.6648191
19	0x3f89f3a7	1.0777482
20	0x3f558f3e	0.83421695
21	0x3faffc8d	1.3748947
22	0x3f8075dc	1.0035968
23	0x3fbf6d7d	1.4955288
24	0x3f518655	0.818456
25	0x3fa4056f	1.2814158
26	0x3f45c386	0.7725147
27	0x3f9927f8	1.1965322
28	0x3fb3ba5b	1.4041246
29	0x3e6f4462	0.2336593
30	0x3f0277d2	0.5096408
31	0x3f3c6d07	0.7360386
32	0x3f41d8c8	0.75721407
33	0x3f500472	0.81256783
34	0x00000377	1.243e-42
35	0x00000377	1.243e-42
36	0x411dc68f	9.860976
37	0x411b5363	9.707858
38	0x41200000	10.0
39	0x41200000	10.0
40	0x40e6281f	7.1923976
41	0x40fb705d	7.857466
42	0x40ea5f2b	7.324117
43	0x40e1624b	7.0432487
44	0x40595a0c	3.396121
45	0x4107db20	8.490997
46	0x4038269e	2.877357
47	0x411259bd	9.146909
48	0x402c30b8	2.6904736
49	0x40fba5fe	7.8640127
50	0x4054bbb1	3.3239558
51	0x40ec3169	7.3810315
52	0x40c2ca2b	6.0871787
53	0x40aab256	5.3342695
54	0x40838525	4.110003
55	0x408b8aca	4.360692
56	0x4013cee0	2.3095016
57	0x40aa1bb1	5.3158803
58	0x3fadfd22	1.3592875
59	0x40ac0744	5.375887
60	0x40278813	2.6176803
61	0x40b17364	5.545336
62	0x40c2d957	6.0890307
63	0x3f489927	0.7835869
64	0x406fec8f	3.7488134
65	0x40873dd4	4.2262974
66	0x40380f2d	2.8759263
67	0x404c8d1a	3.1961122
68	0x40c2c579	6.0866055
69	0x3f02a460	0.51032066
70	0x407e615d	3.9746926
71	0x3f5da346	0.8657726
72	0x4111f549	9.122384
73	0x41200000	10.0
74	0x41200000	10.0
75	0x41200000	10.0
76	0x411dff35	9.874806
77	0x411cff2b	9.812297
78	0x411d399d	9.826566
79	0x411c134a	9.754709
80	0x40e40aef	7.1263347
81	0x410c7864	8.779392
82	0x4115985b	9.349696
83	0x410384d1	8.219926
84	0x40b2ca8e	5.587226
85	0x4105149d	8.317533
86	0x40c02a71	6.005181
87	0x40e488ad	7.141684
88	0x40d973ac	6.79537
89	0x40a7e995	5.2472634
90	0x40aff991	5.4992146
91	0x40af852e	5.4850073
92	0x40bd10c4	5.9082966
93	0x40f27cbb	7.577726
94	0x40a1c533	5.055322
95	0x408e1cca	4.4410143
96	0x4031daeb	2.7789867
97	0x410cf3eb	8.80955
98	0x40ecdb59	7.401776
99	0x4099cd1f	4.806289
100	0x408c6307	4.3870883
101	0x410c2efb	8.76147
102	0x3fd802a7	1.687581
103	0x40c3d1cf	6.1193614
104	0x4078c226	3.8868499
105	0x40d0d45e	6.5259237
106	0x40f3ba6e	7.6165075
107	0x3fe53a85	1.7908484
108	0x3f9fa69b	1.2472719
109	0x40ac7668	5.389454
110	0x410327a4	8.197178
111	0x400d72d2	2.210133
112	0x40aa8747	5.3290133
113	0x3ff191a4	1.8872571
114	0x3ecc5ee8	0.39916158
115	0x3fb10378	1.3829184
116	0x40deae63	6.9587874
117	0x40592849	3.3930838
118	0x40bf783c	5.983427
119	0x40d47db5	6.640345
120	0x3f5890fa	0.84596217
121	0x400f3846	2.2378097
122	0x3f28d87e	0.6595534
123	0x3fdf33de	1.7437704
124	0x3f8340d7	1.0254163
125	0x3f8599e1	1.0437585
126	0x3e8c6d77	0.27427265
127	0x4034c134	2.8242922
128	0x3f6e7456	0.93146265
129	0x3f2b896e	0.67006576
130	0x3f41e879	0.7574535
131	0x3f3adac9	0.7299009
132	0x3fef2673	1.8683609
133	0x3e9eb8b4	0.31000292
134	0x3fabea02	1.3430789
135	0x3e003f4a	0.12524143
136	0x3f54634c	0.82964015
137	0x3f072479	0.5279003
138	0x3ef6d53f	0.4820957
139	0x3ecdf1c5	0.40223518
140	0x2d0b3be9	7.914538e-12
141	0x2d1188b6	8.272652e-12
142	0x2d864859	1.5266165e-11
143	0x2d963825	1.7077959e-11

w f4 [1, 144, 1]
0	0x401d297d	2.4556572
1	0x401bf324	2.4367151
2	0x405f2fd4	3.4872942
3	0x3fe98b18	1.8245573
4	0x40afd653	5.4949126
5	0x00000377	1.243e-42
6	0x4014ccc5	2.3249981
7	0x401030b0	2.2529716
8	0x3fcec37d	1.6153408
9	0x4008fde5	2.1404965
10	0x3fc6fcbb	1.5545877
11	0x400f0b3c	2.2350607
12	0x3f57f5c7	0.843594
13	0x404064d4	3.006154
14	0x3fd0e450	1.6319675
15	0x3fff6a05	1.995423
16	0x405c3616	3.4408011
17	0x3eed656b	0.46366438
18	0x3fd518cb	1.6648191
19	0x3f89f3a7	1.0777482
20	0x3f558f3e	0.83421695
21	0x3faffc8d	1.3748947
22	0x3f8075dc	1.0035968
23	0x3fbf6d7d	1.4955288
24	0x3f518655	0.818456
25	0x3fa4056f	1.2814158
26	0x3f45c386	0.7725147
27	0x3f9927f8	1.1965322
28	0x3fb3ba5b	1.4041246
29	0x3e6f4462	0.2336593
30	0x3f0277d2	0.5096408
31	0x3f3c6d07	0.7360386
32	0x3f41d8c8	0.75721407
33	0x3f500472	0.81256783
34	0x00000377	1.243e-42
35	0x00000377	1.243e-42
36	0x411dc68f	9.860976
37	0x411b5363	9.707858
38	0x41200000	10.0
39	0x41200000	10.0
40	0x40e6281f	7.1923976
41	0x40fb705d	7.857466
42	0x40ea5f2b	7.324117
43	0x40e1624b	7.0432487
44	0x40595a0c	3.396121
45	0x4107db20	8.490997
46	0x4038269e	2.877357
47	0x411259bd	9.146909
48	0x402c30b8	2.6904736
49	0x40fba5fe	7.8640127
50	0x4054bbb1	3.3239558
51	0x40ec3169	7.3810315
52	0x40c2ca2b	6.0871787
53	0x40aab256	5.3342695
54	0x40838525	4.110003
55	0x408b8aca	4.360692
56	0x4013cee0	2.3095016
57	0x40aa1bb1	5.3158803
58	0x3fadfd22	1.3592875
59	0x40ac0744	5.375887
60	0x40278813	2.6176803
61	0x40b17364	5.545336
62	0x40c2d957	6.0890307
63	0x3f489927	0.7835869
64	0x406fec8f	3.7488134
65	0x40873dd4	4.2262974
66	0x40380f2d	2.8759263
67	0x404c8d1a	3.1961122
68	0x40c2c579	6.0866055
69	0x3f02a460	0.51032066
70	0x407e615d	3.9746926
71	0x3f5da346	0.8657726
72	0x4111f549	9.122384
73	0x41200000	10.0
74	0x41200000	10.0
75	0x41200000	10.0
76	0x411dff35	9.874806
77	0x411cff2b	9.812297
78	0x411d399d	9.826566
79	0x411c134a	9.754709
80	0x40e40aef	7.1263347
81	0x410c7864	8.779392
82	0x4115985b	9.349696
83	0x410384d1	8.219926
84	0x40b2ca8e	5.587226
85	0x4105149d	8.317533
86	0x40c02a71	6.005181
87	0x40e488ad	7.141684
88	0x40d973ac	6.79537
89	0x40a7e995	5.2472634
90	0x40aff991	5.4992146
91	0x40af852e	5.4850073
92	0x40bd10c4	5.9082966
93	0x40f27cbb	7.577726
94	0x40a1c533	5.055322
95	0x408e1cca	4.4410143
96	0x4031daeb	2.7789867
97	0x410cf3eb	8.80955
98	0x40ecdb59	7.401776
99	0x4099cd1f	4.806289
100	0x408c6307	4.3870883
101	0x410c2efb	8.76147
102	0x3fd802a7	1.687581
103	0x40c3d1cf	6.1193614
104	0x4078c226	3.8868499
105	0x40d0d45e	6.5259237
106	0x40f3ba6e	7.6165075
107	0x3fe53a85	1.7908484
108	0x3f9fa69b	1.2472719
109	0x40ac7668	5.389454
110	0x410327a4	8.197178
111	0x400d72d2	2.210133
112	0x40aa8747	5.3290133
113	0x3ff191a4	1.8872571
114	0x3ecc5ee8	0.39916158
115	0x3fb10378	1.3829184
116	0x40deae63	6.9587874
117	0x40592849	3.3930838
118	0x40bf783c	5.983427
119	0x40d47db5	6.640345
120	0x3f5890fa	0.84596217
121	0x400f3846	2.2378097
122	0x3f28d87e	0.6595534
123	0x3fdf33de	1.7437704
124	0x3f8340d7	1.0254163
125	0x3f8599e1	1.0437585
126	0x3e8c6d77	0.27427265
127	0x4034c134	2.8242922
128	0x3f6e7456	0.93146265
129	0x3f2b896e	0.67006576
130	0x3f41e879	0.7574535
131	0x3f3adac9	0.7299009
132	0x3fef2673	1.8683609
133	0x3e9eb8b4	0.31000292
134	0x3fabea02	1.3430789
135	0x3e003f4a	0.12524143
136	0x3f54634c	0.82964015
137	0x3f072479	0.5279003
138	0x3ef6d53f	0.4820957
139	0x3ecdf1c5	0.40223518
140	0x2d0b3be9	7.914538e-12
141	0x2d1188b6	8.272652e-12
142	0x2d864859	1.5266165e-11
143	0x2d963825	1.7077959e-11

w f4 [1, 144, 1]
0	0x401d297d	2.4556572
1	0x401bf324	2.4367151
2	0x405f2fd4	3.4872942
3	0x3fe98b18	1.8245573
4	0x40afd653	5.4949126
5	0x00000377	1.243e-42
6	0x4014ccc5	2.3249981
7	0x401030b0	2.2529716
8	0x3fcec37d	1.6153408
9	0x4008fde5	2.1404965
10	0x3fc6fcbb	1.5545877
11	0x400f0b3c	2.2350607
12	0x3f57f5c7	0.843594
13	0x404064d4	3.006154
14	0x3fd0e450	1.6319675
15	0x3fff6a05	1.995423
16	0x405c3616	3.4408011
17	0x3eed656b	0.46366438
18	0x3fd518cb	1.6648191
19	0x3f89f3a7	1.0777482
20	0x3f558f3e	0.83421695
21	0x3faffc8d	1.3748947
22	0x3f8075dc	1.0035968
23	0x3fbf6d7d	1.4955288
24	0x3f518655	0.818456
25	0x3fa4056f	1.2814158
26	0x3f45c386	0.7725147
27	0x3f9927f8	1.1965322
28	0x3fb3ba5b	1.4041246
29	0x3e6f4462	0.2336593
30	0x3f0277d2	0.5096408
31	0x3f3c6d07	0.7360386
32	0x3f41d8c8	0.75721407
33	0x3f500472	0.81256783
34	0x00000377	1.243e-42
35	0x00000377	1.243e-42
36	0x411dc68f	9.860976
37	0x411b5363	9.707858
38	0x41200000	10.0
39	0x41200000	10.0
40	0x40e6281f	7.1923976
41	0x40fb705d	7.857466
42	0x40ea5f2b	7.324117
43	0x40e1624b	7.0432487
44	0x40595a0c	3.396121
45	0x4107db20	8.490997
46	0x4038269e	2.877357
47	0x411259bd	9.146909
48	0x402c30b8	2.6904736
49	0x40fba5fe	7.8640127
50	0x4054bbb1	3.3239558
51	0x40ec3169	7.3810315
52	0x40c2ca2b	6.0871787
53	0x40aab256	5.3342695
54	0x40838525	4.110003
55	0x408b8aca	4.360692
56	0x4013cee0	2.3095016
57	0x40aa1bb1	5.3158803
58	0x3fadfd22	1.3592875
59	0x40ac0744	5.375887
60	0x40278813	2.6176803
61	0x40b17364	5.545336
62	0x40c2d957	6.0890307
63	0x3f489927	0.7835869
64	0x406fec8f	3.7488134
65	0x40873dd4	4.2262974
66	0x40380f2d	2.8759263
67	0x404c8d1a	3.1961122
68	0x40c2c579	6.0866055
69	0x3f02a460	0.51032066
70	0x407e615d	3.9746926
71	0x3f5da346	0.8657726
72	0x4111f549	9.122384
73	0x41200000	10.0
74	0x41200000	10.0
75	0x41200000	10.0
76	0x411dff35	9.874806
77	0x411cff2b	9.812297
78	0x411d399d	9.826566
79	0x411c134a	9.754709
80	0x40e40aef	7.1263347
81	0x410c7864	8.779392
82	0x4115985b	9.349696
83	0x410384d1	8.219926
84	0x40b2ca8e	5.587226
85	0x4105149d	8.317533
86	0x40c02a71	6.005181
87	0x40e488ad	7.141684
88	0x40d973ac	6.79537
89	0x40a7e995	5.2472634
90	0x40aff991	5.4992146
91	0x40af852e	5.4850073
92	0x40bd10c4	5.9082966
93	0x40f27cbb	7.577726
94	0x40a1c533	5.055322
95	0x408e1cca	4.4410143
96	0x4031daeb	2.7789867
97	0x410cf3eb	8.80955
98	0x40ecdb59	7.401776
99	0x4099cd1f	4.806289
100	0x408c6307	4.3870883
101	0x410c2efb	8.76147
102	0x3fd802a7	1.687581
103	0x40c3d1cf	6.1193614
104	0x4078c226	3.8868499
105	0x40d0d45e	6.5259237
106	0x40f3ba6e	7.6165075
107	0x3fe53a85	1.7908484
108	0x3f9fa69b	1.2472719
109	0x40ac7668	5.389454
110	0x410327a4	8.197178
111	0x400d72d2	2.210133
112	0x40aa8747	5.3290133
113	0x3ff191a4	1.8872571
114	0x3ecc5ee8	0.39916158
115	0x3fb10378	1.3829184
116	0x40deae63	6.9587874
117	0x40592849	3.3930838
118	0x40bf783c	5.983427
119	0x40d47db5	6.640345
120	0x3f5890fa	0.84596217
121	0x400f3846	2.2378097
122	0x3f28d87e	0.6595534
123	0x3fdf33de	1.7437704
124	0x3f8340d7	1.0254163
125	0x3f8599e1	1.0437585
126	0x3e8c6d77	0.27427265
127	0x4034c134	2.8242922
128	0x3f6e7456	0.93146265
129	0x3f2b896e	0.67006576
130	0x3f41e879	0.7574535
131	0x3f3adac9	0.7299009
132	0x3fef2673	1.8683609
133	0x3e9eb8b4	0.31000292
134	0x3fabea02	1.3430789
135	0x3e003f4a	0.12524143
136	0x3f54634c	0.82964015
137	0x3f072479	0.5279003
138	0x3ef6d53f	0.4820957
139	0x3ecdf1c5	0.40223518
140	0x2d0b3be9	7.914538e-12
141	0x2d1188b6	8.272652e-12
142	0x2d864859	1.5266165e-11
143	0x2d963825	1.7077959e-11

w f4 [1, 144, 1]
0	0x401d297d	2.4556572
1	0x401bf324	2.4367151
2	0x405f2fd4	3.4872942
3	0x3fe98b18	1.8245573
4	0x40afd653	5.4949126
5	0x00000377	1.243e-42
6	0x4014ccc5	2.3249981
7	0x401030b0	2.2529716
8	0x3fcec37d	1.6153408
9	0x4008fde5	2.1404965
10	0x3fc6fcbb	1.5545877
11	0x400f0b3c	2.2350607
12	0x3f57f5c7	0.843594
13	0x404064d4	3.006154
14	0x3fd0e450	1.6319675
15	0x3fff6a05	1.995423
16	0x405c3616	3.4408011
17	0x3eed656b	0.46366438
18	0x3fd518cb	1.6648191
19	0x3f89f3a7	1.0777482
20	0x3f558f3e	0.83421695
21	0x3faffc8d	1.3748947
22	0x3f8075dc	1.0035968
23	0x3fbf6d7d	1.4955288
24	0x3f518655	0.818456
25	0x3fa4056f	1.2814158
26	0x3f45c386	0.7725147
27	0x3f9927f8	1.1965322
28	0x3fb3ba5b	1.4041246
29	0x3e6f4462	0.2336593
30	0x3f0277d2	0.5096408
31	0x3f3c6d07	0.7360386
32	0x3f41d8c8	0.75721407
33	0x3f500472	0.81256783
34	0x00000377	1.243e-42
35	0x00000377	1.243e-42
36	0x411dc68f	9.860976
37	0x411b5363	9.707858
38	0x41200000	10.0
39	0x41200000	10.0
40	0x40e6281f	7.1923976
41	0x40fb705d	7.857466
42	0x40ea5f2b	7.324117
43	0x40e1624b	7.0432487
44	0x40595a0c	3.396121
45	0x4107db20	8.490997
46	0x4038269e	2.877357
47	0x411259bd	9.146909
48	0x402c30b8	2.6904736
49	0x40fba5fe	7.8640127
50	0x4054bbb1	3.3239558
51	0x40ec3169	7.3810315
52	0x40c2ca2b	6.0871787
53	0x40aab256	5.3342695
54	0x40838525	4.110003
55	0x408b8aca	4.360692
56	0x4013cee0	2.3095016
57	0x40aa1bb1	5.3158803
58	0x3fadfd22	1.3592875
59	0x40ac0744	5.375887
60	0x40278813	2.6176803
61	0x40b17364	5.545336
62	0x40c2d957	6.0890307
63	0x3f489927	0.7835869
64	0x406fec8f	3.7488134
65	0x40873dd4	4.2262974
66	0x40380f2d	2.8759263
67	0x404c8d1a	3.1961122
68	0x40c2c579	6.0866055
69	0x3f02a460	0.51032066
70	0x407e615d	3.9746926
71	0x3f5da346	0.8657726
72	0x4111f549	9.122384
73	0x41200000	10.0
74	0x41200000	10.0
75	0x41200000	10.0
76	0x411dff35	9.874806
77	0x411cff2b	9.812297
78	0x411d399d	9.826566
79	0x411c134a	9.754709
80	0x40e40aef	7.1263347
81	0x410c7864	8.779392
82	0x4115985b	9.349696
83	0x410384d1	8.219926
84	0x40b2ca8e	5.587226
85	0x4105149d	8.317533
86	0x40c02a71	6.005181
87	0x40e488ad	7.141684
88	0x40d973ac	6.79537
89	0x40a7e995	5.2472634
90	0x40aff991	5.4992146
91	0x40af852e	5.4850073
92	0x40bd10c4	5.9082966
93	0x40f27cbb	7.577726
94	0x40a1c533	5.055322
95	0x408e1cca	4.4410143
96	0x4031daeb	2.7789867
97	0x410cf3eb	8.80955
98	0x40ecdb59	7.401776
99	0x4099cd1f	4.806289
100	0x408c6307	4.3870883
101	0x410c2efb	8.76147
102	0x3fd802a7	1.687581
103	0x40c3d1cf	6.1193614
104	0x4078c226	3.8868499
105	0x40d0d45e	6.5259237
106	0x40f3ba6e	7.6165075
107	0x3fe53a85	1.7908484
108	0x3f9fa69b	1.2472719
109	0x40ac7668	5.389454
110	0x410327a4	8.197178
111	0x400d72d2	2.210133
112	0x40aa8747	5.3290133
113	0x3ff191a4	1.8872571
114	0x3ecc5ee8	0.39916158
115	0x3fb10378	1.3829184
116	0x40deae63	6.9587874
117	0x40592849	3.3930838
118	0x40bf783c	5.983427
119	0x40d47db5	6.640345
120	0x3f5890fa	0.84596217
121	0x400f3846	2.2378097
122	0x3f28d87e	0.6595534
123	0x3fdf33de	1.7437704
124	0x3f8340d7	1.0254163
125	0x3f8599e1	1.0437585
126	0x3e8c6d77	0.27427265
127	0x4034c134	2.8242922
128	0x3f6e7456	0.93146265
129	0x3f2b896e	0.67006576
130	0x3f41e879	0.7574535
131	0x3f3adac9	0.7299009
132	0x3fef2673	1.8683609
133	0x3e9eb8b4	0.31000292
134	0x3fabea02	1.3430789
135	0x3e003f4a	0.12524143
136	0x3f54634c	0.82964015
137	0x3f072479	0.5279003
138	0x3ef6d53f	0.4820957
139	0x3ecdf1c5	0.40223518
140	0x2d0b3be9	7.914538e-12
141	0x2d1188b6	8.272652e-12
142	0x2d864859	1.5266165e-11
143	0x2d963825	1.7077959e-11

w f4 [1, 144, 1]
0	0x401d297d	2.4556572
1	0x401bf324	2.4367151
2	0x405f2fd4	3.4872942
3	0x3fe98b18	1.8245573
4	0x40afd653	5.4949126
5	0x00000377	1.243e-42
6	0x4014ccc5	2.3249981
7	0x401030b0	2.2529716
8	0x3fcec37d	1.6153408
9	0x4008fde5	2.1404965
10	0x3fc6fcbb	1.5545877
11	0x400f0b3c	2.2350607
12	0x3f57f5c7	0.843594
13	0x404064d4	3.006154
14	0x3fd0e450	1.6319675
15	0x3fff6a05	1.995423
16	0x405c3616	3.4408011
17	0x3eed656b	0.46366438
18	0x3fd518cb	1.6648191
19	0x3f89f3a7	1.0777482
20	0x3f558f3e	0.83421695
21	0x3faffc8d	1.3748947
22	0x3f8075dc	1.0035968
23	0x3fbf6d7d	1.4955288
24	0x3f518655	0.818456
25	0x3fa4056f	1.2814158
26	0x3f45c386	0.7725147
27	0x3f9927f8	1.1965322
28	0x3fb3ba5b	1.4041246
29	0x3e6f4462	0.2336593
30	0x3f0277d2	0.5096408
31	0x3f3c6d07	0.7360386
32	0x3f41d8c8	0.75721407
33	0x3f500472	0.81256783
34	0x00000377	1.243e-42
35	0x00000377	1.243e-42
36	0x411dc68f	9.860976
37	0x411b5363	9.707858
38	0x41200000	10.0
39	0x41200000	10.0
40	0x40e6281f	7.1923976
41	0x40fb705d	7.857466
42	0x40ea5f2b	7.324117
43	0x40e1624b	7.0432487
44	0x40595a0c	3.396121
45	0x4107db20	8.490997
46	0x4038269e	2.877357
47	0x411259bd	9.146909
48	0x402c30b8	2.6904736
49	0x40fba5fe	7.8640127
50	0x4054bbb1	3.3239558
51	0x40ec3169	7.3810315
52	0x40c2ca2b	6.0871787
53	0x40aab256	5.3342695
54	0x40838525	4.110003
55	0x408b8aca	4.360692
56	0x4013cee0	2.3095016
57	0x40aa1bb1	5.3158803
58	0x3fadfd22	1.3592875
59	0x40ac0744	5.375887
60	0x40278813	2.6176803
61	0x40b17364	5.545336
62	0x40c2d957	6.0890307
63	0x3f489927	0.7835869
64	0x406fec8f	3.7488134
65	0x40873dd4	4.2262974
66	0x40380f2d	2.8759263
67	0x404c8d1a	3.1961122
68	0x40c2c579	6.0866055
69	0x3f02a460	0.51032066
70	0x407e615d	3.9746926
71	0x3f5da346	0.8657726
72	0x4111f549	9.122384
73	0x41200000	10.0
74	0x41200000	10.0
75	0x41200000	10.0
76	0x411dff35	9.874806
77	0x411cff2b	9.812297
78	0x411d399d	9.826566
79	0x411c134a	9.754709
80	0x40e40aef	7.1263347
81	0x410c7864	8.779392
82	0x4115985b	9.349696
83	0x410384d1	8.219926
84	0x40b2ca8e	5.587226
85	0x4105149d	8.317533
86	0x40c02a71	6.005181
87	0x40e488ad	7.141684
88	0x40d973ac	6.79537
89	0x40a7e995	5.2472634
90	0x40aff991	5.4992146
91	0x40af852e	5.4850073
92	0x40bd10c4	5.9082966
93	0x40f27cbb	7.577726
94	0x40a1c533	5.055322
95	0x408e1cca	4.4410143
96	0x4031daeb	2.7789867
97	0x410cf3eb	8.80955
98	0x40ecdb59	7.401776
99	0x4099cd1f	4.806289
100	0x408c6307	4.3870883
101	0x410c2efb	8.76147
102	0x3fd802a7	1.687581
103	0x40c3d1cf	6.1193614
104	0x4078c226	3.8868499
105	0x40d0d45e	6.5259237
106	0x40f3ba6e	7.6165075
107	0x3fe53a85	1.7908484
108	0x3f9fa69b	1.2472719
109	0x40ac7668	5.389454
110	0x410327a4	8.197178
111	0x400d72d2	2.210133
112	0x40aa8747	5.3290133
113	0x3ff191a4	1.8872571
114	0x3ecc5ee8	0.39916158
115	0x3fb10378	1.3829184
116	0x40deae63	6.9587874
117	0x40592849	3.3930838
118	0x40bf783c	5.983427
119	0x40d47db5	6.640345
120	0x3f5890fa	0.84596217
121	0x400f3846	2.2378097
122	0x3f28d87e	0.6595534
123	0x3fdf33de	1.7437704
124	0x3f8340d7	1.0254163
125	0x3f8599e1	1.0437585
126	0x3e8c6d77	0.27427265
127	0x4034c134	2.8242922
128	0x3f6e7456	0.93146265
129	0x3f2b896e	0.67006576
130	0x3f41e879	0.7574535
131	0x3f3adac9	0.7299009
132	0x3fef2673	1.8683609
133	0x3e9eb8b4	0.31000292
134	0x3fabea02	1.3430789
135	0x3e003f4a	0.12524143
136	0x3f54634c	0.82964015
137	0x3f072479	0.5279003
138	0x3ef6d53f	0.4820957
139	0x3ecdf1c5	0.40223518
140	0x2d0b3be9	7.914538e-12
141	0x2d1188b6	8.272652e-12
142	0x2d864859	1.5266165e-11
143	0x2d963825	1.7077959e-11

w f4 [1, 144, 1]
0	0x401d297d	2.4556572
1	0x401bf324	2.4367151
2	0x405f2fd4	3.4872942
3	0x3fe98b18	1.8245573
4	0x40afd653	5.4949126
5	0x00000377	1.243e-42
6	0x4014ccc5	2.3249981
7	0x401030b0	2.2529716
8	0x3fcec37d	1.6153408
9	0x4008fde5	2.1404965
10	0x3fc6fcbb	1.5545877
11	0x400f0b3c	2.2350607
12	0x3f57f5c7	0.843594
13	0x404064d4	3.006154
14	0x3fd0e450	1.6319675
15	0x3fff6a05	1.995423
16	0x405c3616	3.4408011
17	0x3eed656b	0.46366438
18	0x3fd518cb	1.6648191
19	0x3f89f3a7	1.0777482
20	0x3f558f3e	0.83421695
21	0x3faffc8d	1.3748947
22	0x3f8075dc	1.0035968
23	0x3fbf6d7d	1.4955288
24	0x3f518655	0.818456
25	0x3fa4056f	1.2814158
26	0x3f45c386	0.7725147
27	0x3f9927f8	1.1965322
28	0x3fb3ba5b	1.4041246
29	0x3e6f4462	0.2336593
30	0x3f0277d2	0.5096408
31	0x3f3c6d07	0.7360386
32	0x3f41d8c8	0.75721407
33	0x3f500472	0.81256783
34	0x00000377	1.243e-42
35	0x00000377	1.243e-42
36	0x411dc68f	9.860976
37	0x411b5363	9.707858
38	0x41200000	10.0
39	0x41200000	10.0
40	0x40e6281f	7.1923976
41	0x40fb705d	7.857466
42	0x40ea5f2b	7.324117
43	0x40e1624b	7.0432487
44	0x40595a0c	3.396121
45	0x4107db20	8.490997
46	0x4038269e	2.877357
47	0x411259bd	9.146909
48	0x402c30b8	2.6904736
49	0x40fba5fe	7.8640127
50	0x4054bbb1	3.3239558
51	0x40ec3169	7.3810315
52	0x40c2ca2b	6.0871787
53	0x40aab256	5.3342695
54	0x40838525	4.110003
55	0x408b8aca	4.360692
56	0x4013cee0	2.3095016
57	0x40aa1bb1	5.3158803
58	0x3fadfd22	1.3592875
59	0x40ac0744	5.375887
60	0x40278813	2.6176803
61	0x40b17364	5.545336
62	0x40c2d957	6.0890307
63	0x3f489927	0.7835869
64	0x406fec8f	3.7488134
65	0x40873dd4	4.2262974
66	0x40380f2d	2.8759263
67	0x404c8d1a	3.1961122
68	0x40c2c579	6.0866055
69	0x3f02a460	0.51032066
70	0x407e615d	3.9746926
71	0x3f5da346	0.8657726
72	0x4111f549	9.122384
73	0x41200000	10.0
74	0x41200000	10.0
75	0x41200000	10.0
76	0x411dff35	9.874806
77	0x411cff2b	9.812297
78	0x411d399d	9.826566
79	0x411c134a	9.754709
80	0x40e14029	7.039082
81	0x410c7864	8.779392
82	0x4115985b	9.349696
83	0x410384d1	8.219926
84	0x40b2ca8e	5.587226
85	0x4105149d	8.317533
86	0x40c02a71	6.005181
87	0x40e488ad	7.141684
88	0x40d973ac	6.79537
89	0x40a7e995	5.2472634
90	0x40aff991	5.4992146
91	0x40af852e	5.4850073
92	0x40bd10c4	5.9082966
93	0x40f27cbb	7.577726
94	0x40a1c533	5.055322
95	0x408e1cca	4.4410143
96	0x4031daeb	2.7789867
97	0x410cf3eb	8.80955
98	0x40ecdb59	7.401776
99	0x4099cd1f	4.806289
100	0x408c6307	4.3870883
101	0x410c2efb	8.76147
102	0x3fd802a7	1.687581
103	0x40c3d1cf	6.1193614
104	0x4078c226	3.8868499
105	0x40d0d45e	6.5259237
106	0x40f3ba6e	7.6165075
107	0x3fe53a85	1.7908484
108	0x3f9fa69b	1.2472719
109	0x40ac7668	5.389454
110	0x410327a4	8.197178
111	0x400d72d2	2.210133
112	0x40aa8747	5.3290133
113	0x3ff191a4	1.8872571
114	0x3ecc5ee8	0.39916158
115	0x3fb10378	1.3829184
116	0x40deae63	6.9587874
117	0x40592849	3.3930838
118	0x40bf783c	5.983427
119	0x40d47db5	6.640345
120	0x3f5890fa	0.84596217
121	0x400f3846	2.2378097
122	0x3f28d87e	0.6595534
123	0x3fdf33de	1.7437704
124	0x3f8340d7	1.0254163
125	0x3f8599e1	1.0437585
126	0x3e8c6d77	0.27427265
127	0x4034c134	2.8242922
128	0x3f6e7456	0.93146265
129	0x3f2b896e	0.67006576
130	0x3f41e879	0.7574535
131	0x3f3adac9	0.7299009
132	0x3fef2673	1.8683609
133	0x3e9eb8b4	0.31000292
134	0x3fabea02	1.3430789
135	0x3e003f4a	0.12524143
136	0x3f54634c	0.82964015
137	0x3f072479	0.5279003
138	0x3ef6d53f	0.4820957
139	0x3ecdf1c5	0.40223518
140	0x2d0b3be9	7.914538e-12
141	0x2d1188b6	8.272652e-12
142	0x2d864859	1.5266165e-11
143	0x2d963825	1.7077959e-11

w f4 [1, 144, 1]
0	0x401d297d	2.4556572
1	0x401bf324	2.4367151
2	0x405f2fd4	3.4872942
3	0x3fe98b18	1.8245573
4	0x40afd653	5.4949126
5	0x00000377	1.243e-42
6	0x4014ccc5	2.3249981
7	0x401030b0	2.2529716
8	0x3fcec37d	1.6153408
9	0x4008fde5	2.1404965
10	0x3fc6fcbb	1.5545877
11	0x400f0b3c	2.2350607
12	0x3f57f5c7	0.843594
13	0x404064d4	3.006154
14	0x3fd0e450	1.6319675
15	0x3fff6a05	1.995423
16	0x405c3616	3.4408011
17	0x3eed656b	0.46366438
18	0x3fd518cb	1.6648191
19	0x3f89f3a7	1.0777482
20	0x3f558f3e	0.83421695
21	0x3faffc8d	1.3748947
22	0x3f8075dc	1.0035968
23	0x3fbf6d7d	1.4955288
24	0x3f518655	0.818456
25	0x3fa4056f	1.2814158
26	0x3f45c386	0.7725147
27	0x3f9927f8	1.1965322
28	0x3fb3ba5b	1.4041246
29	0x3e6f4462	0.2336593
30	0x3f0277d2	0.5096408
31	0x3f3c6d07	0.7360386
32	0x3f41d8c8	0.75721407
33	0x3f500472	0.81256783
34	0x00000377	1.243e-42
35	0x00000377	1.243e-42
36	0x411dc68f	9.860976
37	0x411b5363	9.707858
38	0x41200000	10.0
39	0x41200000	10.0
40	0x40e6281f	7.1923976
41	0x40fb705d	7.857466
42	0x40ea5f2b	7.324117
43	0x40e1624b	7.0432487
44	0x40595a0c	3.396121
45	0x4107db20	8.490997
46	0x4038269e	2.877357
47	0x411259bd	9.146909
48	0x402c30b8	2.6904736
49	0x40fba5fe	7.8640127
50	0x4054bbb1	3.3239558
51	0x40ec3169	7.3810315
52	0x40c2ca2b	6.0871787
53	0x40aab256	5.3342695
54	0x40838525	4.110003
55	0x408b8aca	4.360692
56	0x4013cee0	2.3095016
57	0x40aa1bb1	5.3158803
58	0x3fadfd22	1.3592875
59	0x40ac0744	5.375887
60	0x40278813	2.6176803
61	0x40b17364	5.545336
62	0x40c2d957	6.0890307
63	0x3f489927	0.7835869
64	0x406fec8f	3.7488134
65	0x40873dd4	4.2262974
66	0x40380f2d	2.8759263
67	0x404c8d1a	3.1961122
68	0x40c2c579	6.0866055
69	0x3f02a460	0.51032066
70	0x407e615d	3.9746926
71	0x3f5da346	0.8657726
72	0x4111f549	9.122384
73	0x41200000	10.0
74	0x41200000	10.0
75	0x41200000	10.0
76	0x411dff35	9.874806
77	0x411cff2b	9.812297
78	0x411d399d	9.826566
79	0x411c134a	9.754709
80	0x40e14029	7.039082
81	0x410b246f	8.696395
82	0x4115985b	9.349696
83	0x410384d1	8.219926
84	0x40b2ca8e	5.587226
85	0x4105149d	8.317533
86	0x40c02a71	6.005181
87	0x40e488ad	7.141684
88	0x40d973ac	6.79537
89	0x40a7e995	5.2472634
90	0x40aff991	5.4992146
91	0x40af852e	5.4850073
92	0x40bd10c4	5.9082966
93	0x40f27cbb	7.577726
94	0x40a1c533	5.055322
95	0x408e1cca	4.4410143
96	0x4031daeb	2.7789867
97	0x410cf3eb	8.80955
98	0x40ecdb59	7.401776
99	0x4099cd1f	4.806289
100	0x408c6307	4.3870883
101	0x410c2efb	8.76147
102	0x3fd802a7	1.687581
103	0x40c3d1cf	6.1193614
104	0x4078c226	3.8868499
105	0x40d0d45e	6.5259237
106	0x40f3ba6e	7.6165075
107	0x3fe53a85	1.7908484
108	0x3f9fa69b	1.2472719
109	0x40ac7668	5.389454
110	0x410327a4	8.197178
111	0x400d72d2	2.210133
112	0x40aa8747	5.3290133
113	0x3ff191a4	1.8872571
114	0x3ecc5ee8	0.39916158
115	0x3fb10378	1.3829184
116	0x40deae63	6.9587874
117	0x40592849	3.3930838
118	0x40bf783c	5.983427
119	0x40d47db5	6.640345
120	0x3f5890fa	0.84596217
121	0x400f3846	2.2378097
122	0x3f28d87e	0.6595534
123	0x3fdf33de	1.7437704
124	0x3f8340d7	1.0254163
125	0x3f8599e1	1.0437585
126	0x3e8c6d77	0.27427265
127	0x4034c134	2.8242922
128	0x3f6e7456	0.93146265
129	0x3f2b896e	0.67006576
130	0x3f41e879	0.7574535
131	0x3f3adac9	0.7299009
132	0x3fef2673	1.8683609
133	0x3e9eb8b4	0.31000292
134	0x3fabea02	1.3430789
135	0x3e003f4a	0.12524143
136	0x3f54634c	0.82964015
137	0x3f072479	0.5279003
138	0x3ef6d53f	0.4820957
139	0x3ecdf1c5	0.40223518
140	0x2d0b3be9	7.914538e-12
141	0x2d1188b6	8.272652e-12
142	0x2d864859	1.5266165e-11
143	0x2d963825	1.7077959e-11

w f4 [1, 144, 1]
0	0x401d297d	2.4556572
1	0x401bf324	2.4367151
2	0x405f2fd4	3.4872942
3	0x3fe98b18	1.8245573
4	0x40afd653	5.4949126
5	0x00000378	1.244e-42
6	0x4014ccc5	2.3249981
7	0x401030b0	2.2529716
8	0x3fcec37d	1.6153408
9	0x4008fde5	2.1404965
10	0x3fc6fcbb	1.5545877
11	0x400f0b3c	2.2350607
12	0x3f57f5c7	0.843594
13	0x404064d4	3.006154
14	0x3fd0e450	1.6319675
15	0x3fff6a05	1.995423
16	0x405c3616	3.4408011
17	0x3eed656b	0.46366438
18	0x3fd518cb	1.6648191
19	0x3f89f3a7	1.0777482
20	0x3f558f3e	0.83421695
21	0x3faffc8d	1.3748947
22	0x3f8075dc	1.0035968
23	0x3fbf6d7d	1.4955288
24	0x3f518655	0.818456
25	0x3fa4056f	1.2814158
26	0x3f45c386	0.7725147
27	0x3f9927f8	1.1965322
28	0x3fb3ba5b	1.4041246
29	0x3e6f4462	0.2336593
30	0x3f0277d2	0.5096408
31	0x3f3c6d07	0.7360386
32	0x3f41d8c8	0.75721407
33	0x3f500472	0.81256783
34	0x00000378	1.244e-42
35	0x00000378	1.244e-42
36	0x411dc68f	9.860976
37	0x411b5363	9.707858
38	0x41200000	10.0
39	0x41200000	10.0
40	0x40e6281f	7.1923976
41	0x40fb705d	7.857466
42	0x40ea5f2b	7.324117
43	0x40e1624b	7.0432487
44	0x40595a0c	3.396121
45	0x4107db20	8.490997
46	0x4038269e	2.877357
47	0x411259bd	9.146909
48	0x402c30b8	2.6904736
49	0x40fba5fe	7.8640127
50	0x4054bbb1	3.3239558
51	0x40ec3169	7.3810315
52	0x40c2ca2b	6.0871787
53	0x40aab256	5.3342695
54	0x40838525	4.110003
55	0x408b8aca	4.360692
56	0x4013cee0	2.3095016
57	0x40aa1bb1	5.3158803
58	0x3fadfd22	1.3592875
59	0x40ac0744	5.375887
60	0x40278813	2.6176803
61	0x40b17364	5.545336
62	0x40c2d957	6.0890307
63	0x3f489927	0.7835869
64	0x406fec8f	3.7488134
65	0x40873dd4	4.2262974
66	0x40380f2d	2.8759263
67	0x404c8d1a	3.1961122
68	0x40c2c579	6.0866055
69	0x3f02a460	0.51032066
70	0x407e615d	3.9746926
71	0x3f5da346	0.8657726
72	0x4111f549	9.122384
73	0x41200000	10.0
74	0x41200000	10.0
75	0x41200000	10.0
76	0x411fd49d	9.989408
77	0x41200000	10.0
78	0x411d399d	9.826566
79	0x411c134a	9.754709
80	0x40e2c64a	7.086705
81	0x410aae1f	8.66751
82	0x4115985b	9.349696
83	0x410384d1	8.219926
84	0x40b2ca8e	5.587226
85	0x4105149d	8.317533
86	0x40c02a71	6.005181
87	0x40e488ad	7.141684
88	0x40d973ac	6.79537
89	0x40a7e995	5.2472634
90	0x40aff991	5.4992146
91	0x40af852e	5.4850073
92	0x40bd10c4	5.9082966
93	0x40f27cbb	7.577726
94	0x40a1c533	5.055322
95	0x408e1cca	4.4410143
96	0x4031daeb	2.7789867
97	0x410cf3eb	8.80955
98	0x40ecdb59	7.401776
99	0x4099cd1f	4.806289
100	0x408c6307	4.3870883
101	0x410c2efb	8.76147
102	0x3fd802a7	1.687581
103	0x40c3d1cf	6.1193614
104	0x4078c226	3.8868499
105	0x40d0d45e	6.5259237
106	0x40f3ba6e	7.6165075
107	0x3fe53a85	1.7908484
108	0x3f9fa69b	1.2472719
109	0x40ac7668	5.389454
110	0x410327a4	8.197178
111	0x400d72d2	2.210133
112	0x40aa8747	5.3290133
113	0x3ff191a4	1.8872571
114	0x3ecc5ee8	0.39916158
115	0x3fb10378	1.3829184
116	0x40deae63	6.9587874
117	0x40592849	3.3930838
118	0x40bf783c	5.983427
119	0x40d47db5	6.640345
120	0x3f5890fa	0.84596217
121	0x400f3846	2.2378097
122	0x3f28d87e	0.6595534
123	0x3fdf33de	1.7437704
124	0x3f8340d7	1.0254163
125	0x3f8599e1	1.0437585
126	0x3e8c6d77	0.27427265
127	0x4034c134	2.8242922
128	0x3f6e7456	0.93146265
129	0x3f2b896e	0.67006576
130	0x3f41e879	0.7574535
131	0x3f3adac9	0.7299009
132	0x3fef2673	1.8683609
133	0x3e9eb8b4	0.31000292
134	0x3fabea02	1.3430789
135	0x3e003f4a	0.12524143
136	0x3f54634c	0.82964015
137	0x3f072479	0.5279003
138	0x3ef6d53f	0.4820957
139	0x3ecdf1c5	0.40223518
140	0x2d0b3be9	7.914538e-12
141	0x2d1188b6	8.272652e-12
142	0x2d864859	1.5266165e-11
143	0x2d963825	1.7077959e-11

w f4 [1, 144, 1]
0	0x401d297d	2.4556572
1	0x401bf324	2.4367151
2	0x405f2fd4	3.4872942
3	0x3fe98b18	1.8245573
4	0x40afd653	5.4949126
5	0x00000378	1.244e-42
6	0x4014ccc5	2.3249981
7	0x401030b0	2.2529716
8	0x3fcec37d	1.6153408
9	0x4008fde5	2.1404965
10	0x3fc6fcbb	1.5545877
11	0x400f0b3c	2.2350607
12	0x3f57f5c7	0.843594
13	0x404064d4	3.006154
14	0x3fd0e450	1.6319675
15	0x3fff6a05	1.995423
16	0x405c3616	3.4408011
17	0x3eed656b	0.46366438
18	0x3fd518cb	1.6648191
19	0x3f89f3a7	1.0777482
20	0x3f558f3e	0.83421695
21	0x3faffc8d	1.3748947
22	0x3f8075dc	1.0035968
23	0x3fbf6d7d	1.4955288
24	0x3f518655	0.818456
25	0x3fa4056f	1.2814158
26	0x3f45c386	0.7725147
27	0x3f9927f8	1.1965322
28	0x3fb3ba5b	1.4041246
29	0x3e6f4462	0.2336593
30	0x3f0277d2	0.5096408
31	0x3f3c6d07	0.7360386
32	0x3f41d8c8	0.75721407
33	0x3f500472	0.81256783
34	0x00000378	1.244e-42
35	0x00000378	1.244e-42
36	0x411dc68f	9.860976
37	0x411b5363	9.707858
38	0x41200000	10.0
39	0x41200000	10.0
40	0x40e6281f	7.1923976
41	0x40fb705d	7.857466
42	0x40ea5f2b	7.324117
43	0x40e1624b	7.0432487
44	0x40595a0c	3.396121
45	0x4107db20	8.490997
46	0x4038269e	2.877357
47	0x411259bd	9.146909
48	0x402c30b8	2.6904736
49	0x40fba5fe	7.8640127
50	0x4054bbb1	3.3239558
51	0x40ec3169	7.3810315
52	0x40c2ca2b	6.0871787
53	0x40aab256	5.3342695
54	0x40838525	4.110003
55	0x408b8aca	4.360692
56	0x4013cee0	2.3095016
57	0x40aa1bb1	5.3158803
58	0x3fadfd22	1.3592875
59	0x40ac0744	5.375887
60	0x40278813	2.6176803
61	0x40b17364	5.545336
62	0x40c2d957	6.0890307
63	0x3f489927	0.7835869
64	0x406fec8f	3.7488134
65	0x40873dd4	4.2262974
66	0x40380f2d	2.8759263
67	0x404c8d1a	3.1961122
68	0x40c2c579	6.0866055
69	0x3f02a460	0.51032066
70	0x407e615d	3.9746926
71	0x3f5da346	0.8657726
72	0x4111f549	9.122384
73	0x41200000	10.0
74	0x41200000	10.0
75	0x41200000	10.0
76	0x411fd49d	9.989408
77	0x41200000	10.0
78	0x411d399d	9.826566
79	0x411c134a	9.754709
80	0x40e2c64a	7.086705
81	0x410aae1f	8.66751
82	0x4115985b	9.349696
83	0x410384d1	8.219926
84	0x40b2ca8e	5.587226
85	0x4105149d	8.317533
86	0x40c02a71	6.005181
87	0x40e488ad	7.141684
88	0x40d973ac	6.79537
89	0x40a7e995	5.2472634
90	0x40aff991	5.4992146
91	0x40af852e	5.4850073
92	0x40bd10c4	5.9082966
93	0x40f27cbb	7.577726
94	0x40a1c533	5.055322
95	0x408e1cca	4.4410143
96	0x4031daeb	2.7789867
97	0x410cf3eb	8.80955
98	0x40ecdb59	7.401776
99	0x4099cd1f	4.806289
100	0x408c6307	4.3870883
101	0x410c2efb	8.76147
102	0x3fd802a7	1.687581
103	0x40c3d1cf	6.1193614
104	0x4078c226	3.8868499
105	0x40d0d45e	6.5259237
106	0x40f3ba6e	7.6165075
107	0x3fe53a85	1.7908484
108	0x3f9fa69b	1.2472719
109	0x40ac7668	5.389454
110	0x410327a4	8.197178
111	0x400d72d2	2.210133
112	0x40aa8747	5.3290133
113	0x3ff191a4	1.8872571
114	0x3ecc5ee8	0.39916158
115	0x3fb10378	1.3829184
116	0x40deae63	6.9587874
117	0x40592849	3.3930838
118	0x40bf783c	5.983427
119	0x40d47db5	6.640345
120	0x3f5890fa	0.84596217
121	0x400f3846	2.2378097
122	0x3f28d87e	0.6595534
123	0x3fdf33de	1.7437704
124	0x3f8340d7	1.0254163
125	0x3f8599e1	1.0437585
126	0x3e8c6d77	0.27427265
127	0x4034c134	2.8242922
128	0x3f6e7456	0.93146265
129	0x3f2b896e	0.67006576
130	0x3f41e879	0.7574535
131	0x3f3adac9	0.7299009
132	0x3fef2673	1.8683609
133	0x3e9eb8b4	0.31000292
134	0x3fabea02	1.3430789
135	0x3e003f4a	0.12524143
136	0x3f54634c	0.82964015
137	0x3f072479	0.5279003
138	0x3ef6d53f	0.4820957
139	0x3ecdf1c5	0.40223518
140	0x2d0b3be9	7.914538e-12
141	0x2d1188b6	8.272652e-12
142	0x2d864859	1.5266165e-11
143	0x2d963825	1.7077959e-11

w f4 [1, 144, 1]
0	0x401d297d	2.4556572
1	0x401bf324	2.4367151
2	0x405f2fd4	3.4872942
3	0x3fe98b18	1.8245573
4	0x40afd653	5.4949126
5	0x00000378	1.244e-42
6	0x4014ccc5	2.3249981
7	0x401030b0	2.2529716
8	0x3fcec37d	1.6153408
9	0x4008fde5	2.1404965
10	0x3fc6fcbb	1.5545877
11	0x400f0b3c	2.2350607
12	0x3f57f5c7	0.843594
13	0x404064d4	3.006154
14	0x3fd0e450	1.6319675
15	0x3fff6a05	1.995423
16	0x405c3616	3.4408011
17	0x3eed656b	0.46366438
18	0x3fd518cb	1.6648191
19	0x3f89f3a7	1.0777482
20	0x3f558f3e	0.83421695
21	0x3faffc8d	1.3748947
22	0x3f8075dc	1.0035968
23	0x3fbf6d7d	1.4955288
24	0x3f518655	0.818456
25	0x3fa4056f	1.2814158
26	0x3f45c386	0.7725147
27	0x3f9927f8	1.1965322
28	0x3fb3ba5b	1.4041246
29	0x3e6f4462	0.2336593
30	0x3f0277d2	0.5096408
31	0x3f3c6d07	0.7360386
32	0x3f41d8c8	0.75721407
33	0x3f500472	0.81256783
34	0x00000378	1.244e-42
35	0x00000378	1.244e-42
36	0x411dc68f	9.860976
37	0x411b5363	9.707858
38	0x41200000	10.0
39	0x41200000	10.0
40	0x40e6281f	7.1923976
41	0x40fb705d	7.857466
42	0x40ea5f2b	7.324117
43	0x40e1624b	7.0432487
44	0x40595a0c	3.396121
45	0x4107db20	8.490997
46	0x4038269e	2.877357
47	0x411259bd	9.146909
48	0x402c30b8	2.6904736
49	0x40fba5fe	7.8640127
50	0x4054bbb1	3.3239558
51	0x40ec3169	7.3810315
52	0x40c2ca2b	6.0871787
53	0x40aab256	5.3342695
54	0x40838525	4.110003
55	0x408b8aca	4.360692
56	0x4013cee0	2.3095016
57	0x40aa1bb1	5.3158803
58	0x3fadfd22	1.3592875
59	0x40ac0744	5.375887
60	0x40278813	2.6176803
61	0x40b17364	5.545336
62	0x40c2d957	6.0890307
63	0x3f489927	0.7835869
64	0x406fec8f	3.7488134
65	0x40873dd4	4.2262974
66	0x40380f2d	2.8759263
67	0x404c8d1a	3.1961122
68	0x40c2c579	6.0866055
69	0x3f02a460	0.51032066
70	0x407e615d	3.9746926
71	0x3f5da346	0.8657726
72	0x4111f549	9.122384
73	0x41200000	10.0
74	0x41200000	10.0
75	0x41200000	10.0
76	0x411fd49d	9.989408
77	0x41200000	10.0
78	0x411d399d	9.826566
79	0x411c134a	9.754709
80	0x40def6f4	6.9676456
81	0x410aae1f	8.66751
82	0x4115985b	9.349696
83	0x410384d1	8.219926
84	0x40b2ca8e	5.587226
85	0x4105149d	8.317533
86	0x40c02a71	6.005181
87	0x40e488ad	7.141684
88	0x40d973ac	6.79537
89	0x40a7e995	5.2472634
90	0x40aff991	5.4992146
91	0x40af852e	5.4850073
92	0x40bd10c4	5.9082966
93	0x40f27cbb	7.577726
94	0x40a1c533	5.055322
95	0x408e1cca	4.4410143
96	0x4031daeb	2.7789867
97	0x410cf3eb	8.80955
98	0x40ecdb59	7.401776
99	0x4099cd1f	4.806289
100	0x408c6307	4.3870883
101	0x410c2efb	8.76147
102	0x3fd802a7	1.687581
103	0x40c3d1cf	6.1193614
104	0x4078c226	3.8868499
105	0x40d0d45e	6.5259237
106	0x40f3ba6e	7.6165075
107	0x3fe53a85	1.7908484
108	0x3f9fa69b	1.2472719
109	0x40ac7668	5.389454
110	0x410327a4	8.197178
111	0x400d72d2	2.210133
112	0x40aa8747	5.3290133
113	0x3ff191a4	1.8872571
114	0x3ecc5ee8	0.39916158
115	0x3fb10378	1.3829184
116	0x40deae63	6.9587874
117	0x40592849	3.3930838
118	0x40bf783c	5.983427
119	0x40d47db5	6.640345
120	0x3f5890fa	0.84596217
121	0x400f3846	2.2378097
122	0x3f28d87e	0.6595534
123	0x3fdf33de	1.7437704
124	0x3f8340d7	1.0254163
125	0x3f8599e1	1.0437585
126	0x3e8c6d77	0.27427265
127	0x4034c134	2.8242922
128	0x3f6e7456	0.93146265
129	0x3f2b896e	0.67006576
130	0x3f41e879	0.7574535
131	0x3f3adac9	0.7299009
132	0x3fef2673	1.8683609
133	0x3e9eb8b4	0.31000292
134	0x3fabea02	1.3430789
135	0x3e003f4a	0.12524143
136	0x3f54634c	0.82964015
137	0x3f072479	0.5279003
138	0x3ef6d53f	0.4820957
139	0x3ecdf1c5	0.40223518
140	0x2d0b3be9	7.914538e-12
141	0x2d1188b6	8.272652e-12
142	0x2d864859	1.5266165e-11
143	0x2d963825	1.7077959e-11
