SNN_Codes/Spiking_codes/Trained_SNN/rudder354.pt (torch, 500256 bytes, 505 tensors)

x f4 [1, 40]
00000000: 0000 0000 0000 0000 0000 0000 0000 0000
00000010: 0000 0000 0000 0000 0000 0000 0000 0000
00000020: 0000 0000 0000 0000 0000 0000 0000 0000
00000030: 0000 0000 0000 0000 0a00 0000 0a00 0000
00000040: 0a00 0000 0a00 0000 0a00 0000 0a00 0000
00000050: 0000 803f 5d57 5c3f 0a00 0000 0a00 0000
00000060: 0a00 0000 0a00 0000 9312 5d2d ac52 742d
00000070: 0a00 0000 0a00 0000 0a00 0000 0a00 0000
00000080: d68a 5e09 428b 3f09 b12d 691b 17fd 521b
00000090: 0000 0000 0000 0000 0a00 0000 0a00 0000
0.0 0.0 0.0 0.0 0.0 0.0 0.0 0.0
0.0 0.0 0.0 0.0 0.0 0.0 1.4e-44 1.4e-44
1.4e-44 1.4e-44 1.4e-44 1.4e-44 1.0 0.86070806 1.4e-44 1.4e-44
1.4e-44 1.4e-44 1.256652e-11 1.3888151e-11 1.4e-44 1.4e-44 1.4e-44 1.4e-44
2.6787558e-33 2.3056267e-33 1.9288072e-22 1.745257e-22 0.0 0.0 1.4e-44 1.4e-44

w f4 [40, 1]
00000000: ddcd 1341 f42e 1641 0000 2041 0000 2041
00000010: db41 1841 6cc1 0a41 05e2 1641 191f 0e41
00000020: 0000 2041 a048 2740 b7c6 9e40 9051 1240
00000030: e496 cc40 b207 bb40 a5b0 8440 a99e 9440
00000040: 417b 3840 ebd2 4c40 805b fc3f 4238 7b40
00000050: 0542 ff3f bcfe 0a40 ff13 5540 52e6 3c40
00000060: 5606 0000 1b8b 2b40 8d4e cf3f a89e 8d40
00000070: c226 c23f ab6b 8e3f c119 613e 2da7 3a3e
00000080: 26db ab3f 9d23 003f 70e3 963f 3266 2d3f
00000090: 8e50 782d 2890 c02d 7400 0000 7400 0000
9.23776 9.386463 10.0 10.0 9.516078 8.672222 9.430181 8.882592
10.0 2.6138077 4.961757 2.2862282 6.3934193 5.8446894 4.146563 4.6443677
2.8825228 3.2003734 1.9715424 3.9253087 1.9942023 2.1717978 3.3293455 2.9515576
2.273e-42 2.6803653 1.6195847 4.425617 1.5168078 1.1126608 0.2198248 0.18227835
1.3426254 0.5005434 1.1788158 0.6773406 1.4115055e-11 2.1891891e-11 1.63e-43 1.63e-43

nu f4 [2]
00000000: 0000 803f 0000 803f
1.0 1.0

p_plus f4 [1, 40]
00000000: 4806 c540 278f a340 0a00 0000 0a00 0000
00000010: 0a00 0000 0a00 0000 0a00 0000 0a00 0000
00000020: 0a00 0000 0a00 0000 0a00 0000 0a00 0000
00000030: 0a00 0000 0a00 0000 0a00 0000 0a00 0000
00000040: 0a00 0000 0a00 0000 0a00 0000 0a00 0000
00000050: 2ba2 811c 84f2 821c 0a00 0000 0a00 0000
00000060: 0a00 0000 0a00 0000 7a8e 730a 69db 6d0a
00000070: 0a00 0000 0a00 0000 0a00 0000 0a00 0000
00000080: 8b00 0000 6c00 0000 0a00 0000 0a00 0000
00000090: 0a00 0000 0a00 0000 0a00 0000 0a00 0000
6.1570168 5.1112247 1.4e-44 1.4e-44 1.4e-44 1.4e-44 1.4e-44 1.4e-44
1.4e-44 1.4e-44 1.4e-44 1.4e-44 1.4e-44 1.4e-44 1.4e-44 1.4e-44
1.4e-44 1.4e-44 1.4e-44 1.4e-44 8.578423e-22 8.665367e-22 1.4e-44 1.4e-44
1.4e-44 1.4e-44 1.1726821e-32 1.14524014e-32 1.4e-44 1.4e-44 1.4e-44 1.4e-44
1.95e-43 1.51e-43 1.4e-44 1.4e-44 1.4e-44 1.4e-44 1.4e-44 1.4e-44

eligibility f4 [1, 40, 1]
00000000: 3919 15c0 0000 0000 0000 0000 0000 0000
00000010: 0000 0000 0000 0000 0000 0000 0000 0000
00000020: 0000 0000 0000 0000 0000 0000 0000 0000
00000030: 0000 0000 0000 0000 0000 0000 0000 0000
00000040: 0000 0000 0000 0000 0000 0000 0000 0000
00000050: 0000 0000 0000 0000 0000 0000 0000 0000
00000060: 0000 0000 0000 0000 0000 0000 0000 0000
00000070: 0000 0000 0000 0000 0000 0000 0000 0000
00000080: 0000 0000 0000 0000 0000 0000 0000 0000
00000090: 0000 0000 0000 0000 0000 0000 0000 0000
-2.3296645 0.0 0.0 0.0 0.0 0.0 0.0 0.0
0.0 0.0 0.0 0.0 0.0 0.0 0.0 0.0
0.0 0.0 0.0 0.0 0.0 0.0 0.0 0.0
0.0 0.0 0.0 0.0 0.0 0.0 0.0 0.0
0.0 0.0 0.0 0.0 0.0 0.0 0.0 0.0

w f4 [1, 40, 1]
00000000: ddcd 1341 f42e 1641 0000 2041 0000 2041
00000010: db41 1841 6cc1 0a41 05e2 1641 191f 0e41
00000020: 0000 2041 a048 2740 b7c6 9e40 9051 1240
00000030: e496 cc40 b207 bb40 a5b0 8440 a99e 9440
00000040: 417b 3840 ebd2 4c40 805b fc3f 4238 7b40
00000050: 0542 ff3f bcfe 0a40 ff13 5540 52e6 3c40
00000060: 5606 0000 1b8b 2b40 8d4e cf3f a89e 8d40
00000070: c226 c23f ab6b 8e3f c119 613e 2da7 3a3e
00000080: 26db ab3f 9d23 003f 70e3 963f 3266 2d3f
00000090: 8e50 782d 2890 c02d 7400 0000 7400 0000
9.23776 9.386463 10.0 10.0 9.516078 8.672222 9.430181 8.882592
10.0 2.6138077 4.961757 2.2862282 6.3934193 5.8446894 4.146563 4.6443677
2.8825228 3.2003734 1.9715424 3.9253087 1.9942023 2.1717978 3.3293455 2.9515576
2.273e-42 2.6803653 1.6195847 4.425617 1.5168078 1.1126608 0.2198248 0.18227835
1.3426254 0.5005434 1.1788158 0.6773406 1.4115055e-11 2.1891891e-11 1.63e-43 1.63e-43

w f4 [1, 40, 1]
00000000: ddcd 1341 f42e 1641 0000 2041 0000 2041
00000010: db41 1841 6cc1 0a41 05e2 1641 191f 0e41
00000020: 0000 2041 a048 2740 b7c6 9e40 9051 1240
00000030: e496 cc40 b207 bb40 a5b0 8440 a99e 9440
00000040: 417b 3840 ebd2 4c40 805b fc3f 4238 7b40
00000050: 0542 ff3f bcfe 0a40 ff13 5540 52e6 3c40
00000060: 5606 0000 1b8b 2b40 8d4e cf3f a89e 8d40
00000070: c226 c23f ab6b 8e3f c119 613e 2da7 3a3e
00000080: 26db ab3f 9d23 003f 70e3 963f 3266 2d3f
00000090: 8e50 782d 2890 c02d 7400 0000 7400 0000
9.23776 9.386463 10.0 10.0 9.516078 8.672222 9.430181 8.882592
10.0 2.6138077 4.961757 2.2862282 6.3934193 5.8446894 4.146563 4.6443677
2.8825228 3.2003734 1.9715424 3.9253087 1.9942023 2.1717978 3.3293455 2.9515576
2.273e-42 2.6803653 1.6195847 4.425617 1.5168078 1.1126608 0.2198248 0.18227835
1.3426254 0.5005434 1.1788158 0.6773406 1.4115055e-11 2.1891891e-11 1.63e-43 1.63e-43

w f4 [1, 40, 1]
00000000: ddcd 1341 f42e 1641 0000 2041 0000 2041
00000010: db41 1841 6cc1 0a41 05e2 1641 191f 0e41
00000020: 0000 2041 a048 2740 b7c6 9e40 9051 1240
00000030: e496 cc40 b207 bb40 a5b0 8440 a99e 9440
00000040: 417b 3840 ebd2 4c40 805b fc3f 4238 7b40
00000050: 0542 ff3f bcfe 0a40 ff13 5540 52e6 3c40
00000060: 5606 0000 1b8b 2b40 8d4e cf3f a89e 8d40
00000070: c226 c23f ab6b 8e3f c119 613e 2da7 3a3e
00000080: 26db ab3f 9d23 003f 70e3 963f 3266 2d3f
00000090: 8e50 782d 2890 c02d 7400 0000 7400 0000
9.23776 9.386463 10.0 10.0 9.516078 8.672222 9.430181 8.882592
10.0 2.6138077 4.961757 2.2862282 6.3934193 5.8446894 4.146563 4.6443677
2.8825228 3.2003734 1.9715424 3.9253087 1.9942023 2.1717978 3.3293455 2.9515576
2.273e-42 2.6803653 1.6195847 4.425617 1.5168078 1.1126608 0.2198248 0.18227835
1.3426254 0.5005434 1.1788158 0.6773406 1.4115055e-11 2.1891891e-11 1.63e-43 1.63e-43

w f4 [1, 40, 1]
00000000: ddcd 1341 f42e 1641 0000 2041 0000 2041
00000010: db41 1841 6cc1 0a41 05e2 1641 191f 0e41
00000020: 0000 2041 a048 2740 b7c6 9e40 9051 1240
00000030: e496 cc40 b207 bb40 a5b0 8440 a99e 9440
00000040: 417b 3840 ebd2 4c40 805b fc3f 4238 7b40
00000050: 0542 ff3f bcfe 0a40 ff13 5540 52e6 3c40
00000060: 5606 0000 1b8b 2b40 8d4e cf3f a89e 8d40
00000070: c226 c23f ab6b 8e3f c119 613e 2da7 3a3e
00000080: 26db ab3f 9d23 003f 70e3 963f 3266 2d3f
00000090: 8e50 782d 2890 c02d 7400 0000 7400 0000
9.23776 9.386463 10.0 10.0 9.516078 8.672222 9.430181 8.882592
10.0 2.6138077 4.961757 2.2862282 6.3934193 5.8446894 4.146563 4.6443677
2.8825228 3.2003734 1.9715424 3.9253087 1.9942023 2.1717978 3.3293455 2.9515576
2.273e-42 2.6803653 1.6195847 4.425617 1.5168078 1.1126608 0.2198248 0.18227835
1.3426254 0.5005434 1.1788158 0.6773406 1.4115055e-11 2.1891891e-11 1.63e-43 1.63e-43

w f4 [1, 40, 1]
00000000: ddcd 1341 f42e 1641 0000 2041 0000 2041
00000010: db41 1841 6cc1 0a41 05e2 1641 191f 0e41
00000020: 0000 2041 a048 2740 b7c6 9e40 9051 1240
00000030: e496 cc40 b207 bb40 a5b0 8440 a99e 9440
00000040: 417b 3840 ebd2 4c40 805b fc3f 4238 7b40
00000050: 0542 ff3f bcfe 0a40 ff13 5540 52e6 3c40
00000060: 5606 0000 1b8b 2b40 8d4e cf3f a89e 8d40
00000070: c226 c23f ab6b 8e3f c119 613e 2da7 3a3e
00000080: 26db ab3f 9d23 003f 70e3 963f 3266 2d3f
00000090: 8e50 782d 2890 c02d 7400 0000 7400 0000
9.23776 9.386463 10.0 10.0 9.516078 8.672222 9.430181 8.882592
10.0 2.6138077 4.961757 2.2862282 6.3934193 5.8446894 4.146563 4.6443677
2.8825228 3.2003734 1.9715424 3.9253087 1.9942023 2.1717978 3.3293455 2.9515576
2.273e-42 2.6803653 1.6195847 4.425617 1.5168078 1.1126608 0.2198248 0.18227835
1.3426254 0.5005434 1.1788158 0.6773406 1.4115055e-11 2.1891891e-11 1.63e-43 1.63e-43

w f4 [1, 40, 1]
00000000: ddcd 1341 f42e 1641 0000 2041 0000 2041
00000010: db41 1841 6cc1 0a41 05e2 1641 191f 0e41
00000020: 0000 2041 a048 2740 b7c6 9e40 9051 1240
00000030: e496 cc40 b207 bb40 a5b0 8440 a99e 9440
00000040: 417b 3840 ebd2 4c40 805b fc3f 4238 7b40
00000050: 0542 ff3f bcfe 0a40 ff13 5540 52e6 3c40
00000060: 5606 0000 1b8b 2b40 8d4e cf3f a89e 8d40
00000070: c226 c23f ab6b 8e3f c119 613e 2da7 3a3e
00000080: 26db ab3f 9d23 003f 70e3 963f 3266 2d3f
00000090: 8e50 782d 2890 c02d 7400 0000 7400 0000
9.23776 9.386463 10.0 10.0 9.516078 8.672222 9.430181 8.882592
10.0 2.6138077 4.961757 2.2862282 6.3934193 5.8446894 4.146563 4.6443677
2.8825228 3.2003734 1.9715424 3.9253087 1.9942023 2.1717978 3.3293455 2.9515576
2.273e-42 2.6803653 1.6195847 4.425617 1.5168078 1.1126608 0.2198248 0.18227835
1.3426254 0.5005434 1.1788158 0.6773406 1.4115055e-11 2.1891891e-11 1.63e-43 1.63e-43

w f4 [1, 40, 1]
00000000: ddcd 1341 f42e 1641 0000 2041 0000 2041
00000010: db41 1841 6cc1 0a41 05e2 1641 191f 0e41
00000020: 0000 2041 a048 2740 b7c6 9e40 9051 1240
00000030: e496 cc40 b207 bb40 a5b0 8440 a99e 9440
00000040: 417b 3840 ebd2 4c40 805b fc3f 4238 7b40
00000050: 0542 ff3f bcfe 0a40 ff13 5540 52e6 3c40
00000060: 5606 0000 1b8b 2b40 8d4e cf3f a89e 8d40
00000070: c226 c23f ab6b 8e3f c119 613e 2da7 3a3e
00000080: 26db ab3f 9d23 003f 70e3 963f 3266 2d3f
00000090: 8e50 782d 2890 c02d 7400 0000 7400 0000
9.23776 9.386463 10.0 10.0 9.516078 8.672222 9.430181 8.882592
10.0 2.6138077 4.961757 2.2862282 6.3934193 5.8446894 4.146563 4.6443677
2.8825228 3.2003734 1.9715424 3.9253087 1.9942023 2.1717978 3.3293455 2.9515576
2.273e-42 2.6803653 1.6195847 4.425617 1.5168078 1.1126608 0.2198248 0.18227835
1.3426254 0.5005434 1.1788158 0.6773406 1.4115055e-11 2.1891891e-11 1.63e-43 1.63e-43

w f4 [1, 40, 1]
00000000: ddcd 1341 f42e 1641 0000 2041 0000 2041
00000010: db41 1841 6cc1 0a41 05e2 1641 191f 0e41
00000020: 0000 2041 a048 2740 b7c6 9e40 9051 1240
00000030: e496 cc40 b207 bb40 a5b0 8440 a99e 9440
00000040: 417b 3840 ebd2 4c40 805b fc3f 4238 7b40
00000050: 0542 ff3f bcfe 0a40 ff13 5540 52e6 3c40
00000060: 5606 0000 1b8b 2b40 8d4e cf3f a89e 8d40
00000070: c226 c23f ab6b 8e3f c119 613e 2da7 3a3e
00000080: 26db ab3f 9d23 003f 70e3 963f 3266 2d3f
00000090: 8e50 782d 2890 c02d 7400 0000 7400 0000
9.23776 9.386463 10.0 10.0 9.516078 8.672222 9.430181 8.882592
10.0 2.6138077 4.961757 2.2862282 6.3934193 5.8446894 4.146563 4.6443677
2.8825228 3.2003734 1.9715424 3.9253087 1.9942023 2.1717978 3.3293455 2.9515576
2.273e-42 2.6803653 1.6195847 4.425617 1.5168078 1.1126608 0.2198248 0.18227835
1.3426254 0.5005434 1.1788158 0.6773406 1.4115055e-11 2.1891891e-11 1.63e-43 1.63e-43

w f4 [1, 40, 1]
00000000: ddcd 1341 f42e 1641 0000 2041 0000 2041
00000010: db41 1841 6cc1 0a41 05e2 1641 191f 0e41
00000020: 0000 2041 a048 2740 b7c6 9e40 9051 1240
00000030: e496 cc40 b207 bb40 a5b0 8440 a99e 9440
00000040: 417b 3840 ebd2 4c40 805b fc3f 4238 7b40
00000050: 0542 ff3f bcfe 0a40 ff13 5540 52e6 3c40
00000060: 5606 0000 1b8b 2b40 8d4e cf3f a89e 8d40
00000070: c226 c23f ab6b 8e3f c119 613e 2da7 3a3e
00000080: 26db ab3f 9d23 003f 70e3 963f 3266 2d3f
00000090: 8e50 782d 2890 c02d 7400 0000 7400 0000
9.23776 9.386463 10.0 10.0 9.516078 8.672222 9.430181 8.882592
10.0 2.6138077 4.961757 2.2862282 6.3934193 5.8446894 4.146563 4.6443677
2.8825228 3.2003734 1.9715424 3.9253087 1.9942023 2.1717978 3.3293455 2.9515576
2.273e-42 2.6803653 1.6195847 4.425617 1.5168078 1.1126608 0.2198248 0.18227835
1.3426254 0.5005434 1.1788158 0.6773406 1.4115055e-11 2.1891891e-11 1.63e-43 1.63e-43

w f4 [1, 40, 1]
00000000: ddcd 1341 f42e 1641 0000 2041 0000 2041
00000010: db41 1841 6cc1 0a41 05e2 1641 191f 0e41
00000020: 0000 2041 a048 2740 b7c6 9e40 9051 1240
00000030: e496 cc40 b207 bb40 a5b0 8440 a99e 9440
00000040: 417b 3840 ebd2 4c40 805b fc3f 4238 7b40
00000050: 0542 ff3f bcfe 0a40 ff13 5540 52e6 3c40
00000060: 5606 0000 1b8b 2b40 8d4e cf3f a89e 8d40
00000070: c226 c23f ab6b 8e3f c119 613e 2da7 3a3e
00000080: 26db ab3f 9d23 003f 70e3 963f 3266 2d3f
00000090: 8e50 782d 2890 c02d 7400 0000 7400 0000
9.23776 9.386463 10.0 10.0 9.516078 8.672222 9.430181 8.882592
10.0 2.6138077 4.961757 2.2862282 6.3934193 5.8446894 4.146563 4.6443677
2.8825228 3.2003734 1.9715424 3.9253087 1.9942023 2.1717978 3.3293455 2.9515576
2.273e-42 2.6803653 1.6195847 4.425617 1.5168078 1.1126608 0.2198248 0.18227835
1.3426254 0.5005434 1.1788158 0.6773406 1.4115055e-11 2.1891891e-11 1.63e-43 1.63e-43

w f4 [1, 40, 1]
00000000: ddcd 1341 f42e 1641 0000 2041 0000 2041
00000010: db41 1841 6cc1 0a41 05e2 1641 191f 0e41
00000020: 0000 2041 a048 2740 b7c6 9e40 9051 1240
00000030: e496 cc40 b207 bb40 a5b0 8440 a99e 9440
00000040: 417b 3840 ebd2 4c40 805b fc3f 4238 7b40
00000050: 0542 ff3f bcfe 0a40 ff13 5540 52e6 3c40
00000060: 5606 0000 1b8b 2b40 8d4e cf3f a89e 8d40
00000070: c226 c23f ab6b 8e3f c119 613e 2da7 3a3e
00000080: 26db ab3f 9d23 003f 70e3 963f 3266 2d3f
00000090: 8e50 782d 2890 c02d 7400 0000 7400 0000
9.23776 9.386463 10.0 10.0 9.516078 8.672222 9.430181 8.882592
10.0 2.6138077 4.961757 2.2862282 6.3934193 5.8446894 4.146563 4.6443677
2.8825228 3.2003734 1.9715424 3.9253087 1.9942023 2.1717978 3.3293455 2.9515576
2.273e-42 2.6803653 1.6195847 4.425617 1.5168078 1.1126608 0.2198248 0.18227835
1.3426254 0.5005434 1.1788158 0.6773406 1.4115055e-11 2.1891891e-11 1.63e-43 1.63e-43

w f4 [1, 40, 1]
00000000: ddcd 1341 f42e 1641 0000 2041 0000 2041
00000010: db41 1841 6cc1 0a41 05e2 1641 191f 0e41
00000020: 0000 2041 a048 2740 b7c6 9e40 9051 1240
00000030: e496 cc40 b207 bb40 a5b0 8440 a99e 9440
00000040: 417b 3840 ebd2 4c40 805b fc3f 4238 7b40
00000050: 0542 ff3f bcfe 0a40 ff13 5540 52e6 3c40
00000060: 5606 0000 1b8b 2b40 8d4e cf3f a89e 8d40
00000070: c226 c23f ab6b 8e3f c119 613e 2da7 3a3e
00000080: 26db ab3f 9d23 003f 70e3 963f 3266 2d3f
00000090: 8e50 782d 2890 c02d 7400 0000 7400 0000
9.23776 9.386463 10.0 10.0 9.516078 8.672222 9.430181 8.882592
10.0 2.6138077 4.961757 2.2862282 6.3934193 5.8446894 4.146563 4.6443677
2.8825228 3.2003734 1.9715424 3.9253087 1.9942023 2.1717978 3.3293455 2.9515576
2.273e-42 2.6803653 1.6195847 4.425617 1.5168078 1.1126608 0.2198248 0.18227835
1.3426254 0.5005434 1.1788158 0.6773406 1.4115055e-11 2.1891891e-11 1.63e-43 1.63e-43

w f4 [1, 40, 1]
00000000: ddcd 1341 f42e 1641 0000 2041 0000 2041
00000010: db41 1841 6cc1 0a41 05e2 1641 191f 0e41
00000020: 0000 2041 a048 2740 b7c6 9e40 9051 1240
00000030: e496 cc40 b207 bb40 a5b0 8440 a99e 9440
00000040: 417b 3840 ebd2 4c40 805b fc3f 4238 7b40
00000050: 0542 ff3f bcfe 0a40 ff13 5540 52e6 3c40
00000060: 5606 0000 1b8b 2b40 8d4e cf3f a89e 8d40
00000070: c226 c23f ab6b 8e3f c119 613e 2da7 3a3e
00000080: 26db ab3f 9d23 003f 70e3 963f 3266 2d3f
00000090: 8e50 782d 2890 c02d 7400 0000 7400 0000
9.23776 9.386463 10.0 10.0 9.516078 8.672222 9.430181 8.882592
10.0 2.6138077 4.961757 2.2862282 6.3934193 5.8446894 4.146563 4.6443677
2.8825228 3.2003734 1.9715424 3.9253087 1.9942023 2.1717978 3.3293455 2.9515576
2.273e-42 2.6803653 1.6195847 4.425617 1.5168078 1.1126608 0.2198248 0.18227835
1.3426254 0.5005434 1.1788158 0.6773406 1.4115055e-11 2.1891891e-11 1.63e-43 1.63e-43

w f4 [1, 40, 1]
00000000: ddcd 1341 f42e 1641 0000 2041 0000 2041
00000010: db41 1841 6cc1 0a41 05e2 1641 191f 0e41
00000020: 0000 2041 a048 2740 b7c6 9e40 9051 1240
00000030: e496 cc40 b207 bb40 a5b0 8440 a99e 9440
00000040: 417b 3840 ebd2 4c40 805b fc3f 4238 7b40
00000050: 0542 ff3f bcfe 0a40 ff13 5540 52e6 3c40
00000060: 5606 0000 1b8b 2b40 8d4e cf3f a89e 8d40
00000070: c226 c23f ab6b 8e3f c119 613e 2da7 3a3e
00000080: 26db ab3f 9d23 003f 70e3 963f 3266 2d3f
00000090: 8e50 782d 2890 c02d 7400 0000 7400 0000
9.23776 9.386463 10.0 10.0 9.516078 8.672222 9.430181 8.882592
10.0 2.6138077 4.961757 2.2862282 6.3934193 5.8446894 4.146563 4.6443677
2.8825228 3.2003734 1.9715424 3.9253087 1.9942023 2.1717978 3.3293455 2.9515576
2.273e-42 2.6803653 1.6195847 4.425617 1.5168078 1.1126608 0.2198248 0.18227835
1.3426254 0.5005434 1.1788158 0.6773406 1.4115055e-11 2.1891891e-11 1.63e-43 1.63e-43

w f4 [1, 40, 1]
00000000: ddcd 1341 f42e 1641 0000 2041 0000 2041
00000010: db41 1841 6cc1 0a41 05e2 1641 191f 0e41
00000020: 0000 2041 a048 2740 b7c6 9e40 9051 1240
00000030: e496 cc40 b207 bb40 a5b0 8440 a99e 9440
00000040: 417b 3840 ebd2 4c40 805b fc3f 4238 7b40
00000050: 0542 ff3f bcfe 0a40 ff13 5540 52e6 3c40
00000060: 5606 0000 1b8b 2b40 8d4e cf3f a89e 8d40
00000070: c226 c23f ab6b 8e3f c119 613e 2da7 3a3e
00000080: 26db ab3f 9d23 003f 70e3 963f 3266 2d3f
00000090: 8e50 782d 2890 c02d 7400 0000 7400 0000
9.23776 9.386463 10.0 10.0 9.516078 8.672222 9.430181 8.882592
10.0 2.6138077 4.961757 2.2862282 6.3934193 5.8446894 4.146563 4.6443677
2.8825228 3.2003734 1.9715424 3.9253087 1.9942023 2.1717978 3.3293455 2.9515576
2.273e-42 2.6803653 1.6195847 4.425617 1.5168078 1.1126608 0.2198248 0.18227835
1.3426254 0.5005434 1.1788158 0.6773406 1.4115055e-11 2.1891891e-11 1.63e-43 1.63e-43

w f4 [1, 40, 1]
00000000: ddcd 1341 f42e 1641 0000 2041 0000 2041
00000010: db41 1841 6cc1 0a41 05e2 1641 191f 0e41
00000020: 0000 2041 a048 2740 b7c6 9e40 9051 1240
00000030: e496 cc40 b207 bb40 a5b0 8440 a99e 9440
00000040: 417b 3840 ebd2 4c40 805b fc3f 4238 7b40
00000050: 0542 ff3f bcfe 0a40 ff13 5540 52e6 3c40
00000060: 5606 0000 1b8b 2b40 8d4e cf3f a89e 8d40
00000070: c226 c23f ab6b 8e3f c119 613e 2da7 3a3e
00000080: 26db ab3f 9d23 003f 70e3 963f 3266 2d3f
00000090: 8e50 782d 2890 c02d 7400 0000 7400 0000
9.23776 9.386463 10.0 10.0 9.516078 8.672222 9.430181 8.882592
10.0 2.6138077 4.961757 2.2862282 6.3934193 5.8446894 4.146563 4.6443677
2.8825228 3.2003734 1.9715424 3.9253087 1.9942023 2.1717978 3.3293455 2.9515576
2.273e-42 2.6803653 1.6195847 4.425617 1.5168078 1.1126608 0.2198248 0.18227835
1.3426254 0.5005434 1.1788158 0.6773406 1.4115055e-11 2.1891891e-11 1.63e-43 1.63e-43

w f4 [1, 40, 1]
00000000: ddcd 1341 f42e 1641 0000 2041 0000 2041
00000010: db41 1841 6cc1 0a41 05e2 1641 191f 0e41
00000020: 0000 2041 a048 2740 b7c6 9e40 9051 1240
00000030: e496 cc40 b207 bb40 a5b0 8440 a99e 9440
00000040: 417b 3840 ebd2 4c40 805b fc3f 4238 7b40
00000050: 0542 ff3f bcfe 0a40 ff13 5540 52e6 3c40
00000060: 5606 0000 1b8b 2b40 8d4e cf3f a89e 8d40
00000070: c226 c23f ab6b 8e3f c119 613e 2da7 3a3e
00000080: 26db ab3f 9d23 003f 70e3 963f 3266 2d3f
00000090: 8e50 782d 2890 c02d 7400 0000 7400 0000
9.23776 9.386463 10.0 10.0 9.516078 8.672222 9.430181 8.882592
10.0 2.6138077 4.961757 2.2862282 6.3934193 5.8446894 4.146563 4.6443677
2.8825228 3.2003734 1.9715424 3.9253087 1.9942023 2.1717978 3.3293455 2.9515576
2.273e-42 2.6803653 1.6195847 4.425617 1.5168078 1.1126608 0.2198248 0.18227835
1.3426254 0.5005434 1.1788158 0.6773406 1.4115055e-11 2.1891891e-11 1.63e-43 1.63e-43

w f4 [1, 40, 1]
00000000: ddcd 1341 f42e 1641 0000 2041 0000 2041
00000010: db41 1841 6cc1 0a41 05e2 1641 191f 0e41
00000020: 0000 2041 a048 2740 b7c6 9e40 9051 1240
00000030: e496 cc40 b207 bb40 a5b0 8440 a99e 9440
00000040: 417b 3840 ebd2 4c40 805b fc3f 4238 7b40
00000050: 0542 ff3f bcfe 0a40 ff13 5540 52e6 3c40
00000060: 5606 0000 1b8b 2b40 8d4e cf3f a89e 8d40
00000070: c226 c23f ab6b 8e3f c119 613e 2da7 3a3e
00000080: 26db ab3f 9d23 003f 70e3 963f 3266 2d3f
00000090: 8e50 782d 2890 c02d 7400 0000 7400 0000
9.23776 9.386463 10.0 10.0 9.516078 8.672222 9.430181 8.882592
10.0 2.6138077 4.961757 2.2862282 6.3934193 5.8446894 4.146563 4.6443677
2.8825228 3.2003734 1.9715424 3.9253087 1.9942023 2.1717978 3.3293455 2.9515576
2.273e-42 2.6803653 1.6195847 4.425617 1.5168078 1.1126608 0.2198248 0.18227835
1.3426254 0.5005434 1.1788158 0.6773406 1.4115055e-11 2.1891891e-11 1.63e-43 1.63e-43

w f4 [1, 40, 1]
00000000: ddcd 1341 f42e 1641 0000 2041 0000 2041
00000010: db41 1841 6cc1 0a41 05e2 1641 191f 0e41
00000020: 0000 2041 a048 2740 b7c6 9e40 9051 1240
00000030: e496 cc40 b207 bb40 a5b0 8440 a99e 9440
00000040: 417b 3840 ebd2 4c40 805b fc3f 4238 7b40
00000050: 0542 ff3f bcfe 0a40 ff13 5540 52e6 3c40
00000060: 5606 0000 1b8b 2b40 8d4e cf3f a89e 8d40
00000070: c226 c23f ab6b 8e3f c119 613e 2da7 3a3e
00000080: 26db ab3f 9d23 003f 70e3 963f 3266 2d3f
00000090: 8e50 782d 2890 c02d 7400 0000 7400 0000
9.23776 9.386463 10.0 10.0 9.516078 8.672222 9.430181 8.882592
10.0 2.6138077 4.961757 2.2862282 6.3934193 5.8446894 4.146563 4.6443677
2.8825228 3.2003734 1.9715424 3.9253087 1.9942023 2.1717978 3.3293455 2.9515576
2.273e-42 2.6803653 1.6195847 4.425617 1.5168078 1.1126608 0.2198248 0.18227835
1.3426254 0.5005434 1.1788158 0.6773406 1.4115055e-11 2.1891891e-11 1.63e-43 1.63e-43

w f4 [1, 40, 1]
00000000: ddcd 1341 f42e 1641 0000 2041 0000 2041
00000010: db41 1841 6cc1 0a41 05e2 1641 191f 0e41
00000020: 0000 2041 a048 2740 b7c6 9e40 9051 1240
00000030: e496 cc40 b207 bb40 a5b0 8440 a99e 9440
00000040: 417b 3840 ebd2 4c40 805b fc3f 4238 7b40
00000050: 0542 ff3f bcfe 0a40 ff13 5540 52e6 3c40
00000060: 5606 0000 1b8b 2b40 8d4e cf3f a89e 8d40
00000070: c226 c23f ab6b 8e3f c119 613e 2da7 3a3e
00000080: 26db ab3f 9d23 003f 70e3 963f 3266 2d3f
00000090: 8e50 782d 2890 c02d 7400 0000 7400 0000
9.23776 9.386463 10.0 10.0 9.516078 8.672222 9.430181 8.882592
10.0 2.6138077 4.961757 2.2862282 6.3934193 5.8446894 4.146563 4.6443677
2.8825228 3.2003734 1.9715424 3.9253087 1.9942023 2.1717978 3.3293455 2.9515576
2.273e-42 2.6803653 1.6195847 4.425617 1.5168078 1.1126608 0.2198248 0.18227835
1.3426254 0.5005434 1.1788158 0.6773406 1.4115055e-11 2.1891891e-11 1.63e-43 1.63e-43

w f4 [1, 40, 1]
00000000: ddcd 1341 f42e 1641 0000 2041 0000 2041
00000010: db41 1841 6cc1 0a41 05e2 1641 191f 0e41
00000020: 0000 2041 a048 2740 b7c6 9e40 9051 1240
00000030: e496 cc40 b207 bb40 a5b0 8440 a99e 9440
00000040: 417b 3840 ebd2 4c40 805b fc3f 4238 7b40
00000050: 0542 ff3f bcfe 0a40 ff13 5540 52e6 3c40
00000060: 5606 0000 1b8b 2b40 8d4e cf3f a89e 8d40
00000070: c226 c23f ab6b 8e3f c119 613e 2da7 3a3e
00000080: 26db ab3f 9d23 003f 70e3 963f 3266 2d3f
00000090: 8e50 782d 2890 c02d 7400 0000 7400 0000
9.23776 9.386463 10.0 10.0 9.516078 8.672222 9.430181 8.882592
10.0 2.6138077 4.961757 2.2862282 6.3934193 5.8446894 4.146563 4.6443677
2.8825228 3.2003734 1.9715424 3.9253087 1.9942023 2.1717978 3.3293455 2.9515576
2.273e-42 2.6803653 1.6195847 4.425617 1.5168078 1.1126608 0.2198248 0.18227835
1.3426254 0.5005434 1.1788158 0.6773406 1.4115055e-11 2.1891891e-11 1.63e-43 1.63e-43

w f4 [1, 40, 1]
00000000: ddcd 1341 f42e 1641 0000 2041 0000 2041
00000010: db41 1841 6cc1 0a41 05e2 1641 191f 0e41
00000020: 0000 2041 a048 2740 b7c6 9e40 9051 1240
00000030: e496 cc40 b207 bb40 a5b0 8440 a99e 9440
00000040: 417b 3840 ebd2 4c40 805b fc3f 4238 7b40
00000050: 0542 ff3f bcfe 0a40 ff13 5540 52e6 3c40
00000060: 5606 0000 1b8b 2b40 8d4e cf3f a89e 8d40
00000070: c226 c23f ab6b 8e3f c119 613e 2da7 3a3e
00000080: 26db ab3f 9d23 003f 70e3 963f 3266 2d3f
00000090: 8e50 782d 2890 c02d 7400 0000 7400 0000
9.23776 9.386463 10.0 10.0 9.516078 8.672222 9.430181 8.882592
10.0 2.6138077 4.961757 2.2862282 6.3934193 5.8446894 4.146563 4.6443677
2.8825228 3.2003734 1.9715424 3.9253087 1.9942023 2.1717978 3.3293455 2.9515576
2.273e-42 2.6803653 1.6195847 4.425617 1.5168078 1.1126608 0.2198248 0.18227835
1.3426254 0.5005434 1.1788158 0.6773406 1.4115055e-11 2.1891891e-11 1.63e-43 1.63e-43

w f4 [1, 40, 1]
00000000: ddcd 1341 f42e 1641 0000 2041 0000 2041
00000010: db41 1841 6cc1 0a41 05e2 1641 191f 0e41
00000020: 0000 2041 a048 2740 b7c6 9e40 9051 1240
00000030: e496 cc40 b207 bb40 a5b0 8440 a99e 9440
00000040: 417b 3840 ebd2 4c40 805b fc3f 4238 7b40
00000050: 0542 ff3f bcfe 0a40 ff13 5540 52e6 3c40
00000060: 5606 0000 1b8b 2b40 8d4e cf3f a89e 8d40
00000070: c226 c23f ab6b 8e3f c119 613e 2da7 3a3e
00000080: 26db ab3f 9d23 003f 70e3 963f 3266 2d3f
00000090: 8e50 782d 2890 c02d 7400 0000 7400 0000
9.23776 9.386463 10.0 10.0 9.516078 8.672222 9.430181 8.882592
10.0 2.6138077 4.961757 2.2862282 6.3934193 5.8446894 4.146563 4.6443677
2.8825228 3.2003734 1.9715424 3.9253087 1.9942023 2.1717978 3.3293455 2.9515576
2.273e-42 2.6803653 1.6195847 4.425617 1.5168078 1.1126608 0.2198248 0.18227835
1.3426254 0.5005434 1.1788158 0.6773406 1.4115055e-11 2.1891891e-11 1.63e-43 1.63e-43

w f4 [1, 40, 1]
00000000: ddcd 1341 f42e 1641 0000 2041 0000 2041
00000010: db41 1841 6cc1 0a41 05e2 1641 191f 0e41
00000020: 0000 2041 a048 2740 b7c6 9e40 9051 1240
00000030: e496 cc40 b207 bb40 a5b0 8440 a99e 9440
00000040: 417b 3840 ebd2 4c40 805b fc3f 4238 7b40
00000050: 0542 ff3f bcfe 0a40 ff13 5540 52e6 3c40
00000060: 5606 0000 1b8b 2b40 8d4e cf3f a89e 8d40
00000070: c226 c23f ab6b 8e3f c119 613e 2da7 3a3e
00000080: 26db ab3f 9d23 003f 70e3 963f 3266 2d3f
00000090: 8e50 782d 2890 c02d 7400 0000 7400 0000
9.23776 9.386463 10.0 10.0 9.516078 8.672222 9.430181 8.882592
10.0 2.6138077 4.961757 2.2862282 6.3934193 5.8446894 4.146563 4.6443677
2.8825228 3.2003734 1.9715424 3.9253087 1.9942023 2.1717978 3.3293455 2.9515576
2.273e-42 2.6803653 1.6195847 4.425617 1.5168078 1.1126608 0.2198248 0.18227835
1.3426254 0.5005434 1.1788158 0.6773406 1.4115055e-11 2.1891891e-11 1.63e-43 1.63e-43

w f4 [1, 40, 1]
00000000: ddcd 1341 f42e 1641 0000 2041 0000 2041
00000010: db41 1841 6cc1 0a41 05e2 1641 191f 0e41
00000020: 0000 2041 a048 2740 b7c6 9e40 9051 1240
00000030: e496 cc40 b207 bb40 a5b0 8440 a99e 9440
00000040: 417b 3840 ebd2 4c40 805b fc3f 4238 7b40
00000050: 0542 ff3f bcfe 0a40 ff13 5540 52e6 3c40
00000060: 5606 0000 1b8b 2b40 8d4e cf3f a89e 8d40
00000070: c226 c23f ab6b 8e3f c119 613e 2da7 3a3e
00000080: 26db ab3f 9d23 003f 70e3 963f 3266 2d3f
00000090: 8e50 782d 2890 c02d 7400 0000 7400 0000
9.23776 9.386463 10.0 10.0 9.516078 8.672222 9.430181 8.882592
10.0 2.6138077 4.961757 2.2862282 6.3934193 5.8446894 4.146563 4.6443677
2.8825228 3.2003734 1.9715424 3.9253087 1.9942023 2.1717978 3.3293455 2.9515576
2.273e-42 2.6803653 1.6195847 4.425617 1.5168078 1.1126608 0.2198248 0.18227835
1.3426254 0.5005434 1.1788158 0.6773406 1.4115055e-11 2.1891891e-11 1.63e-43 1.63e-43

w f4 [1, 40, 1]
00000000: ddcd 1341 f42e 1641 0000 2041 0000 2041
00000010: db41 1841 6cc1 0a41 05e2 1641 191f 0e41
00000020: 0000 2041 a048 2740 b7c6 9e40 9051 1240
00000030: e496 cc40 b207 bb40 a5b0 8440 a99e 9440
00000040: 417b 3840 ebd2 4c40 805b fc3f 4238 7b40
00000050: 0542 ff3f bcfe 0a40 ff13 5540 52e6 3c40
00000060: 5606 0000 1b8b 2b40 8d4e cf3f a89e 8d40
00000070: c226 c23f ab6b 8e3f c119 613e 2da7 3a3e
00000080: 26db ab3f 9d23 003f 70e3 963f 3266 2d3f
00000090: 8e50 782d 2890 c02d 7400 0000 7400 0000
9.23776 9.386463 10.0 10.0 9.516078 8.672222 9.430181 8.882592
10.0 2.6138077 4.961757 2.2862282 6.3934193 5.8446894 4.146563 4.6443677
2.8825228 3.2003734 1.9715424 3.9253087 1.9942023 2.1717978 3.3293455 2.9515576
2.273e-42 2.6803653 1.6195847 4.425617 1.5168078 1.1126608 0.2198248 0.18227835
1.3426254 0.5005434 1.1788158 0.6773406 1.4115055e-11 2.1891891e-11 1.63e-43 1.63e-43

w f4 [1, 40, 1]
00000000: ddcd 1341 f42e 1641 0000 2041 0000 2041
00000010: db41 1841 6cc1 0a41 05e2 1641 191f 0e41
00000020: 0000 2041 a048 2740 b7c6 9e40 9051 1240
00000030: e496 cc40 b207 bb40 a5b0 8440 a99e 9440
00000040: 417b 3840 ebd2 4c40 805b fc3f 4238 7b40
00000050: 0542 ff3f bcfe 0a40 ff13 5540 52e6 3c40
00000060: 5606 0000 1b8b 2b40 8d4e cf3f a89e 8d40
00000070: c226 c23f ab6b 8e3f c119 613e 2da7 3a3e
00000080: 26db ab3f 9d23 003f 70e3 963f 3266 2d3f
00000090: 8e50 782d 2890 c02d 7400 0000 7400 0000
9.23776 9.386463 10.0 10.0 9.516078 8.672222 9.430181 8.882592
10.0 2.6138077 4.961757 2.2862282 6.3934193 5.8446894 4.146563 4.6443677
2.8825228 3.2003734 1.9715424 3.9253087 1.9942023 2.1717978 3.3293455 2.9515576
2.273e-42 2.6803653 1.6195847 4.425617 1.5168078 1.1126608 0.2198248 0.18227835
1.3426254 0.5005434 1.1788158 0.6773406 1.4115055e-11 2.1891891e-11 1.63e-43 1.63e-43

w f4 [1, 40, 1]
00000000: ddcd 1341 f42e 1641 0000 2041 0000 2041
00000010: db41 1841 6cc1 0a41 05e2 1641 191f 0e41
00000020: 0000 2041 a048 2740 b7c6 9e40 9051 1240
00000030: e496 cc40 b207 bb40 a5b0 8440 a99e 9440
00000040: 417b 3840 ebd2 4c40 805b fc3f 4238 7b40
00000050: 0542 ff3f bcfe 0a40 ff13 5540 52e6 3c40
00000060: 5606 0000 1b8b 2b40 8d4e cf3f a89e 8d40
00000070: c226 c23f ab6b 8e3f c119 613e 2da7 3a3e
00000080: 26db ab3f 9d23 003f 70e3 963f 3266 2d3f
00000090: 8e50 782d 2890 c02d 7400 0000 7400 0000
9.23776 9.386463 10.0 10.0 9.516078 8.672222 9.430181 8.882592
10.0 2.6138077 4.961757 2.2862282 6.3934193 5.8446894 4.146563 4.6443677
2.8825228 3.2003734 1.9715424 3.9253087 1.9942023 2.1717978 3.3293455 2.9515576
2.273e-42 2.6803653 1.6195847 4.425617 1.5168078 1.1126608 0.2198248 0.18227835
1.3426254 0.5005434 1.1788158 0.6773406 1.4115055e-11 2.1891891e-11 1.63e-43 1.63e-43

w f4 [1, 40, 1]
00000000: ddcd 1341 f42e 1641 0000 2041 0000 2041
00000010: db41 1841 6cc1 0a41 05e2 1641 191f 0e41
00000020: 0000 2041 a048 2740 b7c6 9e40 9051 1240
00000030: e496 cc40 b207 bb40 a5b0 8440 a99e 9440
00000040: 417b 3840 ebd2 4c40 805b fc3f 4238 7b40
00000050: 0542 ff3f bcfe 0a40 ff13 5540 52e6 3c40
00000060: 5606 0000 1b8b 2b40 8d4e cf3f a89e 8d40
00000070: c226 c23f ab6b 8e3f c119 613e 2da7 3a3e
00000080: 26db ab3f 9d23 003f 70e3 963f 3266 2d3f
00000090: 8e50 782d 2890 c02d 7400 0000 7400 0000
9.23776 9.386463 10.0 10.0 9.516078 8.672222 9.430181 8.882592
10.0 2.6138077 4.961757 2.2862282 6.3934193 5.8446894 4.146563 4.6443677
2.8825228 3.2003734 1.9715424 3.9253087 1.9942023 2.1717978 3.3293455 2.9515576
2.273e-42 2.6803653 1.6195847 4.425617 1.5168078 1.1126608 0.2198248 0.18227835
1.3426254 0.5005434 1.1788158 0.6773406 1.4115055e-11 2.1891891e-11 1.63e-43 1.63e-43

w f4 [1, 40, 1]
00000000: ddcd 1341 f42e 1641 0000 2041 0000 2041
00000010: db41 1841 6cc1 0a41 05e2 1641 191f 0e41
00000020: 0000 2041 a048 2740 b7c6 9e40 9051 1240
00000030: e496 cc40 b207 bb40 a5b0 8440 a99e 9440
00000040: 417b 3840 ebd2 4c40 805b fc3f 4238 7b40
00000050: 0542 ff3f bcfe 0a40 ff13 5540 52e6 3c40
00000060: 5606 0000 1b8b 2b40 8d4e cf3f a89e 8d40
00000070: c226 c23f ab6b 8e3f c119 613e 2da7 3a3e
00000080: 26db ab3f 9d23 003f 70e3 963f 3266 2d3f
00000090: 8e50 782d 2890 c02d 7400 0000 7400 0000
9.23776 9.386463 10.0 10.0 9.516078 8.672222 9.430181 8.882592
10.0 2.6138077 4.961757 2.2862282 6.3934193 5.8446894 4.146563 4.6443677
2.8825228 3.2003734 1.9715424 3.9253087 1.9942023 2.1717978 3.3293455 2.9515576
2.273e-42 2.6803653 1.6195847 4.425617 1.5168078 1.1126608 0.2198248 0.18227835
1.3426254 0.5005434 1.1788158 0.6773406 1.4115055e-11 2.1891891e-11 1.63e-43 1.63e-43

w f4 [1, 40, 1]
00000000: ddcd 1341 f42e 1641 0000 2041 0000 2041
00000010: db41 1841 6cc1 0a41 05e2 1641 191f 0e41
00000020: 0000 2041 a048 2740 b7c6 9e40 9051 1240
00000030: e496 cc40 b207 bb40 a5b0 8440 a99e 9440
00000040: 417b 3840 ebd2 4c40 805b fc3f 4238 7b40
00000050: 0542 ff3f bcfe 0a40 ff13 5540 52e6 3c40
00000060: 5606 0000 1b8b 2b40 8d4e cf3f a89e 8d40
00000070: c226 c23f ab6b 8e3f c119 613e 2da7 3a3e
00000080: 26db ab3f 9d23 003f 70e3 963f 3266 2d3f
00000090: 8e50 782d 2890 c02d 7400 0000 7400 0000
9.23776 9.386463 10.0 10.0 9.516078 8.672222 9.430181 8.882592
10.0 2.6138077 4.961757 2.2862282 6.3934193 5.8446894 4.146563 4.6443677
2.8825228 3.2003734 1.9715424 3.9253087 1.9942023 2.1717978 3.3293455 2.9515576
2.273e-42 2.6803653 1.6195847 4.425617 1.5168078 1.1126608 0.2198248 0.18227835
1.3426254 0.5005434 1.1788158 0.6773406 1.4115055e-11 2.1891891e-11 1.63e-43 1.63e-43

w f4 [1, 40, 1]
00000000: ddcd 1341 f42e 1641 0000 2041 0000 2041
00000010: db41 1841 6cc1 0a41 05e2 1641 191f 0e41
00000020: 0000 2041 a048 2740 b7c6 9e40 9051 1240
00000030: e496 cc40 b207 bb40 a5b0 8440 a99e 9440
00000040: 417b 3840 ebd2 4c40 805b fc3f 4238 7b40
00000050: 0542 ff3f bcfe 0a40 ff13 5540 52e6 3c40
00000060: 5606 0000 1b8b 2b40 8d4e cf3f a89e 8d40
00000070: c226 c23f ab6b 8e3f c119 613e 2da7 3a3e
00000080: 26db ab3f 9d23 003f 70e3 963f 3266 2d3f
00000090: 8e50 782d 2890 c02d 7400 0000 7400 0000
9.23776 9.386463 10.0 10.0 9.516078 8.672222 9.430181 8.882592
10.0 2.6138077 4.961757 2.2862282 6.3934193 5.8446894 4.146563 4.6443677
2.8825228 3.2003734 1.9715424 3.9253087 1.9942023 2.1717978 3.3293455 2.9515576
2.273e-42 2.6803653 1.6195847 4.425617 1.5168078 1.1126608 0.2198248 0.18227835
1.3426254 0.5005434 1.1788158 0.6773406 1.4115055e-11 2.1891891e-11 1.63e-43 1.63e-43

w f4 [1, 40, 1]
00000000: ddcd 1341 f42e 1641 0000 2041 0000 2041
00000010: db41 1841 6cc1 0a41 05e2 1641 191f 0e41
00000020: 0000 2041 a048 2740 b7c6 9e40 9051 1240
00000030: e496 cc40 b207 bb40 a5b0 8440 a99e 9440
00000040: 417b 3840 ebd2 4c40 805b fc3f 4238 7b40
00000050: 0542 ff3f bcfe 0a40 ff13 5540 52e6 3c40
00000060: 5606 0000 1b8b 2b40 8d4e cf3f a89e 8d40
00000070: c226 c23f ab6b 8e3f c119 613e 2da7 3a3e
00000080: 26db ab3f 9d23 003f 70e3 963f 3266 2d3f
00000090: 8e50 782d 2890 c02d 7400 0000 7400 0000
9.23776 9.386463 10.0 10.0 9.516078 8.672222 9.430181 8.882592
10.0 2.6138077 4.961757 2.2862282 6.3934193 5.8446894 4.146563 4.6443677
2.8825228 3.2003734 1.9715424 3.9253087 1.9942023 2.1717978 3.3293455 2.9515576
2.273e-42 2.6803653 1.6195847 4.425617 1.5168078 1.1126608 0.2198248 0.18227835
1.3426254 0.5005434 1.1788158 0.6773406 1.4115055e-11 2.1891891e-11 1.63e-43 1.63e-43

w f4 [1, 40, 1]
00000000: ddcd 1341 f42e 1641 0000 2041 0000 2041
00000010: db41 1841 6cc1 0a41 05e2 1641 191f 0e41
00000020: 0000 2041 a048 2740 b7c6 9e40 9051 1240
00000030: e496 cc40 b207 bb40 a5b0 8440 a99e 9440
00000040: 417b 3840 ebd2 4c40 805b fc3f 4238 7b40
00000050: 0542 ff3f bcfe 0a40 ff13 5540 52e6 3c40
00000060: 5606 0000 1b8b 2b40 8d4e cf3f a89e 8d40
00000070: c226 c23f ab6b 8e3f c119 613e 2da7 3a3e
00000080: 26db ab3f 9d23 003f 70e3 963f 3266 2d3f
00000090: 8e50 782d 2890 c02d 7400 0000 7400 0000
9.23776 9.386463 10.0 10.0 9.516078 8.672222 9.430181 8.882592
10.0 2.6138077 4.961757 2.2862282 6.3934193 5.8446894 4.146563 4.6443677
2.8825228 3.2003734 1.9715424 3.9253087 1.9942023 2.1717978 3.3293455 2.9515576
2.273e-42 2.6803653 1.6195847 4.425617 1.5168078 1.1126608 0.2198248 0.18227835
1.3426254 0.5005434 1.1788158 0.6773406 1.4115055e-11 2.1891891e-11 1.63e-43 1.63e-43

w f4 [1, 40, 1]
00000000: ddcd 1341 f42e 1641 0000 2041 0000 2041
00000010: db41 1841 6cc1 0a41 05e2 1641 191f 0e41
00000020: 0000 2041 a048 2740 b7c6 9e40 9051 1240
00000030: e496 cc40 b207 bb40 a5b0 8440 a99e 9440
00000040: 417b 3840 ebd2 4c40 805b fc3f 4238 7b40
00000050: 0542 ff3f bcfe 0a40 ff13 5540 52e6 3c40
00000060: 5606 0000 1b8b 2b40 8d4e cf3f a89e 8d40
00000070: c226 c23f ab6b 8e3f c119 613e 2da7 3a3e
00000080: 26db ab3f 9d23 003f 70e3 963f 3266 2d3f
00000090: 8e50 782d 2890 c02d 7400 0000 7400 0000
9.23776 9.386463 10.0 10.0 9.516078 8.672222 9.430181 8.882592
10.0 2.6138077 4.961757 2.2862282 6.3934193 5.8446894 4.146563 4.6443677
2.8825228 3.2003734 1.9715424 3.9253087 1.9942023 2.1717978 3.3293455 2.9515576
2.273e-42 2.6803653 1.6195847 4.425617 1.5168078 1.1126608 0.2198248 0.18227835
1.3426254 0.5005434 1.1788158 0.6773406 1.4115055e-11 2.1891891e-11 1.63e-43 1.63e-43

w f4 [1, 40, 1]
00000000: ddcd 1341 f42e 1641 0000 2041 0000 2041
00000010: db41 1841 6cc1 0a41 05e2 1641 191f 0e41
00000020: 0000 2041 a048 2740 b7c6 9e40 9051 1240
00000030: e496 cc40 b207 bb40 a5b0 8440 a99e 9440
00000040: 417b 3840 ebd2 4c40 805b fc3f 4238 7b40
00000050: 0542 ff3f bcfe 0a40 ff13 5540 52e6 3c40
00000060: 5606 0000 1b8b 2b40 8d4e cf3f a89e 8d40
00000070: c226 c23f ab6b 8e3f c119 613e 2da7 3a3e
00000080: 26db ab3f 9d23 003f 70e3 963f 3266 2d3f
00000090: 8e50 782d 2890 c02d 7400 0000 7400 0000
9.23776 9.386463 10.0 10.0 9.516078 8.672222 9.430181 8.882592
10.0 2.6138077 4.961757 2.2862282 6.3934193 5.8446894 4.146563 4.6443677
2.8825228 3.2003734 1.9715424 3.9253087 1.9942023 2.1717978 3.3293455 2.9515576
2.273e-42 2.6803653 1.6195847 4.425617 1.5168078 1.1126608 0.2198248 0.18227835
1.3426254 0.5005434 1.1788158 0.6773406 1.4115055e-11 2.1891891e-11 1.63e-43 1.63e-43

w f4 [1, 40, 1]
00000000: ddcd 1341 f42e 1641 0000 2041 0000 2041
00000010: db41 1841 6cc1 0a41 05e2 1641 191f 0e41
00000020: 0000 2041 a048 2740 b7c6 9e40 9051 1240
00000030: e496 cc40 b207 bb40 a5b0 8440 a99e 9440
00000040: 417b 3840 ebd2 4c40 805b fc3f 4238 7b40
00000050: 0542 ff3f bcfe 0a40 ff13 5540 52e6 3c40
00000060: 5606 0000 1b8b 2b40 8d4e cf3f a89e 8d40
00000070: c226 c23f ab6b 8e3f c119 613e 2da7 3a3e
00000080: 26db ab3f 9d23 003f 70e3 963f 3266 2d3f
00000090: 8e50 782d 2890 c02d 7400 0000 7400 0000
9.23776 9.386463 10.0 10.0 9.516078 8.672222 9.430181 8.882592
10.0 2.6138077 4.961757 2.2862282 6.3934193 5.8446894 4.146563 4.6443677
2.8825228 3.2003734 1.9715424 3.9253087 1.9942023 2.1717978 3.3293455 2.9515576
2.273e-42 2.6803653 1.6195847 4.425617 1.5168078 1.1126608 0.2198248 0.18227835
1.3426254 0.5005434 1.1788158 0.6773406 1.4115055e-11 2.1891891e-11 1.63e-43 1.63e-43

w f4 [1, 40, 1]
00000000: ddcd 1341 f42e 1641 0000 2041 0000 2041
00000010: db41 1841 6cc1 0a41 05e2 1641 191f 0e41
00000020: 0000 2041 a048 2740 b7c6 9e40 9051 1240
00000030: e496 cc40 b207 bb40 a5b0 8440 a99e 9440
00000040: 417b 3840 ebd2 4c40 805b fc3f 4238 7b40
00000050: 0542 ff3f bcfe 0a40 ff13 5540 52e6 3c40
00000060: 5606 0000 1b8b 2b40 8d4e cf3f a89e 8d40
00000070: c226 c23f ab6b 8e3f c119 613e 2da7 3a3e
00000080: 26db ab3f 9d23 003f 70e3 963f 3266 2d3f
00000090: 8e50 782d 2890 c02d 7400 0000 7400 0000
9.23776 9.386463 10.0 10.0 9.516078 8.672222 9.430181 8.882592
10.0 2.6138077 4.961757 2.2862282 6.3934193 5.8446894 4.146563 4.6443677
2.8825228 3.2003734 1.9715424 3.9253087 1.9942023 2.1717978 3.3293455 2.9515576
2.273e-42 2.6803653 1.6195847 4.425617 1.5168078 1.1126608 0.2198248 0.18227835
1.3426254 0.5005434 1.1788158 0.6773406 1.4115055e-11 2.1891891e-11 1.63e-43 1.63e-43

w f4 [1, 40, 1]
00000000: ddcd 1341 f42e 1641 0000 2041 0000 2041
00000010: db41 1841 6cc1 0a41 05e2 1641 191f 0e41
00000020: 0000 2041 a048 2740 b7c6 9e40 9051 1240
00000030: e496 cc40 b207 bb40 a5b0 8440 a99e 9440
00000040: 417b 3840 ebd2 4c40 805b fc3f 4238 7b40
00000050: 0542 ff3f bcfe 0a40 ff13 5540 52e6 3c40
00000060: 5606 0000 1b8b 2b40 8d4e cf3f a89e 8d40
00000070: c226 c23f ab6b 8e3f c119 613e 2da7 3a3e
00000080: 26db ab3f 9d23 003f 70e3 963f 3266 2d3f
00000090: 8e50 782d 2890 c02d 7400 0000 7400 0000
9.23776 9.386463 10.0 10.0 9.516078 8.672222 9.430181 8.882592
10.0 2.6138077 4.961757 2.2862282 6.3934193 5.8446894 4.146563 4.6443677
2.8825228 3.2003734 1.9715424 3.9253087 1.9942023 2.1717978 3.3293455 2.9515576
2.273e-42 2.6803653 1.6195847 4.425617 1.5168078 1.1126608 0.2198248 0.18227835
1.3426254 0.5005434 1.1788158 0.6773406 1.4115055e-11 2.1891891e-11 1.63e-43 1.63e-43

w f4 [1, 40, 1]
00000000: ddcd 1341 f42e 1641 0000 2041 0000 2041
00000010: db41 1841 6cc1 0a41 05e2 1641 191f 0e41
00000020: 0000 2041 a048 2740 b7c6 9e40 9051 1240
00000030: e496 cc40 b207 bb40 a5b0 8440 a99e 9440
00000040: 417b 3840 ebd2 4c40 805b fc3f 4238 7b40
00000050: 0542 ff3f bcfe 0a40 ff13 5540 52e6 3c40
00000060: 5606 0000 1b8b 2b40 8d4e cf3f a89e 8d40
00000070: c226 c23f ab6b 8e3f c119 613e 2da7 3a3e
00000080: 26db ab3f 9d23 003f 70e3 963f 3266 2d3f
00000090: 8e50 782d 2890 c02d 7400 0000 7400 0000
9.23776 9.386463 10.0 10.0 9.516078 8.672222 9.430181 8.882592
10.0 2.6138077 4.961757 2.2862282 6.3934193 5.8446894 4.146563 4.6443677
2.8825228 3.2003734 1.9715424 3.9253087 1.9942023 2.1717978 3.3293455 2.9515576
2.273e-42 2.6803653 1.6195847 4.425617 1.5168078 1.1126608 0.2198248 0.18227835
1.3426254 0.5005434 1.1788158 0.6773406 1.4115055e-11 2.1891891e-11 1.63e-43 1.63e-43

w f4 [1, 40, 1]
00000000: ddcd 1341 f42e 1641 0000 2041 0000 2041
00000010: db41 1841 6cc1 0a41 05e2 1641 191f 0e41
00000020: 0000 2041 a048 2740 b7c6 9e40 9051 1240
00000030: e496 cc40 b207 bb40 a5b0 8440 a99e 9440
00000040: 417b 3840 ebd2 4c40 805b fc3f 4238 7b40
00000050: 0542 ff3f bcfe 0a40 ff13 5540 52e6 3c40
00000060: 5606 0000 1b8b 2b40 8d4e cf3f a89e 8d40
00000070: c226 c23f ab6b 8e3f c119 613e 2da7 3a3e
00000080: 26db ab3f 9d23 003f 70e3 963f 3266 2d3f
00000090: 8e50 782d 2890 c02d 7400 0000 7400 0000
9.23776 9.386463 10.0 10.0 9.516078 8.672222 9.430181 8.882592
10.0 2.6138077 4.961757 2.2862282 6.3934193 5.8446894 4.146563 4.6443677
2.8825228 3.2003734 1.9715424 3.9253087 1.9942023 2.1717978 3.3293455 2.9515576
2.273e-42 2.6803653 1.6195847 4.425617 1.5168078 1.1126608 0.2198248 0.18227835
1.3426254 0.5005434 1.1788158 0.6773406 1.4115055e-11 2.1891891e-11 1.63e-43 1.63e-43

w f4 [1, 40, 1]
00000000: ddcd 1341 f42e 1641 0000 2041 0000 2041
00000010: db41 1841 6cc1 0a41 05e2 1641 191f 0e41
00000020: 0000 2041 a048 2740 b7c6 9e40 9051 1240
00000030: e496 cc40 b207 bb40 a5b0 8440 a99e 9440
00000040: 417b 3840 ebd2 4c40 805b fc3f 4238 7b40
00000050: 0542 ff3f bcfe 0a40 ff13 5540 52e6 3c40
00000060: 5606 0000 1b8b 2b40 8d4e cf3f a89e 8d40
00000070: c226 c23f ab6b 8e3f c119 613e 2da7 3a3e
00000080: 26db ab3f 9d23 003f 70e3 963f 3266 2d3f
00000090: 8e50 782d 2890 c02d 7400 0000 7400 0000
9.23776 9.386463 10.0 10.0 9.516078 8.672222 9.430181 8.882592
10.0 2.6138077 4.961757 2.2862282 6.3934193 5.8446894 4.146563 4.6443677
2.8825228 3.2003734 1.9715424 3.9253087 1.9942023 2.1717978 3.3293455 2.9515576
2.273e-42 2.6803653 1.6195847 4.425617 1.5168078 1.1126608 0.2198248 0.18227835
1.3426254 0.5005434 1.1788158 0.6773406 1.4115055e-11 2.1891891e-11 1.63e-43 1.63e-43

w f4 [1, 40, 1]
00000000: ddcd 1341 f42e 1641 0000 2041 0000 2041
00000010: db41 1841 6cc1 0a41 05e2 1641 191f 0e41
00000020: 0000 2041 a048 2740 b7c6 9e40 9051 1240
00000030: e496 cc40 b207 bb40 a5b0 8440 a99e 9440
00000040: 417b 3840 ebd2 4c40 805b fc3f 4238 7b40
00000050: 0542 ff3f bcfe 0a40 ff13 5540 52e6 3c40
00000060: 5606 0000 1b8b 2b40 8d4e cf3f a89e 8d40
00000070: c226 c23f ab6b 8e3f c119 613e 2da7 3a3e
00000080: 26db ab3f 9d23 003f 70e3 963f 3266 2d3f
00000090: 8e50 782d 2890 c02d 7400 0000 7400 0000
9.23776 9.386463 10.0 10.0 9.516078 8.672222 9.430181 8.882592
10.0 2.6138077 4.961757 2.2862282 6.3934193 5.8446894 4.146563 4.6443677
2.8825228 3.2003734 1.9715424 3.9253087 1.9942023 2.1717978 3.3293455 2.9515576
2.273e-42 2.6803653 1.6195847 4.425617 1.5168078 1.1126608 0.2198248 0.18227835
1.3426254 0.5005434 1.1788158 0.6773406 1.4115055e-11 2.1891891e-11 1.63e-43 1.63e-43

w f4 [1, 40, 1]
00000000: ddcd 1341 f42e 1641 0000 2041 0000 2041
00000010: db41 1841 6cc1 0a41 05e2 1641 191f 0e41
00000020: 0000 2041 a048 2740 b7c6 9e40 9051 1240
00000030: e496 cc40 b207 bb40 a5b0 8440 a99e 9440
00000040: 417b 3840 ebd2 4c40 805b fc3f 4238 7b40
00000050: 0542 ff3f bcfe 0a40 ff13 5540 52e6 3c40
00000060: 5606 0000 1b8b 2b40 8d4e cf3f a89e 8d40
00000070: c226 c23f ab6b 8e3f c119 613e 2da7 3a3e
00000080: 26db ab3f 9d23 003f 70e3 963f 3266 2d3f
00000090: 8e50 782d 2890 c02d 7400 0000 7400 0000
9.23776 9.386463 10.0 10.0 9.516078 8.672222 9.430181 8.882592
10.0 2.6138077 4.961757 2.2862282 6.3934193 5.8446894 4.146563 4.6443677
2.8825228 3.2003734 1.9715424 3.9253087 1.9942023 2.1717978 3.3293455 2.9515576
2.273e-42 2.6803653 1.6195847 4.425617 1.5168078 1.1126608 0.2198248 0.18227835
1.3426254 0.5005434 1.1788158 0.6773406 1.4115055e-11 2.1891891e-11 1.63e-43 1.63e-43

w f4 [1, 40, 1]
00000000: ddcd 1341 f42e 1641 0000 2041 0000 2041
00000010: db41 1841 6cc1 0a41 05e2 1641 191f 0e41
00000020: 0000 2041 a048 2740 b7c6 9e40 9051 1240
00000030: e496 cc40 b207 bb40 a5b0 8440 a99e 9440
00000040: 417b 3840 ebd2 4c40 805b fc3f 4238 7b40
00000050: 0542 ff3f bcfe 0a40 ff13 5540 52e6 3c40
00000060: 5606 0000 1b8b 2b40 8d4e cf3f a89e 8d40
00000070: c226 c23f ab6b 8e3f c119 613e 2da7 3a3e
00000080: 26db ab3f 9d23 003f 70e3 963f 3266 2d3f
00000090: 8e50 782d 2890 c02d 7400 0000 7400 0000
9.23776 9.386463 10.0 10.0 9.516078 8.672222 9.430181 8.882592
10.0 2.6138077 4.961757 2.2862282 6.3934193 5.8446894 4.146563 4.6443677
2.8825228 3.2003734 1.9715424 3.9253087 1.9942023 2.1717978 3.3293455 2.9515576
2.273e-42 2.6803653 1.6195847 4.425617 1.5168078 1.1126608 0.2198248 0.18227835
1.3426254 0.5005434 1.1788158 0.6773406 1.4115055e-11 2.1891891e-11 1.63e-43 1.63e-43

w f4 [1, 40, 1]
00000000: ddcd 1341 f42e 1641 0000 2041 0000 2041
00000010: db41 1841 6cc1 0a41 05e2 1641 191f 0e41
00000020: 0000 2041 a048 2740 b7c6 9e40 9051 1240
00000030: e496 cc40 b207 bb40 a5b0 8440 a99e 9440
00000040: 417b 3840 ebd2 4c40 805b fc3f 4238 7b40
00000050: 0542 ff3f bcfe 0a40 ff13 5540 52e6 3c40
00000060: 5606 0000 1b8b 2b40 8d4e cf3f a89e 8d40
00000070: c226 c23f ab6b 8e3f c119 613e 2da7 3a3e
00000080: 26db ab3f 9d23 003f 70e3 963f 3266 2d3f
00000090: 8e50 782d 2890 c02d 7400 0000 7400 0000
9.23776 9.386463 10.0 10.0 9.516078 8.672222 9.430181 8.882592
10.0 2.6138077 4.961757 2.2862282 6.3934193 5.8446894 4.146563 4.6443677
2.8825228 3.2003734 1.9715424 3.9253087 1.9942023 2.1717978 3.3293455 2.9515576
2.273e-42 2.6803653 1.6195847 4.425617 1.5168078 1.1126608 0.2198248 0.18227835
1.3426254 0.5005434 1.1788158 0.6773406 1.4115055e-11 2.1891891e-11 1.63e-43 1.63e-43

w f4 [1, 40, 1]
00000000: ddcd 1341 f42e 1641 0000 2041 0000 2041
00000010: db41 1841 6cc1 0a41 05e2 1641 191f 0e41
00000020: 0000 2041 a048 2740 b7c6 9e40 9051 1240
00000030: e496 cc40 b207 bb40 a5b0 8440 a99e 9440
00000040: 417b 3840 ebd2 4c40 805b fc3f 4238 7b40
00000050: 0542 ff3f bcfe 0a40 ff13 5540 52e6 3c40
00000060: 5606 0000 1b8b 2b40 8d4e cf3f a89e 8d40
00000070: c226 c23f ab6b 8e3f c119 613e 2da7 3a3e
00000080: 26db ab3f 9d23 003f 70e3 963f 3266 2d3f
00000090: 8e50 782d 2890 c02d 7400 0000 7400 0000
9.23776 9.386463 10.0 10.0 9.516078 8.672222 9.430181 8.882592
10.0 2.6138077 4.961757 2.2862282 6.3934193 5.8446894 4.146563 4.6443677
2.8825228 3.2003734 1.9715424 3.9253087 1.9942023 2.1717978 3.3293455 2.9515576
2.273e-42 2.6803653 1.6195847 4.425617 1.5168078 1.1126608 0.2198248 0.18227835
1.3426254 0.5005434 1.1788158 0.6773406 1.4115055e-11 2.1891891e-11 1.63e-43 1.63e-43

w f4 [1, 40, 1]
00000000: ddcd 1341 f42e 1641 0000 2041 0000 2041
00000010: db41 1841 6cc1 0a41 05e2 1641 191f 0e41
00000020: 0000 2041 a048 2740 b7c6 9e40 9051 1240
00000030: e496 cc40 b207 bb40 a5b0 8440 a99e 9440
00000040: 417b 3840 ebd2 4c40 805b fc3f 4238 7b40
00000050: 0542 ff3f bcfe 0a40 ff13 5540 52e6 3c40
00000060: 5606 0000 1b8b 2b40 8d4e cf3f a89e 8d40
00000070: c226 c23f ab6b 8e3f c119 613e 2da7 3a3e
00000080: 26db ab3f 9d23 003f 70e3 963f 3266 2d3f
00000090: 8e50 782d 2890 c02d 7400 0000 7400 0000
9.23776 9.386463 10.0 10.0 9.516078 8.672222 9.430181 8.882592
10.0 2.6138077 4.961757 2.2862282 6.3934193 5.8446894 4.146563 4.6443677
2.8825228 3.2003734 1.9715424 3.9253087 1.9942023 2.1717978 3.3293455 2.9515576
2.273e-42 2.6803653 1.6195847 4.425617 1.5168078 1.1126608 0.2198248 0.18227835
1.3426254 0.5005434 1.1788158 0.6773406 1.4115055e-11 2.1891891e-11 1.63e-43 1.63e-43

w f4 [1, 40, 1]
00000000: ddcd 1341 f42e 1641 0000 2041 0000 2041
00000010: db41 1841 6cc1 0a41 05e2 1641 191f 0e41
00000020: 0000 2041 a048 2740 b7c6 9e40 9051 1240
00000030: e496 cc40 b207 bb40 a5b0 8440 a99e 9440
00000040: 417b 3840 ebd2 4c40 805b fc3f 4238 7b40
00000050: 0542 ff3f bcfe 0a40 ff13 5540 52e6 3c40
00000060: 5606 0000 1b8b 2b40 8d4e cf3f a89e 8d40
00000070: c226 c23f ab6b 8e3f c119 613e 2da7 3a3e
00000080: 26db ab3f 9d23 003f 70e3 963f 3266 2d3f
00000090: 8e50 782d 2890 c02d 7400 0000 7400 0000
9.23776 9.386463 10.0 10.0 9.516078 8.672222 9.430181 8.882592
10.0 2.6138077 4.961757 2.2862282 6.3934193 5.8446894 4.146563 4.6443677
2.8825228 3.2003734 1.9715424 3.9253087 1.9942023 2.1717978 3.3293455 2.9515576
2.273e-42 2.6803653 1.6195847 4.425617 1.5168078 1.1126608 0.2198248 0.18227835
1.3426254 0.5005434 1.1788158 0.6773406 1.4115055e-11 2.1891891e-11 1.63e-43 1.63e-43

w f4 [1, 40, 1]
00000000: ddcd 1341 f42e 1641 0000 2041 0000 2041
00000010: db41 1841 6cc1 0a41 05e2 1641 191f 0e41
00000020: 0000 2041 a048 2740 b7c6 9e40 9051 1240
00000030: e496 cc40 b207 bb40 a5b0 8440 a99e 9440
00000040: 417b 3840 ebd2 4c40 805b fc3f 4238 7b40
00000050: 0542 ff3f bcfe 0a40 ff13 5540 52e6 3c40
00000060: 5606 0000 1b8b 2b40 8d4e cf3f a89e 8d40
00000070: c226 c23f ab6b 8e3f c119 613e 2da7 3a3e
00000080: 26db ab3f 9d23 003f 70e3 963f 3266 2d3f
00000090: 8e50 782d 2890 c02d 7400 0000 7400 0000
9.23776 9.386463 10.0 10.0 9.516078 8.672222 9.430181 8.882592
10.0 2.6138077 4.961757 2.2862282 6.3934193 5.8446894 4.146563 4.6443677
2.8825228 3.2003734 1.9715424 3.9253087 1.9942023 2.1717978 3.3293455 2.9515576
2.273e-42 2.6803653 1.6195847 4.425617 1.5168078 1.1126608 0.2198248 0.18227835
1.3426254 0.5005434 1.1788158 0.6773406 1.4115055e-11 2.1891891e-11 1.63e-43 1.63e-43

w f4 [1, 40, 1]
00000000: ddcd 1341 f42e 1641 0000 2041 0000 2041
00000010: db41 1841 6cc1 0a41 05e2 1641 191f 0e41
00000020: 0000 2041 a048 2740 b7c6 9e40 9051 1240
00000030: e496 cc40 b207 bb40 a5b0 8440 a99e 9440
00000040: 417b 3840 ebd2 4c40 805b fc3f 4238 7b40
00000050: 0542 ff3f bcfe 0a40 ff13 5540 52e6 3c40
00000060: 5606 0000 1b8b 2b40 8d4e cf3f a89e 8d40
00000070: c226 c23f ab6b 8e3f c119 613e 2da7 3a3e
00000080: 26db ab3f 9d23 003f 70e3 963f 3266 2d3f
00000090: 8e50 782d 2890 c02d 7400 0000 7400 0000
9.23776 9.386463 10.0 10.0 9.516078 8.672222 9.430181 8.882592
10.0 2.6138077 4.961757 2.2862282 6.3934193 5.8446894 4.146563 4.6443677
2.8825228 3.2003734 1.9715424 3.9253087 1.9942023 2.1717978 3.3293455 2.9515576
2.273e-42 2.6803653 1.6195847 4.425617 1.5168078 1.1126608 0.2198248 0.18227835
1.3426254 0.5005434 1.1788158 0.6773406 1.4115055e-11 2.1891891e-11 1.63e-43 1.63e-43

w f4 [1, 40, 1]
00000000: ddcd 1341 f42e 1641 0000 2041 0000 2041
00000010: db41 1841 6cc1 0a41 05e2 1641 191f 0e41
00000020: 0000 2041 a048 2740 b7c6 9e40 9051 1240
00000030: e496 cc40 b207 bb40 a5b0 8440 a99e 9440
00000040: 417b 3840 ebd2 4c40 805b fc3f 4238 7b40
00000050: 0542 ff3f bcfe 0a40 ff13 5540 52e6 3c40
00000060: 5606 0000 1b8b 2b40 8d4e cf3f a89e 8d40
00000070: c226 c23f ab6b 8e3f c119 613e 2da7 3a3e
00000080: 26db ab3f 9d23 003f 70e3 963f 3266 2d3f
00000090: 8e50 782d 2890 c02d 7400 0000 7400 0000
9.23776 9.386463 10.0 10.0 9.516078 8.672222 9.430181 8.882592
10.0 2.6138077 4.961757 2.2862282 6.3934193 5.8446894 4.146563 4.6443677
2.8825228 3.2003734 1.9715424 3.9253087 1.9942023 2.1717978 3.3293455 2.9515576
2.273e-42 2.6803653 1.6195847 4.425617 1.5168078 1.1126608 0.2198248 0.18227835
1.3426254 0.5005434 1.1788158 0.6773406 1.4115055e-11 2.1891891e-11 1.63e-43 1.63e-43

w f4 [1, 40, 1]
00000000: ddcd 1341 f42e 1641 0000 2041 0000 2041
00000010: db41 1841 6cc1 0a41 05e2 1641 191f 0e41
00000020: 0000 2041 a048 2740 b7c6 9e40 9051 1240
00000030: e496 cc40 b207 bb40 a5b0 8440 a99e 9440
00000040: 417b 3840 ebd2 4c40 805b fc3f 4238 7b40
00000050: 0542 ff3f bcfe 0a40 ff13 5540 52e6 3c40
00000060: 5606 0000 1b8b 2b40 8d4e cf3f a89e 8d40
00000070: c226 c23f ab6b 8e3f c119 613e 2da7 3a3e
00000080: 26db ab3f 9d23 003f 70e3 963f 3266 2d3f
00000090: 8e50 782d 2890 c02d 7400 0000 7400 0000
9.23776 9.386463 10.0 10.0 9.516078 8.672222 9.430181 8.882592
10.0 2.6138077 4.961757 2.2862282 6.3934193 5.8446894 4.146563 4.6443677
2.8825228 3.2003734 1.9715424 3.9253087 1.9942023 2.1717978 3.3293455 2.9515576
2.273e-42 2.6803653 1.6195847 4.425617 1.5168078 1.1126608 0.2198248 0.18227835
1.3426254 0.5005434 1.1788158 0.6773406 1.4115055e-11 2.1891891e-11 1.63e-43 1.63e-43
