SNN_Codes/Spiking_codes_real/rudder.pt (torch, 459936 bytes, 505 tensors)

x f4 [1, 24]
00000000: 0000 0000 0000 0000 0000 0000 0000 0000
00000010: 0000 0000 0000 0000 0000 0000 0000 0000
00000020: 1b00 0000 1800 0000 d68a 5e09 add2 1c09
00000030: 0a00 0000 0a00 0000 5898 513f c683 733f
00000040: ac52 742d ac52 742d 0000 0000 0000 0000
00000050: 0000 0000 0000 0000 0000 0000 0000 0000
0.0 0.0 0.0 0.0 0.0 0.0 0.0 0.0
3.8e-44 3.4e-44 2.6787558e-33 1.8876876e-33 1.4e-44 1.4e-44 0.81873083 0.95122945
1.3888151e-11 1.3888151e-11 0.0 0.0 0.0 0.0 0.0 0.0

w f4 [24, 1]
00000000: 5b90 dd40 134c fc40 0000 2041 0000 2041
00000010: cd7a 0541 0789 ed40 f374 b640 3f21 9b40
00000020: fc8b a040 ae29 0041 e4cc 2140 1f5f 8640
00000030: 72a5 1940 e072 f33f f684 b23e d091 1940
00000040: b3fd dd3f 7a8e 7f3f 1d18 4e3f a44b 5a3f
00000050: 8c0f 193d d0d2 102b ee84 6c2d 4365 0e2d
6.9238715 7.8842864 10.0 10.0 8.342481 7.422977 5.701776 4.8478084
5.017088 8.010176 2.5281305 4.1991115 2.400723 1.9019432 0.34867066 2.3995247
1.7343048 0.99826777 0.80505544 0.8527167 0.037368342 5.145164e-13 1.3444563e-11 8.09425e-12

nu f4 [2]
00000000: 0000 803f 0000 803f
1.0 1.0

p_plus f4 [1, 24]
00000000: f92c 9b40 724d 9240 0a00 0000 0a00 0000
00000010: 0a00 0000 0a00 0000 0a00 0000 0a00 0000
00000020: 0a00 0000 0a00 0000 0a00 0000 0a00 0000
00000030: 0a00 0000 0a00 0000 8600 0000 7c00 0000
00000040: 0a00 0000 0a00 0000 0a00 0000 0a00 0000
00000050: 0a00 0000 0a00 0000 0a00 0000 0a00 0000
4.84924 4.571954 1.4e-44 1.4e-44 1.4e-44 1.4e-44 1.4e-44 1.4e-44
1.4e-44 1.4e-44 1.4e-44 1.4e-44 1.4e-44 1.4e-44 1.88e-43 1.74e-43
1.4e-44 1.4e-44 1.4e-44 1.4e-44 1.4e-44 1.4e-44 1.4e-44 1.4e-44

eligibility f4 [1, 24, 1]
00000000: f92c 9b40 724d 9240 0a00 0000 0a00 0000
00000010: 0a00 0000 0a00 0000 0a00 0000 0a00 0000
00000020: 0a00 0000 0a00 0000 0a00 0000 0a00 0000
00000030: 0a00 0000 0a00 0000 8600 0000 7c00 0000
00000040: 0a00 0000 0a00 0000 0a00 0000 0a00 0000
00000050: 0a00 0000 0a00 0000 0a00 0000 0a00 0000
4.84924 4.571954 1.4e-44 1.4e-44 1.4e-44 1.4e-44 1.4e-44 1.4e-44
1.4e-44 1.4e-44 1.4e-44 1.4e-44 1.4e-44 1.4e-44 1.88e-43 1.74e-43
1.4e-44 1.4e-44 1.4e-44 1.4e-44 1.4e-44 1.4e-44 1.4e-44 1.4e-44

w f4 [1, 24, 1]
00000000: 5b90 dd40 134c fc40 0000 2041 0000 2041
00000010: cd7a 0541 0789 ed40 f374 b640 3f21 9b40
00000020: fc8b a040 ae29 0041 e4cc 2140 1f5f 8640
00000030: 72a5 1940 e072 f33f f684 b23e d091 1940
00000040: b3fd dd3f 7a8e 7f3f 1d18 4e3f a44b 5a3f
00000050: 8c0f 193d d0d2 102b ee84 6c2d 4365 0e2d
6.9238715 7.8842864 10.0 10.0 8.342481 7.422977 5.701776 4.8478084
5.017088 8.010176 2.5281305 4.1991115 2.400723 1.9019432 0.34867066 2.3995247
1.7343048 0.99826777 0.80505544 0.8527167 0.037368342 5.145164e-13 1.3444563e-11 8.09425e-12

w f4 [1, 24, 1]
00000000: 5b90 dd40 134c fc40 0000 2041 0000 2041
00000010: cd7a 0541 0789 ed40 f374 b640 3f21 9b40
00000020: fc8b a040 ae29 0041 e4cc 2140 1f5f 8640
00000030: 72a5 1940 e072 f33f f684 b23e d091 1940
00000040: b3fd dd3f 7a8e 7f3f 1d18 4e3f a44b 5a3f
00000050: 8c0f 193d d0d2 102b ee84 6c2d 4365 0e2d
6.9238715 7.8842864 10.0 10.0 8.342481 7.422977 5.701776 4.8478084
5.017088 8.010176 2.5281305 4.1991115 2.400723 1.9019432 0.34867066 2.3995247
1.7343048 0.99826777 0.80505544 0.8527167 0.037368342 5.145164e-13 1.3444563e-11 8.09425e-12

w f4 [1, 24, 1]
00000000: 5b90 dd40 134c fc40 0000 2041 0000 2041
00000010: cd7a 0541 0789 ed40 f374 b640 3f21 9b40
00000020: fc8b a040 ae29 0041 e4cc 2140 1f5f 8640
00000030: 72a5 1940 e072 f33f f684 b23e d091 1940
00000040: b3fd dd3f 7a8e 7f3f 1d18 4e3f a44b 5a3f
00000050: 8c0f 193d d0d2 102b ee84 6c2d 4365 0e2d
6.9238715 7.8842864 10.0 10.0 8.342481 7.422977 5.701776 4.8478084
5.017088 8.010176 2.5281305 4.1991115 2.400723 1.9019432 0.34867066 2.3995247
1.7343048 0.99826777 0.80505544 0.8527167 0.037368342 5.145164e-13 1.3444563e-11 8.09425e-12

w f4 [1, 24, 1]
00000000: 5b90 dd40 134c fc40 0000 2041 0000 2041
00000010: cd7a 0541 0789 ed40 f374 b640 3f21 9b40
00000020: fc8b a040 ae29 0041 e4cc 2140 1f5f 8640
00000030: 72a5 1940 e072 f33f f684 b23e d091 1940
00000040: b3fd dd3f 7a8e 7f3f 1d18 4e3f a44b 5a3f
00000050: 8c0f 193d d0d2 102b ee84 6c2d 4365 0e2d
6.9238715 7.8842864 10.0 10.0 8.342481 7.422977 5.701776 4.8478084
5.017088 8.010176 2.5281305 4.1991115 2.400723 1.9019432 0.34867066 2.3995247
1.7343048 0.99826777 0.80505544 0.8527167 0.037368342 5.145164e-13 1.3444563e-11 8.09425e-12

w f4 [1, 24, 1]
00000000: 5b90 dd40 134c fc40 0000 2041 0000 2041
00000010: cd7a 0541 0789 ed40 f374 b640 3f21 9b40
00000020: fc8b a040 ae29 0041 e4cc 2140 1f5f 8640
00000030: 72a5 1940 e072 f33f f684 b23e d091 1940
00000040: b3fd dd3f 7a8e 7f3f 1d18 4e3f a44b 5a3f
00000050: 8c0f 193d d0d2 102b ee84 6c2d 4365 0e2d
6.9238715 7.8842864 10.0 10.0 8.342481 7.422977 5.701776 4.8478084
5.017088 8.010176 2.5281305 4.1991115 2.400723 1.9019432 0.34867066 2.3995247
1.7343048 0.99826777 0.80505544 0.8527167 0.037368342 5.145164e-13 1.3444563e-11 8.09425e-12

w f4 [1, 24, 1]
00000000: 5b90 dd40 134c fc40 0000 2041 0000 2041
00000010: cd7a 0541 0789 ed40 f374 b640 3f21 9b40
00000020: fc8b a040 ae29 0041 e4cc 2140 1f5f 8640
00000030: 72a5 1940 e072 f33f f684 b23e d091 1940
00000040: b3fd dd3f 7a8e 7f3f 1d18 4e3f a44b 5a3f
00000050: 8c0f 193d d0d2 102b ee84 6c2d 4365 0e2d
6.9238715 7.8842864 10.0 10.0 8.342481 7.422977 5.701776 4.8478084
5.017088 8.010176 2.5281305 4.1991115 2.400723 1.9019432 0.34867066 2.3995247
1.7343048 0.99826777 0.80505544 0.8527167 0.037368342 5.145164e-13 1.3444563e-11 8.09425e-12

w f4 [1, 24, 1]
00000000: 5b90 dd40 134c fc40 0000 2041 0000 2041
00000010: cd7a 0541 0789 ed40 f374 b640 3f21 9b40
00000020: fc8b a040 ae29 0041 e4cc 2140 1f5f 8640
00000030: 72a5 1940 e072 f33f f684 b23e d091 1940
00000040: b3fd dd3f 7a8e 7f3f 1d18 4e3f a44b 5a3f
00000050: 8c0f 193d d0d2 102b ee84 6c2d 4365 0e2d
6.9238715 7.8842864 10.0 10.0 8.342481 7.422977 5.701776 4.8478084
5.017088 8.010176 2.5281305 4.1991115 2.400723 1.9019432 0.34867066 2.3995247
1.7343048 0.99826777 0.80505544 0.8527167 0.037368342 5.145164e-13 1.3444563e-11 8.09425e-12

w f4 [1, 24, 1]
00000000: 5b90 dd40 134c fc40 0000 2041 0000 2041
00000010: cd7a 0541 0789 ed40 f374 b640 3f21 9b40
00000020: fc8b a040 ae29 0041 e4cc 2140 1f5f 8640
00000030: 72a5 1940 e072 f33f f684 b23e d091 1940
00000040: b3fd dd3f 7a8e 7f3f 1d18 4e3f a44b 5a3f
00000050: 8c0f 193d d0d2 102b ee84 6c2d 4365 0e2d
6.9238715 7.8842864 10.0 10.0 8.342481 7.422977 5.701776 4.8478084
5.017088 8.010176 2.5281305 4.1991115 2.400723 1.9019432 0.34867066 2.3995247
1.7343048 0.99826777 0.80505544 0.8527167 0.037368342 5.145164e-13 1.3444563e-11 8.09425e-12

w f4 [1, 24, 1]
00000000: 5b90 dd40 134c fc40 0000 2041 0000 2041
00000010: cd7a 0541 0789 ed40 f374 b640 3f21 9b40
00000020: fc8b a040 ae29 0041 e4cc 2140 1f5f 8640
00000030: 72a5 1940 e072 f33f f684 b23e d091 1940
00000040: b3fd dd3f 7a8e 7f3f 1d18 4e3f a44b 5a3f
00000050: 8c0f 193d d0d2 102b ee84 6c2d 4365 0e2d
6.9238715 7.8842864 10.0 10.0 8.342481 7.422977 5.701776 4.8478084
5.017088 8.010176 2.5281305 4.1991115 2.400723 1.9019432 0.34867066 2.3995247
1.7343048 0.99826777 0.80505544 0.8527167 0.037368342 5.145164e-13 1.3444563e-11 8.09425e-12

w f4 [1, 24, 1]
00000000: 5b90 dd40 134c fc40 0000 2041 0000 2041
00000010: cd7a 0541 0789 ed40 f374 b640 3f21 9b40
00000020: fc8b a040 ae29 0041 e4cc 2140 1f5f 8640
00000030: 72a5 1940 e072 f33f f684 b23e d091 1940
00000040: b3fd dd3f 7a8e 7f3f 1d18 4e3f a44b 5a3f
00000050: 8c0f 193d d0d2 102b ee84 6c2d 4365 0e2d
6.9238715 7.8842864 10.0 10.0 8.342481 7.422977 5.701776 4.8478084
5.017088 8.010176 2.5281305 4.1991115 2.400723 1.9019432 0.34867066 2.3995247
1.7343048 0.99826777 0.80505544 0.8527167 0.037368342 5.145164e-13 1.3444563e-11 8.09425e-12

w f4 [1, 24, 1]
00000000: 5b90 dd40 134c fc40 0000 2041 0000 2041
00000010: cd7a 0541 0789 ed40 f374 b640 3f21 9b40
00000020: fc8b a040 ae29 0041 e4cc 2140 1f5f 8640
00000030: 72a5 1940 e072 f33f f684 b23e d091 1940
00000040: b3fd dd3f 7a8e 7f3f 1d18 4e3f a44b 5a3f
00000050: 8c0f 193d d0d2 102b ee84 6c2d 4365 0e2d
6.9238715 7.8842864 10.0 10.0 8.342481 7.422977 5.701776 4.8478084
5.017088 8.010176 2.5281305 4.1991115 2.400723 1.9019432 0.34867066 2.3995247
1.7343048 0.99826777 0.80505544 0.8527167 0.037368342 5.145164e-13 1.3444563e-11 8.09425e-12

w f4 [1, 24, 1]
00000000: 5b90 dd40 134c fc40 0000 2041 0000 2041
00000010: cd7a 0541 0789 ed40 f374 b640 3f21 9b40
00000020: fc8b a040 ae29 0041 e4cc 2140 1f5f 8640
00000030: 72a5 1940 e072 f33f f684 b23e d091 1940
00000040: b3fd dd3f 7a8e 7f3f 1d18 4e3f a44b 5a3f
00000050: 8c0f 193d d0d2 102b ee84 6c2d 4365 0e2d
6.9238715 7.8842864 10.0 10.0 8.342481 7.422977 5.701776 4.8478084
5.017088 8.010176 2.5281305 4.1991115 2.400723 1.9019432 0.34867066 2.3995247
1.7343048 0.99826777 0.80505544 0.8527167 0.037368342 5.145164e-13 1.3444563e-11 8.09425e-12

w f4 [1, 24, 1]
00000000: 5b90 dd40 134c fc40 0000 2041 0000 2041
00000010: cd7a 0541 0789 ed40 f374 b640 3f21 9b40
00000020: fc8b a040 ae29 0041 e4cc 2140 1f5f 8640
00000030: 72a5 1940 e072 f33f f684 b23e d091 1940
00000040: b3fd dd3f 7a8e 7f3f 1d18 4e3f a44b 5a3f
00000050: 8c0f 193d d0d2 102b ee84 6c2d 4365 0e2d
6.9238715 7.8842864 10.0 10.0 8.342481 7.422977 5.701776 4.8478084
5.017088 8.010176 2.5281305 4.1991115 2.400723 1.9019432 0.34867066 2.3995247
1.7343048 0.99826777 0.80505544 0.8527167 0.037368342 5.145164e-13 1.3444563e-11 8.09425e-12

w f4 [1, 24, 1]
00000000: 5b90 dd40 134c fc40 0000 2041 0000 2041
00000010: cd7a 0541 0789 ed40 f374 b640 3f21 9b40
00000020: fc8b a040 ae29 0041 e4cc 2140 1f5f 8640
00000030: 72a5 1940 e072 f33f f684 b23e d091 1940
00000040: b3fd dd3f 7a8e 7f3f 1d18 4e3f a44b 5a3f
00000050: 8c0f 193d d0d2 102b ee84 6c2d 4365 0e2d
6.9238715 7.8842864 10.0 10.0 8.342481 7.422977 5.701776 4.8478084
5.017088 8.010176 2.5281305 4.1991115 2.400723 1.9019432 0.34867066 2.3995247
1.7343048 0.99826777 0.80505544 0.8527167 0.037368342 5.145164e-13 1.3444563e-11 8.09425e-12

w f4 [1, 24, 1]
00000000: 5b90 dd40 134c fc40 0000 2041 0000 2041
00000010: cd7a 0541 0789 ed40 f374 b640 3f21 9b40
00000020: fc8b a040 ae29 0041 e4cc 2140 1f5f 8640
00000030: 72a5 1940 e072 f33f f684 b23e d091 1940
00000040: b3fd dd3f 7a8e 7f3f 1d18 4e3f a44b 5a3f
00000050: 8c0f 193d d0d2 102b ee84 6c2d 4365 0e2d
6.9238715 7.8842864 10.0 10.0 8.342481 7.422977 5.701776 4.8478084
5.017088 8.010176 2.5281305 4.1991115 2.400723 1.9019432 0.34867066 2.3995247
1.7343048 0.99826777 0.80505544 0.8527167 0.037368342 5.145164e-13 1.3444563e-11 8.09425e-12

w f4 [1, 24, 1]
00000000: 5b90 dd40 134c fc40 0000 2041 0000 2041
00000010: cd7a 0541 0789 ed40 f374 b640 3f21 9b40
00000020: fc8b a040 ae29 0041 e4cc 2140 1f5f 8640
00000030: 72a5 1940 e072 f33f f684 b23e d091 1940
00000040: b3fd dd3f 7a8e 7f3f 1d18 4e3f a44b 5a3f
00000050: 8c0f 193d d0d2 102b ee84 6c2d 4365 0e2d
6.9238715 7.8842864 10.0 10.0 8.342481 7.422977 5.701776 4.8478084
5.017088 8.010176 2.5281305 4.1991115 2.400723 1.9019432 0.34867066 2.3995247
1.7343048 0.99826777 0.80505544 0.8527167 0.037368342 5.145164e-13 1.3444563e-11 8.09425e-12

w f4 [1, 24, 1]
00000000: 5b90 dd40 134c fc40 0000 2041 0000 2041
00000010: cd7a 0541 0789 ed40 f374 b640 3f21 9b40
00000020: fc8b a040 ae29 0041 e4cc 2140 1f5f 8640
00000030: 72a5 1940 e072 f33f f684 b23e d091 1940
00000040: b3fd dd3f 7a8e 7f3f 1d18 4e3f a44b 5a3f
00000050: 8c0f 193d d0d2 102b ee84 6c2d 4365 0e2d
6.9238715 7.8842864 10.0 10.0 8.342481 7.422977 5.701776 4.8478084
5.017088 8.010176 2.5281305 4.1991115 2.400723 1.9019432 0.34867066 2.3995247
1.7343048 0.99826777 0.80505544 0.8527167 0.037368342 5.145164e-13 1.3444563e-11 8.09425e-12

w f4 [1, 24, 1]
00000000: 5b90 dd40 134c fc40 0000 2041 0000 2041
00000010: cd7a 0541 0789 ed40 f374 b640 3f21 9b40
00000020: fc8b a040 ae29 0041 e4cc 2140 1f5f 8640
00000030: 72a5 1940 e072 f33f f684 b23e d091 1940
00000040: b3fd dd3f 7a8e 7f3f 1d18 4e3f a44b 5a3f
00000050: 8c0f 193d d0d2 102b ee84 6c2d 4365 0e2d
6.9238715 7.8842864 10.0 10.0 8.342481 7.422977 5.701776 4.8478084
5.017088 8.010176 2.5281305 4.1991115 2.400723 1.9019432 0.34867066 2.3995247
1.7343048 0.99826777 0.80505544 0.8527167 0.037368342 5.145164e-13 1.3444563e-11 8.09425e-12

w f4 [1, 24, 1]
00000000: 5b90 dd40 134c fc40 0000 2041 0000 2041
00000010: cd7a 0541 0789 ed40 f374 b640 3f21 9b40
00000020: fc8b a040 ae29 0041 e4cc 2140 1f5f 8640
00000030: 72a5 1940 e072 f33f f684 b23e d091 1940
00000040: b3fd dd3f 7a8e 7f3f 1d18 4e3f a44b 5a3f
00000050: 8c0f 193d d0d2 102b ee84 6c2d 4365 0e2d
6.9238715 7.8842864 10.0 10.0 8.342481 7.422977 5.701776 4.8478084
5.017088 8.010176 2.5281305 4.1991115 2.400723 1.9019432 0.34867066 2.3995247
1.7343048 0.99826777 0.80505544 0.8527167 0.037368342 5.145164e-13 1.3444563e-11 8.09425e-12

w f4 [1, 24, 1]
00000000: 5b90 dd40 134c fc40 0000 2041 0000 2041
00000010: cd7a 0541 0789 ed40 f374 b640 3f21 9b40
00000020: fc8b a040 ae29 0041 e4cc 2140 1f5f 8640
00000030: 72a5 1940 e072 f33f f684 b23e d091 1940
00000040: b3fd dd3f 7a8e 7f3f 1d18 4e3f a44b 5a3f
00000050: 8c0f 193d d0d2 102b ee84 6c2d 4365 0e2d
6.9238715 7.8842864 10.0 10.0 8.342481 7.422977 5.701776 4.8478084
5.017088 8.010176 2.5281305 4.1991115 2.400723 1.9019432 0.34867066 2.3995247
1.7343048 0.99826777 0.80505544 0.8527167 0.037368342 5.145164e-13 1.3444563e-11 8.09425e-12

w f4 [1, 24, 1]
00000000: 5b90 dd40 134c fc40 0000 2041 0000 2041
00000010: cd7a 0541 0789 ed40 f374 b640 3f21 9b40
00000020: fc8b a040 ae29 0041 e4cc 2140 1f5f 8640
00000030: 72a5 1940 e072 f33f f684 b23e d091 1940
00000040: b3fd dd3f 7a8e 7f3f 1d18 4e3f a44b 5a3f
00000050: 8c0f 193d d0d2 102b ee84 6c2d 4365 0e2d
6.9238715 7.8842864 10.0 10.0 8.342481 7.422977 5.701776 4.8478084
5.017088 8.010176 2.5281305 4.1991115 2.400723 1.9019432 0.34867066 2.3995247
1.7343048 0.99826777 0.80505544 0.8527167 0.037368342 5.145164e-13 1.3444563e-11 8.09425e-12

w f4 [1, 24, 1]
00000000: 5b90 dd40 134c fc40 0000 2041 0000 2041
00000010: cd7a 0541 0789 ed40 f374 b640 3f21 9b40
00000020: fc8b a040 ae29 0041 e4cc 2140 1f5f 8640
00000030: 72a5 1940 e072 f33f f684 b23e d091 1940
00000040: b3fd dd3f 7a8e 7f3f 1d18 4e3f a44b 5a3f
00000050: 8c0f 193d d0d2 102b ee84 6c2d 4365 0e2d
6.9238715 7.8842864 10.0 10.0 8.342481 7.422977 5.701776 4.8478084
5.017088 8.010176 2.5281305 4.1991115 2.400723 1.9019432 0.34867066 2.3995247
1.7343048 0.99826777 0.80505544 0.8527167 0.037368342 5.145164e-13 1.3444563e-11 8.09425e-12

w f4 [1, 24, 1]
00000000: 5b90 dd40 134c fc40 0000 2041 0000 2041
00000010: cd7a 0541 0789 ed40 f374 b640 3f21 9b40
00000020: fc8b a040 ae29 0041 e4cc 2140 1f5f 8640
00000030: 72a5 1940 e072 f33f f684 b23e d091 1940
00000040: b3fd dd3f 7a8e 7f3f 1d18 4e3f a44b 5a3f
00000050: 8c0f 193d d0d2 102b ee84 6c2d 4365 0e2d
6.9238715 7.8842864 10.0 10.0 8.342481 7.422977 5.701776 4.8478084
5.017088 8.010176 2.5281305 4.1991115 2.400723 1.9019432 0.34867066 2.3995247
1.7343048 0.99826777 0.80505544 0.8527167 0.037368342 5.145164e-13 1.3444563e-11 8.09425e-12

w f4 [1, 24, 1]
00000000: 5b90 dd40 134c fc40 0000 2041 0000 2041
00000010: cd7a 0541 0789 ed40 f374 b640 3f21 9b40
00000020: fc8b a040 ae29 0041 e4cc 2140 1f5f 8640
00000030: 72a5 1940 e072 f33f f684 b23e d091 1940
00000040: b3fd dd3f 7a8e 7f3f 1d18 4e3f a44b 5a3f
00000050: 8c0f 193d d0d2 102b ee84 6c2d 4365 0e2d
6.9238715 7.8842864 10.0 10.0 8.342481 7.422977 5.701776 4.8478084
5.017088 8.010176 2.5281305 4.1991115 2.400723 1.9019432 0.34867066 2.3995247
1.7343048 0.99826777 0.80505544 0.8527167 0.037368342 5.145164e-13 1.3444563e-11 8.09425e-12

w f4 [1, 24, 1]
00000000: 5b90 dd40 134c fc40 0000 2041 0000 2041
00000010: cd7a 0541 0789 ed40 f374 b640 3f21 9b40
00000020: fc8b a040 ae29 0041 e4cc 2140 1f5f 8640
00000030: 72a5 1940 e072 f33f f684 b23e d091 1940
00000040: b3fd dd3f 7a8e 7f3f 1d18 4e3f a44b 5a3f
00000050: 8c0f 193d d0d2 102b ee84 6c2d 4365 0e2d
6.9238715 7.8842864 10.0 10.0 8.342481 7.422977 5.701776 4.8478084
5.017088 8.010176 2.5281305 4.1991115 2.400723 1.9019432 0.34867066 2.3995247
1.7343048 0.99826777 0.80505544 0.8527167 0.037368342 5.145164e-13 1.3444563e-11 8.09425e-12

w f4 [1, 24, 1]
00000000: 5b90 dd40 134c fc40 0000 2041 0000 2041
00000010: cd7a 0541 0789 ed40 f374 b640 3f21 9b40
00000020: fc8b a040 ae29 0041 e4cc 2140 1f5f 8640
00000030: 72a5 1940 e072 f33f f684 b23e d091 1940
00000040: b3fd dd3f 7a8e 7f3f 1d18 4e3f a44b 5a3f
00000050: 8c0f 193d d0d2 102b ee84 6c2d 4365 0e2d
6.9238715 7.8842864 10.0 10.0 8.342481 7.422977 5.701776 4.8478084
5.017088 8.010176 2.5281305 4.1991115 2.400723 1.9019432 0.34867066 2.3995247
1.7343048 0.99826777 0.80505544 0.8527167 0.037368342 5.145164e-13 1.3444563e-11 8.09425e-12

w f4 [1, 24, 1]
00000000: 5b90 dd40 134c fc40 0000 2041 0000 2041
00000010: cd7a 0541 0789 ed40 f374 b640 3f21 9b40
00000020: fc8b a040 ae29 0041 e4cc 2140 1f5f 8640
00000030: 72a5 1940 e072 f33f f684 b23e d091 1940
00000040: b3fd dd3f 7a8e 7f3f 1d18 4e3f a44b 5a3f
00000050: 8c0f 193d d0d2 102b ee84 6c2d 4365 0e2d
6.9238715 7.8842864 10.0 10.0 8.342481 7.422977 5.701776 4.8478084
5.017088 8.010176 2.5281305 4.1991115 2.400723 1.9019432 0.34867066 2.3995247
1.7343048 0.99826777 0.80505544 0.8527167 0.037368342 5.145164e-13 1.3444563e-11 8.09425e-12

w f4 [1, 24, 1]
00000000: 5b90 dd40 134c fc40 0000 2041 0000 2041
00000010: cd7a 0541 0789 ed40 f374 b640 3f21 9b40
00000020: fc8b a040 ae29 0041 e4cc 2140 1f5f 8640
00000030: 72a5 1940 e072 f33f f684 b23e d091 1940
00000040: b3fd dd3f 7a8e 7f3f 1d18 4e3f a44b 5a3f
00000050: 8c0f 193d d0d2 102b ee84 6c2d 4365 0e2d
6.9238715 7.8842864 10.0 10.0 8.342481 7.422977 5.701776 4.8478084
5.017088 8.010176 2.5281305 4.1991115 2.400723 1.9019432 0.34867066 2.3995247
1.7343048 0.99826777 0.80505544 0.8527167 0.037368342 5.145164e-13 1.3444563e-11 8.09425e-12

w f4 [1, 24, 1]
00000000: 5b90 dd40 134c fc40 0000 2041 0000 2041
00000010: cd7a 0541 0789 ed40 f374 b640 3f21 9b40
00000020: fc8b a040 ae29 0041 e4cc 2140 1f5f 8640
00000030: 72a5 1940 e072 f33f f684 b23e d091 1940
00000040: b3fd dd3f 7a8e 7f3f 1d18 4e3f a44b 5a3f
00000050: 8c0f 193d d0d2 102b ee84 6c2d 4365 0e2d
6.9238715 7.8842864 10.0 10.0 8.342481 7.422977 5.701776 4.8478084
5.017088 8.010176 2.5281305 4.1991115 2.400723 1.9019432 0.34867066 2.3995247
1.7343048 0.99826777 0.80505544 0.8527167 0.037368342 5.145164e-13 1.3444563e-11 8.09425e-12

w f4 [1, 24, 1]
00000000: 5b90 dd40 134c fc40 0000 2041 0000 2041
00000010: cd7a 0541 0789 ed40 f374 b640 3f21 9b40
00000020: fc8b a040 ae29 0041 e4cc 2140 1f5f 8640
00000030: 72a5 1940 e072 f33f f684 b23e d091 1940
00000040: b3fd dd3f 7a8e 7f3f 1d18 4e3f a44b 5a3f
00000050: 8c0f 193d d0d2 102b ee84 6c2d 4365 0e2d
6.9238715 7.8842864 10.0 10.0 8.342481 7.422977 5.701776 4.8478084
5.017088 8.010176 2.5281305 4.1991115 2.400723 1.9019432 0.34867066 2.3995247
1.7343048 0.99826777 0.80505544 0.8527167 0.037368342 5.145164e-13 1.3444563e-11 8.09425e-12

w f4 [1, 24, 1]
00000000: 5b90 dd40 134c fc40 0000 2041 0000 2041
00000010: cd7a 0541 0789 ed40 f374 b640 3f21 9b40
00000020: fc8b a040 ae29 0041 e4cc 2140 1f5f 8640
00000030: 72a5 1940 e072 f33f f684 b23e d091 1940
00000040: b3fd dd3f 7a8e 7f3f 1d18 4e3f a44b 5a3f
00000050: 8c0f 193d d0d2 102b ee84 6c2d 4365 0e2d
6.9238715 7.8842864 10.0 10.0 8.342481 7.422977 5.701776 4.8478084
5.017088 8.010176 2.5281305 4.1991115 2.400723 1.9019432 0.34867066 2.3995247
1.7343048 0.99826777 0.80505544 0.8527167 0.037368342 5.145164e-13 1.3444563e-11 8.09425e-12

w f4 [1, 24, 1]
00000000: 5b90 dd40 134c fc40 0000 2041 0000 2041
00000010: cd7a 0541 0789 ed40 f374 b640 3f21 9b40
00000020: fc8b a040 ae29 0041 e4cc 2140 1f5f 8640
00000030: 72a5 1940 e072 f33f f684 b23e d091 1940
00000040: b3fd dd3f 7a8e 7f3f 1d18 4e3f a44b 5a3f
00000050: 8c0f 193d d0d2 102b ee84 6c2d 4365 0e2d
6.9238715 7.8842864 10.0 10.0 8.342481 7.422977 5.701776 4.8478084
5.017088 8.010176 2.5281305 4.1991115 2.400723 1.9019432 0.34867066 2.3995247
1.7343048 0.99826777 0.80505544 0.8527167 0.037368342 5.145164e-13 1.3444563e-11 8.09425e-12

w f4 [1, 24, 1]
00000000: 5b90 dd40 134c fc40 0000 2041 0000 2041
00000010: cd7a 0541 0789 ed40 f374 b640 3f21 9b40
00000020: fc8b a040 ae29 0041 e4cc 2140 1f5f 8640
00000030: 72a5 1940 e072 f33f f684 b23e d091 1940
00000040: b3fd dd3f 7a8e 7f3f 1d18 4e3f a44b 5a3f
00000050: 8c0f 193d d0d2 102b ee84 6c2d 4365 0e2d
6.9238715 7.8842864 10.0 10.0 8.342481 7.422977 5.701776 4.8478084
5.017088 8.010176 2.5281305 4.1991115 2.400723 1.9019432 0.34867066 2.3995247
1.7343048 0.99826777 0.80505544 0.8527167 0.037368342 5.145164e-13 1.3444563e-11 8.09425e-12

w f4 [1, 24, 1]
00000000: 5b90 dd40 134c fc40 0000 2041 0000 2041
00000010: cd7a 0541 0789 ed40 f374 b640 3f21 9b40
00000020: fc8b a040 ae29 0041 e4cc 2140 1f5f 8640
00000030: 72a5 1940 e072 f33f f684 b23e d091 1940
00000040: b3fd dd3f 7a8e 7f3f 1d18 4e3f a44b 5a3f
00000050: 8c0f 193d d0d2 102b ee84 6c2d 4365 0e2d
6.9238715 7.8842864 10.0 10.0 8.342481 7.422977 5.701776 4.8478084
5.017088 8.010176 2.5281305 4.1991115 2.400723 1.9019432 0.34867066 2.3995247
1.7343048 0.99826777 0.80505544 0.8527167 0.037368342 5.145164e-13 1.3444563e-11 8.09425e-12

w f4 [1, 24, 1]
00000000: 5b90 dd40 134c fc40 0000 2041 0000 2041
00000010: cd7a 0541 0789 ed40 f374 b640 3f21 9b40
00000020: fc8b a040 ae29 0041 e4cc 2140 1f5f 8640
00000030: 72a5 1940 e072 f33f f684 b23e d091 1940
00000040: b3fd dd3f 7a8e 7f3f 1d18 4e3f a44b 5a3f
00000050: 8c0f 193d d0d2 102b ee84 6c2d 4365 0e2d
6.9238715 7.8842864 10.0 10.0 8.342481 7.422977 5.701776 4.8478084
5.017088 8.010176 2.5281305 4.1991115 2.400723 1.9019432 0.34867066 2.3995247
1.7343048 0.99826777 0.80505544 0.8527167 0.037368342 5.145164e-13 1.3444563e-11 8.09425e-12

w f4 [1, 24, 1]
00000000: 5b90 dd40 134c fc40 0000 2041 0000 2041
00000010: cd7a 0541 0789 ed40 f374 b640 3f21 9b40
00000020: fc8b a040 ae29 0041 e4cc 2140 1f5f 8640
00000030: 72a5 1940 e072 f33f f684 b23e d091 1940
00000040: b3fd dd3f 7a8e 7f3f 1d18 4e3f a44b 5a3f
00000050: 8c0f 193d d0d2 102b ee84 6c2d 4365 0e2d
6.9238715 7.8842864 10.0 10.0 8.342481 7.422977 5.701776 4.8478084
5.017088 8.010176 2.5281305 4.1991115 2.400723 1.9019432 0.34867066 2.3995247
1.7343048 0.99826777 0.80505544 0.8527167 0.037368342 5.145164e-13 1.3444563e-11 8.09425e-12

w f4 [1, 24, 1]
00000000: 5b90 dd40 134c fc40 0000 2041 0000 2041
00000010: cd7a 0541 0789 ed40 f374 b640 3f21 9b40
00000020: fc8b a040 ae29 0041 e4cc 2140 1f5f 8640
00000030: 72a5 1940 e072 f33f f684 b23e d091 1940
00000040: b3fd dd3f 7a8e 7f3f 1d18 4e3f a44b 5a3f
00000050: 8c0f 193d d0d2 102b ee84 6c2d 4365 0e2d
6.9238715 7.8842864 10.0 10.0 8.342481 7.422977 5.701776 4.8478084
5.017088 8.010176 2.5281305 4.1991115 2.400723 1.9019432 0.34867066 2.3995247
1.7343048 0.99826777 0.80505544 0.8527167 0.037368342 5.145164e-13 1.3444563e-11 8.09425e-12

w f4 [1, 24, 1]
00000000: 5b90 dd40 134c fc40 0000 2041 0000 2041
00000010: cd7a 0541 0789 ed40 f374 b640 3f21 9b40
00000020: fc8b a040 ae29 0041 e4cc 2140 1f5f 8640
00000030: 72a5 1940 e072 f33f f684 b23e d091 1940
00000040: b3fd dd3f 7a8e 7f3f 1d18 4e3f a44b 5a3f
00000050: 8c0f 193d d0d2 102b ee84 6c2d 4365 0e2d
6.9238715 7.8842864 10.0 10.0 8.342481 7.422977 5.701776 4.8478084
5.017088 8.010176 2.5281305 4.1991115 2.400723 1.9019432 0.34867066 2.3995247
1.7343048 0.99826777 0.80505544 0.8527167 0.037368342 5.145164e-13 1.3444563e-11 8.09425e-12

w f4 [1, 24, 1]
00000000: 5b90 dd40 134c fc40 0000 2041 0000 2041
00000010: cd7a 0541 0789 ed40 f374 b640 3f21 9b40
00000020: fc8b a040 ae29 0041 e4cc 2140 1f5f 8640
00000030: 72a5 1940 e072 f33f f684 b23e d091 1940
00000040: b3fd dd3f 7a8e 7f3f 1d18 4e3f a44b 5a3f
00000050: 8c0f 193d d0d2 102b ee84 6c2d 4365 0e2d
6.9238715 7.8842864 10.0 10.0 8.342481 7.422977 5.701776 4.8478084
5.017088 8.010176 2.5281305 4.1991115 2.400723 1.9019432 0.34867066 2.3995247
1.7343048 0.99826777 0.80505544 0.8527167 0.037368342 5.145164e-13 1.3444563e-11 8.09425e-12

w f4 [1, 24, 1]
00000000: 5b90 dd40 134c fc40 0000 2041 0000 2041
00000010: cd7a 0541 0789 ed40 f374 b640 3f21 9b40
00000020: fc8b a040 ae29 0041 e4cc 2140 1f5f 8640
00000030: 72a5 1940 e072 f33f f684 b23e d091 1940
00000040: b3fd dd3f 7a8e 7f3f 1d18 4e3f a44b 5a3f
00000050: 8c0f 193d d0d2 102b ee84 6c2d 4365 0e2d
6.9238715 7.8842864 10.0 10.0 8.342481 7.422977 5.701776 4.8478084
5.017088 8.010176 2.5281305 4.1991115 2.400723 1.9019432 0.34867066 2.3995247
1.7343048 0.99826777 0.80505544 0.8527167 0.037368342 5.145164e-13 1.3444563e-11 8.09425e-12

w f4 [1, 24, 1]
00000000: 5b90 dd40 134c fc40 0000 2041 0000 2041
00000010: cd7a 0541 0789 ed40 f374 b640 3f21 9b40
00000020: fc8b a040 ae29 0041 e4cc 2140 1f5f 8640
00000030: 72a5 1940 e072 f33f f684 b23e d091 1940
00000040: b3fd dd3f 7a8e 7f3f 1d18 4e3f a44b 5a3f
00000050: 8c0f 193d d0d2 102b ee84 6c2d 4365 0e2d
6.9238715 7.8842864 10.0 10.0 8.342481 7.422977 5.701776 4.8478084
5.017088 8.010176 2.5281305 4.1991115 2.400723 1.9019432 0.34867066 2.3995247
1.7343048 0.99826777 0.80505544 0.8527167 0.037368342 5.145164e-13 1.3444563e-11 8.09425e-12

w f4 [1, 24, 1]
00000000: 5b90 dd40 134c fc40 0000 2041 0000 2041
00000010: cd7a 0541 0789 ed40 f374 b640 3f21 9b40
00000020: fc8b a040 ae29 0041 e4cc 2140 1f5f 8640
00000030: 72a5 1940 e072 f33f f684 b23e d091 1940
00000040: b3fd dd3f 7a8e 7f3f 1d18 4e3f a44b 5a3f
00000050: 8c0f 193d d0d2 102b ee84 6c2d 4365 0e2d
6.9238715 7.8842864 10.0 10.0 8.342481 7.422977 5.701776 4.8478084
5.017088 8.010176 2.5281305 4.1991115 2.400723 1.9019432 0.34867066 2.3995247
1.7343048 0.99826777 0.80505544 0.8527167 0.037368342 5.145164e-13 1.3444563e-11 8.09425e-12

w f4 [1, 24, 1]
00000000: 5b90 dd40 134c fc40 0000 2041 0000 2041
00000010: cd7a 0541 0789 ed40 f374 b640 3f21 9b40
00000020: fc8b a040 ae29 0041 e4cc 2140 1f5f 8640
00000030: 72a5 1940 e072 f33f f684 b23e d091 1940
00000040: b3fd dd3f 7a8e 7f3f 1d18 4e3f a44b 5a3f
00000050: 8c0f 193d d0d2 102b ee84 6c2d 4365 0e2d
6.9238715 7.8842864 10.0 10.0 8.342481 7.422977 5.701776 4.8478084
5.017088 8.010176 2.5281305 4.1991115 2.400723 1.9019432 0.34867066 2.3995247
1.7343048 0.99826777 0.80505544 0.8527167 0.037368342 5.145164e-13 1.3444563e-11 8.09425e-12

w f4 [1, 24, 1]
00000000: 5b90 dd40 134c fc40 0000 2041 0000 2041
00000010: cd7a 0541 0789 ed40 f374 b640 3f21 9b40
00000020: fc8b a040 ae29 0041 e4cc 2140 1f5f 8640
00000030: 72a5 1940 e072 f33f f684 b23e d091 1940
00000040: b3fd dd3f 7a8e 7f3f 1d18 4e3f a44b 5a3f
00000050: 8c0f 193d d0d2 102b ee84 6c2d 4365 0e2d
6.9238715 7.8842864 10.0 10.0 8.342481 7.422977 5.701776 4.8478084
5.017088 8.010176 2.5281305 4.1991115 2.400723 1.9019432 0.34867066 2.3995247
1.7343048 0.99826777 0.80505544 0.8527167 0.037368342 5.145164e-13 1.3444563e-11 8.09425e-12

w f4 [1, 24, 1]
00000000: 5b90 dd40 134c fc40 0000 2041 0000 2041
00000010: cd7a 0541 0789 ed40 f374 b640 3f21 9b40
00000020: fc8b a040 ae29 0041 e4cc 2140 1f5f 8640
00000030: 72a5 1940 e072 f33f f684 b23e d091 1940
00000040: b3fd dd3f 7a8e 7f3f 1d18 4e3f a44b 5a3f
00000050: 8c0f 193d d0d2 102b ee84 6c2d 4365 0e2d
6.9238715 7.8842864 10.0 10.0 8.342481 7.422977 5.701776 4.8478084
5.017088 8.010176 2.5281305 4.1991115 2.400723 1.9019432 0.34867066 2.3995247
1.7343048 0.99826777 0.80505544 0.8527167 0.037368342 5.145164e-13 1.3444563e-11 8.09425e-12

w f4 [1, 24, 1]
00000000: 5b90 dd40 134c fc40 0000 2041 0000 2041
00000010: cd7a 0541 0789 ed40 f374 b640 3f21 9b40
00000020: fc8b a040 ae29 0041 e4cc 2140 1f5f 8640
00000030: 72a5 1940 e072 f33f f684 b23e d091 1940
00000040: b3fd dd3f 7a8e 7f3f 1d18 4e3f a44b 5a3f
00000050: 8c0f 193d d0d2 102b ee84 6c2d 4365 0e2d
6.9238715 7.8842864 10.0 10.0 8.342481 7.422977 5.701776 4.8478084
5.017088 8.010176 2.5281305 4.1991115 2.400723 1.9019432 0.34867066 2.3995247
1.7343048 0.99826777 0.80505544 0.8527167 0.037368342 5.145164e-13 1.3444563e-11 8.09425e-12

w f4 [1, 24, 1]
00000000: 5b90 dd40 134c fc40 0000 2041 0000 2041
00000010: cd7a 0541 0789 ed40 f374 b640 3f21 9b40
00000020: fc8b a040 ae29 0041 e4cc 2140 1f5f 8640
00000030: 72a5 1940 e072 f33f f684 b23e d091 1940
00000040: b3fd dd3f 7a8e 7f3f 1d18 4e3f a44b 5a3f
00000050: 8c0f 193d d0d2 102b ee84 6c2d 4365 0e2d
6.9238715 7.8842864 10.0 10.0 8.342481 7.422977 5.701776 4.8478084
5.017088 8.010176 2.5281305 4.1991115 2.400723 1.9019432 0.34867066 2.3995247
1.7343048 0.99826777 0.80505544 0.8527167 0.037368342 5.145164e-13 1.3444563e-11 8.09425e-12

w f4 [1, 24, 1]
00000000: 5b90 dd40 134c fc40 0000 2041 0000 2041
00000010: cd7a 0541 0789 ed40 f374 b640 3f21 9b40
00000020: fc8b a040 ae29 0041 e4cc 2140 1f5f 8640
00000030: 72a5 1940 e072 f33f f684 b23e d091 1940
00000040: b3fd dd3f 7a8e 7f3f 1d18 4e3f a44b 5a3f
00000050: 8c0f 193d d0d2 102b ee84 6c2d 4365 0e2d
6.9238715 7.8842864 10.0 10.0 8.342481 7.422977 5.701776 4.8478084
5.017088 8.010176 2.5281305 4.1991115 2.400723 1.9019432 0.34867066 2.3995247
1.7343048 0.99826777 0.80505544 0.8527167 0.037368342 5.145164e-13 1.3444563e-11 8.09425e-12

w f4 [1, 24, 1]
00000000: 5b90 dd40 134c fc40 0000 2041 0000 2041
00000010: cd7a 0541 0789 ed40 f374 b640 3f21 9b40
00000020: fc8b a040 ae29 0041 e4cc 2140 1f5f 8640
00000030: 72a5 1940 e072 f33f f684 b23e d091 1940
00000040: b3fd dd3f 7a8e 7f3f 1d18 4e3f a44b 5a3f
00000050: 8c0f 193d d0d2 102b ee84 6c2d 4365 0e2d
6.9238715 7.8842864 10.0 10.0 8.342481 7.422977 5.701776 4.8478084
5.017088 8.010176 2.5281305 4.1991115 2.400723 1.9019432 0.34867066 2.3995247
1.7343048 0.99826777 0.80505544 0.8527167 0.037368342 5.145164e-13 1.3444563e-11 8.09425e-12

w f4 [1, 24, 1]
00000000: 5b90 dd40 134c fc40 0000 2041 0000 2041
00000010: cd7a 0541 0789 ed40 f374 b640 3f21 9b40
00000020: fc8b a040 ae29 0041 e4cc 2140 1f5f 8640
00000030: 72a5 1940 e072 f33f f684 b23e d091 1940
00000040: b3fd dd3f 7a8e 7f3f 1d18 4e3f a44b 5a3f
00000050: 8c0f 193d d0d2 102b ee84 6c2d 4365 0e2d
6.9238715 7.8842864 10.0 10.0 8.342481 7.422977 5.701776 4.8478084
5.017088 8.010176 2.5281305 4.1991115 2.400723 1.9019432 0.34867066 2.3995247
1.7343048 0.99826777 0.80505544 0.8527167 0.037368342 5.145164e-13 1.3444563e-11 8.09425e-12

w f4 [1, 24, 1]
00000000: 5b90 dd40 134c fc40 0000 2041 0000 2041
00000010: cd7a 0541 0789 ed40 f374 b640 3f21 9b40
00000020: fc8b a040 ae29 0041 e4cc 2140 1f5f 8640
00000030: 72a5 1940 e072 f33f f684 b23e d091 1940
00000040: b3fd dd3f 7a8e 7f3f 1d18 4e3f a44b 5a3f
00000050: 8c0f 193d d0d2 102b ee84 6c2d 4365 0e2d
6.9238715 7.8842864 10.0 10.0 8.342481 7.422977 5.701776 4.8478084
5.017088 8.010176 2.5281305 4.1991115 2.400723 1.9019432 0.34867066 2.3995247
1.7343048 0.99826777 0.80505544 0.8527167 0.037368342 5.145164e-13 1.3444563e-11 8.09425e-12

w f4 [1, 24, 1]
00000000: 5b90 dd40 134c fc40 0000 2041 0000 2041
00000010: cd7a 0541 0789 ed40 f374 b640 3f21 9b40
00000020: fc8b a040 ae29 0041 e4cc 2140 1f5f 8640
00000030: 72a5 1940 e072 f33f f684 b23e d091 1940
00000040: b3fd dd3f 7a8e 7f3f 1d18 4e3f a44b 5a3f
00000050: 8c0f 193d d0d2 102b ee84 6c2d 4365 0e2d
6.9238715 7.8842864 10.0 10.0 8.342481 7.422977 5.701776 4.8478084
5.017088 8.010176 2.5281305 4.1991115 2.400723 1.9019432 0.34867066 2.3995247
1.7343048 0.99826777 0.80505544 0.8527167 0.037368342 5.145164e-13 1.3444563e-11 8.09425e-12

w f4 [1, 24, 1]
00000000: 5b90 dd40 134c fc40 0000 2041 0000 2041
00000010: cd7a 0541 0789 ed40 f374 b640 3f21 9b40
00000020: fc8b a040 ae29 0041 e4cc 2140 1f5f 8640
00000030: 72a5 1940 e072 f33f f684 b23e d091 1940
00000040: b3fd dd3f 7a8e 7f3f 1d18 4e3f a44b 5a3f
00000050: 8c0f 193d d0d2 102b ee84 6c2d 4365 0e2d
6.9238715 7.8842864 10.0 10.0 8.342481 7.422977 5.701776 4.8478084
5.017088 8.010176 2.5281305 4.1991115 2.400723 1.9019432 0.34867066 2.3995247
1.7343048 0.99826777 0.80505544 0.8527167 0.037368342 5.145164e-13 1.3444563e-11 8.09425e-12

w f4 [1, 24, 1]
00000000: 5b90 dd40 134c fc40 0000 2041 0000 2041
00000010: cd7a 0541 0789 ed40 f374 b640 3f21 9b40
00000020: fc8b a040 ae29 0041 e4cc 2140 1f5f 8640
00000030: 72a5 1940 e072 f33f f684 b23e d091 1940
00000040: b3fd dd3f 7a8e 7f3f 1d18 4e3f a44b 5a3f
00000050: 8c0f 193d d0d2 102b ee84 6c2d 4365 0e2d
6.9238715 7.8842864 10.0 10.0 8.342481 7.422977 5.701776 4.8478084
5.017088 8.010176 2.5281305 4.1991115 2.400723 1.9019432 0.34867066 2.3995247
1.7343048 0.99826777 0.80505544 0.8527167 0.037368342 5.145164e-13 1.3444563e-11 8.09425e-12

w f4 [1, 24, 1]
00000000: 5b90 dd40 134c fc40 0000 2041 0000 2041
00000010: cd7a 0541 0789 ed40 f374 b640 3f21 9b40
00000020: fc8b a040 ae29 0041 e4cc 2140 1f5f 8640
00000030: 72a5 1940 e072 f33f f684 b23e d091 1940
00000040: b3fd dd3f 7a8e 7f3f 1d18 4e3f a44b 5a3f
00000050: 8c0f 193d d0d2 102b ee84 6c2d 4365 0e2d
6.9238715 7.8842864 10.0 10.0 8.342481 7.422977 5.701776 4.8478084
5.017088 8.010176 2.5281305 4.1991115 2.400723 1.9019432 0.34867066 2.3995247
1.7343048 0.99826777 0.80505544 0.8527167 0.037368342 5.145164e-13 1.3444563e-11 8.09425e-12

w f4 [1, 24, 1]
00000000: 5b90 dd40 134c fc40 0000 2041 0000 2041
00000010: cd7a 0541 0789 ed40 f374 b640 3f21 9b40
00000020: fc8b a040 ae29 0041 e4cc 2140 1f5f 8640
00000030: 72a5 1940 e072 f33f f684 b23e d091 1940
00000040: b3fd dd3f 7a8e 7f3f 1d18 4e3f a44b 5a3f
00000050: 8c0f 193d d0d2 102b ee84 6c2d 4365 0e2d
6.9238715 7.8842864 10.0 10.0 8.342481 7.422977 5.701776 4.8478084
5.017088 8.010176 2.5281305 4.1991115 2.400723 1.9019432 0.34867066 2.3995247
1.7343048 0.99826777 0.80505544 0.8527167 0.037368342 5.145164e-13 1.3444563e-11 8.09425e-12

w f4 [1, 24, 1]
00000000: 5b90 dd40 134c fc40 0000 2041 0000 2041
00000010: cd7a 0541 0789 ed40 f374 b640 3f21 9b40
00000020: fc8b a040 ae29 0041 e4cc 2140 1f5f 8640
00000030: 72a5 1940 e072 f33f f684 b23e d091 1940
00000040: b3fd dd3f 7a8e 7f3f 1d18 4e3f a44b 5a3f
00000050: 8c0f 193d d0d2 102b ee84 6c2d 4365 0e2d
6.9238715 7.8842864 10.0 10.0 8.342481 7.422977 5.701776 4.8478084
5.017088 8.010176 2.5281305 4.1991115 2.400723 1.9019432 0.34867066 2.3995247
1.7343048 0.99826777 0.80505544 0.8527167 0.037368342 5.145164e-13 1.3444563e-11 8.09425e-12

w f4 [1, 24, 1]
00000000: 5b90 dd40 134c fc40 0000 2041 0000 2041
00000010: cd7a 0541 0789 ed40 f374 b640 3f21 9b40
00000020: fc8b a040 ae29 0041 e4cc 2140 1f5f 8640
00000030: 72a5 1940 e072 f33f f684 b23e d091 1940
00000040: b3fd dd3f 7a8e 7f3f 1d18 4e3f a44b 5a3f
00000050: 8c0f 193d d0d2 102b ee84 6c2d 4365 0e2d
6.9238715 7.8842864 10.0 10.0 8.342481 7.422977 5.701776 4.8478084
5.017088 8.010176 2.5281305 4.1991115 2.400723 1.9019432 0.34867066 2.3995247
1.7343048 0.99826777 0.80505544 0.8527167 0.037368342 5.145164e-13 1.3444563e-11 8.09425e-12

w f4 [1, 24, 1]
00000000: 5b90 dd40 134c fc40 0000 2041 0000 2041
00000010: cd7a 0541 0789 ed40 f374 b640 3f21 9b40
00000020: fc8b a040 ae29 0041 e4cc 2140 1f5f 8640
00000030: 72a5 1940 e072 f33f f684 b23e d091 1940
00000040: b3fd dd3f 7a8e 7f3f 1d18 4e3f a44b 5a3f
00000050: 8c0f 193d d0d2 102b ee84 6c2d 4365 0e2d
6.9238715 7.8842864 10.0 10.0 8.342481 7.422977 5.701776 4.8478084
5.017088 8.010176 2.5281305 4.1991115 2.400723 1.9019432 0.34867066 2.3995247
1.7343048 0.99826777 0.80505544 0.8527167 0.037368342 5.145164e-13 1.3444563e-11 8.09425e-12

w f4 [1, 24, 1]
00000000: 5b90 dd40 134c fc40 0000 2041 0000 2041
00000010: cd7a 0541 0789 ed40 f374 b640 3f21 9b40
00000020: fc8b a040 ae29 0041 e4cc 2140 1f5f 8640
00000030: 72a5 1940 e072 f33f f684 b23e d091 1940
00000040: b3fd dd3f 7a8e 7f3f 1d18 4e3f a44b 5a3f
00000050: 8c0f 193d d0d2 102b ee84 6c2d 4365 0e2d
6.9238715 7.8842864 10.0 10.0 8.342481 7.422977 5.701776 4.8478084
5.017088 8.010176 2.5281305 4.1991115 2.400723 1.9019432 0.34867066 2.3995247
1.7343048 0.99826777 0.80505544 0.8527167 0.037368342 5.145164e-13 1.3444563e-11 8.09425e-12

w f4 [1, 24, 1]
00000000: 5b90 dd40 134c fc40 0000 2041 0000 2041
00000010: cd7a 0541 0789 ed40 f374 b640 3f21 9b40
00000020: fc8b a040 ae29 0041 e4cc 2140 1f5f 8640
00000030: 72a5 1940 e072 f33f f684 b23e d091 1940
00000040: b3fd dd3f 7a8e 7f3f 1d18 4e3f a44b 5a3f
00000050: 8c0f 193d d0d2 102b ee84 6c2d 4365 0e2d
6.9238715 7.8842864 10.0 10.0 8.342481 7.422977 5.701776 4.8478084
5.017088 8.010176 2.5281305 4.1991115 2.400723 1.9019432 0.34867066 2.3995247
1.7343048 0.99826777 0.80505544 0.8527167 0.037368342 5.145164e-13 1.3444563e-11 8.09425e-12

w f4 [1, 24, 1]
00000000: 5b90 dd40 134c fc40 0000 2041 0000 2041
00000010: cd7a 0541 0789 ed40 f374 b640 3f21 9b40
00000020: fc8b a040 ae29 0041 e4cc 2140 1f5f 8640
00000030: 72a5 1940 e072 f33f f684 b23e d091 1940
00000040: b3fd dd3f 7a8e 7f3f 1d18 4e3f a44b 5a3f
00000050: 8c0f 193d d0d2 102b ee84 6c2d 4365 0e2d
6.9238715 7.8842864 10.0 10.0 8.342481 7.422977 5.701776 4.8478084
5.017088 8.010176 2.5281305 4.1991115 2.400723 1.9019432 0.34867066 2.3995247
1.7343048 0.99826777 0.80505544 0.8527167 0.037368342 5.145164e-13 1.3444563e-11 8.09425e-12

w f4 [1, 24, 1]
00000000: 5b90 dd40 134c fc40 0000 2041 0000 2041
00000010: cd7a 0541 0789 ed40 f374 b640 3f21 9b40
00000020: fc8b a040 ae29 0041 e4cc 2140 1f5f 8640
00000030: 72a5 1940 e072 f33f f684 b23e d091 1940
00000040: b3fd dd3f 7a8e 7f3f 1d18 4e3f a44b 5a3f
00000050: 8c0f 193d d0d2 102b ee84 6c2d 4365 0e2d
6.9238715 7.8842864 10.0 10.0 8.342481 7.422977 5.701776 4.8478084
5.017088 8.010176 2.5281305 4.1991115 2.400723 1.9019432 0.34867066 2.3995247
1.7343048 0.99826777 0.80505544 0.8527167 0.037368342 5.145164e-13 1.3444563e-11 8.09425e-12

w f4 [1, 24, 1]
00000000: 5b90 dd40 134c fc40 0000 2041 0000 2041
00000010: cd7a 0541 0789 ed40 f374 b640 3f21 9b40
00000020: fc8b a040 ae29 0041 e4cc 2140 1f5f 8640
00000030: 72a5 1940 e072 f33f f684 b23e d091 1940
00000040: b3fd dd3f 7a8e 7f3f 1d18 4e3f a44b 5a3f
00000050: 8c0f 193d d0d2 102b ee84 6c2d 4365 0e2d
6.9238715 7.8842864 10.0 10.0 8.342481 7.422977 5.701776 4.8478084
5.017088 8.010176 2.5281305 4.1991115 2.400723 1.9019432 0.34867066 2.3995247
1.7343048 0.99826777 0.80505544 0.8527167 0.037368342 5.145164e-13 1.3444563e-11 8.09425e-12

w f4 [1, 24, 1]
00000000: 5b90 dd40 134c fc40 0000 2041 0000 2041
00000010: cd7a 0541 0789 ed40 f374 b640 3f21 9b40
00000020: fc8b a040 ae29 0041 e4cc 2140 1f5f 8640
00000030: 72a5 1940 e072 f33f f684 b23e d091 1940
00000040: b3fd dd3f 7a8e 7f3f 1d18 4e3f a44b 5a3f
00000050: 8c0f 193d d0d2 102b ee84 6c2d 4365 0e2d
6.9238715 7.8842864 10.0 10.0 8.342481 7.422977 5.701776 4.8478084
5.017088 8.010176 2.5281305 4.1991115 2.400723 1.9019432 0.34867066 2.3995247
1.7343048 0.99826777 0.80505544 0.8527167 0.037368342 5.145164e-13 1.3444563e-11 8.09425e-12

w f4 [1, 24, 1]
00000000: 5b90 dd40 134c fc40 0000 2041 0000 2041
00000010: cd7a 0541 0789 ed40 f374 b640 3f21 9b40
00000020: fc8b a040 ae29 0041 e4cc 2140 1f5f 8640
00000030: 72a5 1940 e072 f33f f684 b23e d091 1940
00000040: b3fd dd3f 7a8e 7f3f 1d18 4e3f a44b 5a3f
00000050: 8c0f 193d d0d2 102b ee84 6c2d 4365 0e2d
6.9238715 7.8842864 10.0 10.0 8.342481 7.422977 5.701776 4.8478084
5.017088 8.010176 2.5281305 4.1991115 2.400723 1.9019432 0.34867066 2.3995247
1.7343048 0.99826777 0.80505544 0.8527167 0.037368342 5.145164e-13 1.3444563e-11 8.09425e-12

w f4 [1, 24, 1]
00000000: 5b90 dd40 134c fc40 0000 2041 0000 2041
00000010: cd7a 0541 0789 ed40 f374 b640 3f21 9b40
00000020: fc8b a040 ae29 0041 e4cc 2140 1f5f 8640
00000030: 72a5 1940 e072 f33f f684 b23e d091 1940
00000040: b3fd dd3f 7a8e 7f3f 1d18 4e3f a44b 5a3f
00000050: 8c0f 193d d0d2 102b ee84 6c2d 4365 0e2d
6.9238715 7.8842864 10.0 10.0 8.342481 7.422977 5.701776 4.8478084
5.017088 8.010176 2.5281305 4.1991115 2.400723 1.9019432 0.34867066 2.3995247
1.7343048 0.99826777 0.80505544 0.8527167 0.037368342 5.145164e-13 1.3444563e-11 8.09425e-12

w f4 [1, 24, 1]
00000000: 5b90 dd40 134c fc40 0000 2041 0000 2041
00000010: cd7a 0541 0789 ed40 f374 b640 3f21 9b40
00000020: fc8b a040 ae29 0041 e4cc 2140 1f5f 8640
00000030: 72a5 1940 e072 f33f f684 b23e d091 1940
00000040: b3fd dd3f 7a8e 7f3f 1d18 4e3f a44b 5a3f
00000050: 8c0f 193d d0d2 102b ee84 6c2d 4365 0e2d
6.9238715 7.8842864 10.0 10.0 8.342481 7.422977 5.701776 4.8478084
5.017088 8.010176 2.5281305 4.1991115 2.400723 1.9019432 0.34867066 2.3995247
1.7343048 0.99826777 0.80505544 0.8527167 0.037368342 5.145164e-13 1.3444563e-11 8.09425e-12

w f4 [1, 24, 1]
00000000: 5b90 dd40 134c fc40 0000 2041 0000 2041
00000010: cd7a 0541 0789 ed40 f374 b640 3f21 9b40
00000020: fc8b a040 ae29 0041 e4cc 2140 1f5f 8640
00000030: 72a5 1940 e072 f33f f684 b23e d091 1940
00000040: b3fd dd3f 7a8e 7f3f 1d18 4e3f a44b 5a3f
00000050: 8c0f 193d d0d2 102b ee84 6c2d 4365 0e2d
6.9238715 7.8842864 10.0 10.0 8.342481 7.422977 5.701776 4.8478084
5.017088 8.010176 2.5281305 4.1991115 2.400723 1.9019432 0.34867066 2.3995247
1.7343048 0.99826777 0.80505544 0.8527167 0.037368342 5.145164e-13 1.3444563e-11 8.09425e-12

w f4 [1, 24, 1]
00000000: 5b90 dd40 134c fc40 0000 2041 0000 2041
00000010: cd7a 0541 0789 ed40 f374 b640 3f21 9b40
00000020: fc8b a040 ae29 0041 e4cc 2140 1f5f 8640
00000030: 72a5 1940 e072 f33f f684 b23e d091 1940
00000040: b3fd dd3f 7a8e 7f3f 1d18 4e3f a44b 5a3f
00000050: 8c0f 193d d0d2 102b ee84 6c2d 4365 0e2d
6.9238715 7.8842864 10.0 10.0 8.342481 7.422977 5.701776 4.8478084
5.017088 8.010176 2.5281305 4.1991115 2.400723 1.9019432 0.34867066 2.3995247
1.7343048 0.99826777 0.80505544 0.8527167 0.037368342 5.145164e-13 1.3444563e-11 8.09425e-12

w f4 [1, 24, 1]
00000000: 5b90 dd40 134c fc40 0000 2041 0000 2041
00000010: cd7a 0541 0789 ed40 f374 b640 3f21 9b40
00000020: fc8b a040 ae29 0041 e4cc 2140 1f5f 8640
00000030: 72a5 1940 e072 f33f f684 b23e d091 1940
00000040: b3fd dd3f 7a8e 7f3f 1d18 4e3f a44b 5a3f
00000050: 8c0f 193d d0d2 102b ee84 6c2d 4365 0e2d
6.9238715 7.8842864 10.0 10.0 8.342481 7.422977 5.701776 4.8478084
5.017088 8.010176 2.5281305 4.1991115 2.400723 1.9019432 0.34867066 2.3995247
1.7343048 0.99826777 0.80505544 0.8527167 0.037368342 5.145164e-13 1.3444563e-11 8.09425e-12

w f4 [1, 24, 1]
00000000: 5b90 dd40 134c fc40 0000 2041 0000 2041
00000010: cd7a 0541 0789 ed40 f374 b640 3f21 9b40
00000020: fc8b a040 ae29 0041 e4cc 2140 1f5f 8640
00000030: 72a5 1940 e072 f33f f684 b23e d091 1940
00000040: b3fd dd3f 7a8e 7f3f 1d18 4e3f a44b 5a3f
00000050: 8c0f 193d d0d2 102b ee84 6c2d 4365 0e2d
6.9238715 7.8842864 10.0 10.0 8.342481 7.422977 5.701776 4.8478084
5.017088 8.010176 2.5281305 4.1991115 2.400723 1.9019432 0.34867066 2.3995247
1.7343048 0.99826777 0.80505544 0.8527167 0.037368342 5.145164e-13 1.3444563e-11 8.09425e-12

w f4 [1, 24, 1]
00000000: 5b90 dd40 134c fc40 0000 2041 0000 2041
00000010: cd7a 0541 0789 ed40 f374 b640 3f21 9b40
00000020: fc8b a040 ae29 0041 e4cc 2140 1f5f 8640
00000030: 72a5 1940 e072 f33f f684 b23e d091 1940
00000040: b3fd dd3f 7a8e 7f3f 1d18 4e3f a44b 5a3f
00000050: 8c0f 193d d0d2 102b ee84 6c2d 4365 0e2d
6.9238715 7.8842864 10.0 10.0 8.342481 7.422977 5.701776 4.8478084
5.017088 8.010176 2.5281305 4.1991115 2.400723 1.9019432 0.34867066 2.3995247
1.7343048 0.99826777 0.80505544 0.8527167 0.037368342 5.145164e-13 1.3444563e-11 8.09425e-12

w f4 [1, 24, 1]
00000000: 5b90 dd40 134c fc40 0000 2041 0000 2041
00000010: cd7a 0541 0789 ed40 f374 b640 3f21 9b40
00000020: fc8b a040 ae29 0041 e4cc 2140 1f5f 8640
00000030: 72a5 1940 e072 f33f f684 b23e d091 1940
00000040: b3fd dd3f 7a8e 7f3f 1d18 4e3f a44b 5a3f
00000050: 8c0f 193d d0d2 102b ee84 6c2d 4365 0e2d
6.9238715 7.8842864 10.0 10.0 8.342481 7.422977 5.701776 4.8478084
5.017088 8.010176 2.5281305 4.1991115 2.400723 1.9019432 0.34867066 2.3995247
1.7343048 0.99826777 0.80505544 0.8527167 0.037368342 5.145164e-13 1.3444563e-11 8.09425e-12

w f4 [1, 24, 1]
00000000: 5b90 dd40 134c fc40 0000 2041 0000 2041
00000010: cd7a 0541 0789 ed40 f374 b640 3f21 9b40
00000020: fc8b a040 ae29 0041 e4cc 2140 1f5f 8640
00000030: 72a5 1940 e072 f33f f684 b23e d091 1940
00000040: b3fd dd3f 7a8e 7f3f 1d18 4e3f a44b 5a3f
00000050: 8c0f 193d d0d2 102b ee84 6c2d 4365 0e2d
6.9238715 7.8842864 10.0 10.0 8.342481 7.422977 5.701776 4.8478084
5.017088 8.010176 2.5281305 4.1991115 2.400723 1.9019432 0.34867066 2.3995247
1.7343048 0.99826777 0.80505544 0.8527167 0.037368342 5.145164e-13 1.3444563e-11 8.09425e-12

w f4 [1, 24, 1]
00000000: 5b90 dd40 134c fc40 0000 2041 0000 2041
00000010: cd7a 0541 0789 ed40 f374 b640 3f21 9b40
00000020: fc8b a040 ae29 0041 e4cc 2140 1f5f 8640
00000030: 72a5 1940 e072 f33f f684 b23e d091 1940
00000040: b3fd dd3f 7a8e 7f3f 1d18 4e3f a44b 5a3f
00000050: 8c0f 193d d0d2 102b ee84 6c2d 4365 0e2d
6.9238715 7.8842864 10.0 10.0 8.342481 7.422977 5.701776 4.8478084
5.017088 8.010176 2.5281305 4.1991115 2.400723 1.9019432 0.34867066 2.3995247
1.7343048 0.99826777 0.80505544 0.8527167 0.037368342 5.145164e-13 1.3444563e-11 8.09425e-12

w f4 [1, 24, 1]
00000000: 5b90 dd40 134c fc40 0000 2041 0000 2041
00000010: cd7a 0541 0789 ed40 f374 b640 3f21 9b40
00000020: fc8b a040 ae29 0041 e4cc 2140 1f5f 8640
00000030: 72a5 1940 e072 f33f f684 b23e d091 1940
00000040: b3fd dd3f 7a8e 7f3f 1d18 4e3f a44b 5a3f
00000050: 8c0f 193d d0d2 102b ee84 6c2d 4365 0e2d
6.9238715 7.8842864 10.0 10.0 8.342481 7.422977 5.701776 4.8478084
5.017088 8.010176 2.5281305 4.1991115 2.400723 1.9019432 0.34867066 2.3995247
1.7343048 0.99826777 0.80505544 0.8527167 0.037368342 5.145164e-13 1.3444563e-11 8.09425e-12

w f4 [1, 24, 1]
00000000: 5b90 dd40 134c fc40 0000 2041 0000 2041
00000010: cd7a 0541 0789 ed40 f374 b640 3f21 9b40
00000020: fc8b a040 ae29 0041 e4cc 2140 1f5f 8640
00000030: 72a5 1940 e072 f33f f684 b23e d091 1940
00000040: b3fd dd3f 7a8e 7f3f 1d18 4e3f a44b 5a3f
00000050: 8c0f 193d d0d2 102b ee84 6c2d 4365 0e2d
6.9238715 7.8842864 10.0 10.0 8.342481 7.422977 5.701776 4.8478084
5.017088 8.010176 2.5281305 4.1991115 2.400723 1.9019432 0.34867066 2.3995247
1.7343048 0.99826777 0.80505544 0.8527167 0.037368342 5.145164e-13 1.3444563e-11 8.09425e-12

w f4 [1, 24, 1]
00000000: 5b90 dd40 134c fc40 0000 2041 0000 2041
00000010: cd7a 0541 0789 ed40 f374 b640 3f21 9b40
00000020: fc8b a040 ae29 0041 e4cc 2140 1f5f 8640
00000030: 72a5 1940 e072 f33f f684 b23e d091 1940
00000040: b3fd dd3f 7a8e 7f3f 1d18 4e3f a44b 5a3f
00000050: 8c0f 193d d0d2 102b ee84 6c2d 4365 0e2d
6.9238715 7.8842864 10.0 10.0 8.342481 7.422977 5.701776 4.8478084
5.017088 8.010176 2.5281305 4.1991115 2.400723 1.9019432 0.34867066 2.3995247
1.7343048 0.99826777 0.80505544 0.8527167 0.037368342 5.145164e-13 1.3444563e-11 8.09425e-12

w f4 [1, 24, 1]
00000000: 5b90 dd40 134c fc40 0000 2041 0000 2041
00000010: cd7a 0541 0789 ed40 f374 b640 3f21 9b40
00000020: fc8b a040 ae29 0041 e4cc 2140 1f5f 8640
00000030: 72a5 1940 e072 f33f f684 b23e d091 1940
00000040: b3fd dd3f 7a8e 7f3f 1d18 4e3f a44b 5a3f
00000050: 8c0f 193d d0d2 102b ee84 6c2d 4365 0e2d
6.9238715 7.8842864 10.0 10.0 8.342481 7.422977 5.701776 4.8478084
5.017088 8.010176 2.5281305 4.1991115 2.400723 1.9019432 0.34867066 2.3995247
1.7343048 0.99826777 0.80505544 0.8527167 0.037368342 5.145164e-13 1.3444563e-11 8.09425e-12

w f4 [1, 24, 1]
00000000: 5b90 dd40 134c fc40 0000 2041 0000 2041
00000010: cd7a 0541 0789 ed40 f374 b640 3f21 9b40
00000020: fc8b a040 ae29 0041 e4cc 2140 1f5f 8640
00000030: 72a5 1940 e072 f33f f684 b23e d091 1940
00000040: b3fd dd3f 7a8e 7f3f 1d18 4e3f a44b 5a3f
00000050: 8c0f 193d d0d2 102b ee84 6c2d 4365 0e2d
6.9238715 7.8842864 10.0 10.0 8.342481 7.422977 5.701776 4.8478084
5.017088 8.010176 2.5281305 4.1991115 2.400723 1.9019432 0.34867066 2.3995247
1.7343048 0.99826777 0.80505544 0.8527167 0.037368342 5.145164e-13 1.3444563e-11 8.09425e-12

w f4 [1, 24, 1]
00000000: 5b90 dd40 134c fc40 0000 2041 0000 2041
00000010: cd7a 0541 0789 ed40 f374 b640 3f21 9b40
00000020: fc8b a040 ae29 0041 e4cc 2140 1f5f 8640
00000030: 72a5 1940 e072 f33f f684 b23e d091 1940
00000040: b3fd dd3f 7a8e 7f3f 1d18 4e3f a44b 5a3f
00000050: 8c0f 193d d0d2 102b ee84 6c2d 4365 0e2d
6.9238715 7.8842864 10.0 10.0 8.342481 7.422977 5.701776 4.8478084
5.017088 8.010176 2.5281305 4.1991115 2.400723 1.9019432 0.34867066 2.3995247
1.7343048 0.99826777 0.80505544 0.8527167 0.037368342 5.145164e-13 1.3444563e-11 8.09425e-12

w f4 [1, 24, 1]
00000000: 5b90 dd40 134c fc40 0000 2041 0000 2041
00000010: cd7a 0541 0789 ed40 f374 b640 3f21 9b40
00000020: fc8b a040 ae29 0041 e4cc 2140 1f5f 8640
00000030: 72a5 1940 e072 f33f f684 b23e d091 1940
00000040: b3fd dd3f 7a8e 7f3f 1d18 4e3f a44b 5a3f
00000050: 8c0f 193d d0d2 102b ee84 6c2d 4365 0e2d
6.9238715 7.8842864 10.0 10.0 8.342481 7.422977 5.701776 4.8478084
5.017088 8.010176 2.5281305 4.1991115 2.400723 1.9019432 0.34867066 2.3995247
1.7343048 0.99826777 0.80505544 0.8527167 0.037368342 5.145164e-13 1.3444563e-11 8.09425e-12

w f4 [1, 24, 1]
00000000: 5b90 dd40 134c fc40 0000 2041 0000 2041
00000010: cd7a 0541 0789 ed40 f374 b640 3f21 9b40
00000020: fc8b a040 ae29 0041 e4cc 2140 1f5f 8640
00000030: 72a5 1940 e072 f33f f684 b23e d091 1940
00000040: b3fd dd3f 7a8e 7f3f 1d18 4e3f a44b 5a3f
00000050: 8c0f 193d d0d2 102b ee84 6c2d 4365 0e2d
6.9238715 7.8842864 10.0 10.0 8.342481 7.422977 5.701776 4.8478084
5.017088 8.010176 2.5281305 4.1991115 2.400723 1.9019432 0.34867066 2.3995247
1.7343048 0.99826777 0.80505544 0.8527167 0.037368342 5.145164e-13 1.3444563e-11 8.09425e-12

w f4 [1, 24, 1]
00000000: 5b90 dd40 134c fc40 0000 2041 0000 2041
00000010: cd7a 0541 0789 ed40 f374 b640 3f21 9b40
00000020: fc8b a040 ae29 0041 e4cc 2140 1f5f 8640
00000030: 72a5 1940 e072 f33f f684 b23e d091 1940
00000040: b3fd dd3f 7a8e 7f3f 1d18 4e3f a44b 5a3f
00000050: 8c0f 193d d0d2 102b ee84 6c2d 4365 0e2d
6.9238715 7.8842864 10.0 10.0 8.342481 7.422977 5.701776 4.8478084
5.017088 8.010176 2.5281305 4.1991115 2.400723 1.9019432 0.34867066 2.3995247
1.7343048 0.99826777 0.80505544 0.8527167 0.037368342 5.145164e-13 1.3444563e-11 8.09425e-12

w f4 [1, 24, 1]
00000000: 5b90 dd40 134c fc40 0000 2041 0000 2041
00000010: cd7a 0541 0789 ed40 f374 b640 3f21 9b40
00000020: fc8b a040 ae29 0041 e4cc 2140 1f5f 8640
00000030: 72a5 1940 e072 f33f f684 b23e d091 1940
00000040: b3fd dd3f 7a8e 7f3f 1d18 4e3f a44b 5a3f
00000050: 8c0f 193d d0d2 102b ee84 6c2d 4365 0e2d
6.9238715 7.8842864 10.0 10.0 8.342481 7.422977 5.701776 4.8478084
5.017088 8.010176 2.5281305 4.1991115 2.400723 1.9019432 0.34867066 2.3995247
1.7343048 0.99826777 0.80505544 0.8527167 0.037368342 5.145164e-13 1.3444563e-11 8.09425e-12

w f4 [1, 24, 1]
00000000: 5b90 dd40 134c fc40 0000 2041 0000 2041
00000010: cd7a 0541 0789 ed40 f374 b640 3f21 9b40
00000020: fc8b a040 ae29 0041 e4cc 2140 1f5f 8640
00000030: 72a5 1940 e072 f33f f684 b23e d091 1940
00000040: b3fd dd3f 7a8e 7f3f 1d18 4e3f a44b 5a3f
00000050: 8c0f 193d d0d2 102b ee84 6c2d 4365 0e2d
6.9238715 7.8842864 10.0 10.0 8.342481 7.422977 5.701776 4.8478084
5.017088 8.010176 2.5281305 4.1991115 2.400723 1.9019432 0.34867066 2.3995247
1.7343048 0.99826777 0.80505544 0.8527167 0.037368342 5.145164e-13 1.3444563e-11 8.09425e-12

w f4 [1, 24, 1]
00000000: 5b90 dd40 134c fc40 0000 2041 0000 2041
00000010: cd7a 0541 0789 ed40 f374 b640 3f21 9b40
00000020: fc8b a040 ae29 0041 e4cc 2140 1f5f 8640
00000030: 72a5 1940 e072 f33f f684 b23e d091 1940
00000040: b3fd dd3f 7a8e 7f3f 1d18 4e3f a44b 5a3f
00000050: 8c0f 193d d0d2 102b ee84 6c2d 4365 0e2d
6.9238715 7.8842864 10.0 10.0 8.342481 7.422977 5.701776 4.8478084
5.017088 8.010176 2.5281305 4.1991115 2.400723 1.9019432 0.34867066 2.3995247
1.7343048 0.99826777 0.80505544 0.8527167 0.037368342 5.145164e-13 1.3444563e-11 8.09425e-12

w f4 [1, 24, 1]
00000000: 5b90 dd40 134c fc40 0000 2041 0000 2041
00000010: cd7a 0541 0789 ed40 f374 b640 3f21 9b40
00000020: fc8b a040 ae29 0041 e4cc 2140 1f5f 8640
00000030: 72a5 1940 e072 f33f f684 b23e d091 1940
00000040: b3fd dd3f 7a8e 7f3f 1d18 4e3f a44b 5a3f
00000050: 8c0f 193d d0d2 102b ee84 6c2d 4365 0e2d
6.9238715 7.8842864 10.0 10.0 8.342481 7.422977 5.701776 4.8478084
5.017088 8.010176 2.5281305 4.1991115 2.400723 1.9019432 0.34867066 2.3995247
1.7343048 0.99826777 0.80505544 0.8527167 0.037368342 5.145164e-13 1.3444563e-11 8.09425e-12
