SNN_Codes/Spiking_codes/control/rudder1.pt (torch, 531916 bytes, 505 tensors)

x f4 [1, 40]
0	0x00000000	0.0
1	0x00000000	0.0
2	0x00000000	0.0
3	0x00000000	0.0
4	0x00000000	0.0
5	0x00000000	0.0
6	0x00000000	0.0
7	0x00000000	0.0
8	0x0000000a	1.4e-44
9	0x0000000a	1.4e-44
10	0x00000000	0.0
11	0x00000000	0.0
12	0x0000000a	1.4e-44
13	0x0000000a	1.4e-44
14	0x00000000	0.0
15	0x00000000	0.0
16	0x0000000a	1.4e-44
17	0x0000000a	1.4e-44
18	0x0000000a	1.4e-44
19	0x0000000a	1.4e-44
20	0x0000000a	1.4e-44
21	0x0000000a	1.4e-44
22	0x2d5d1293	1.256652e-11
23	0x2d68683d	1.3210819e-11
24	0x095e8ad6	2.6787558e-33
25	0x0953b056	2.5481114e-33
26	0x3f5c575d	0.86070806
27	0x3f475f7f	0.7788009
28	0x0000000a	1.4e-44
29	0x0000000a	1.4e-44
30	0x00000000	0.0
31	0x00000000	0.0
32	0x00000000	0.0
33	0x00000000	0.0
34	0x00000000	0.0
35	0x00000000	0.0
36	0x00000000	0.0
37	0x00000000	0.0
38	0x00000000	0.0
39	0x00000000	0.0

w f4 [40, 1]
0	0x41200000	10.0
1	0x41200000	10.0
2	0x41200000	10.0
3	0x41200000	10.0
4	0x41200000	10.0
5	0x41200000	10.0
6	0x411cfc29	9.811563
7	0x4116f849	9.4356165
8	0x41200000	10.0
9	0x41132322	9.196077
10	0x40b92e5d	5.7869096
11	0x40d9122c	6.7834682
12	0x408932bb	4.2874427
13	0x40daf23d	6.84207
14	0x40487c1f	3.1325758
15	0x4090c245	4.5237145
16	0x405165af	3.2718313
17	0x3fe76454	1.8077493
18	0x400c26d4	2.1898699
19	0x41044590	8.266983
20	0x3fe92a8f	1.8216113
21	0x40620736	3.5316901
22	0x40d70741	6.7196355
23	0x408ff4e7	4.4986453
24	0x3ed0003f	0.40625188
25	0x4001265b	2.017966
26	0x40254a8a	2.5826745
27	0x4007c08e	2.1211276
28	0x40099da4	2.1502466
29	0x3ffe0dee	1.9848001
30	0x400625dc	2.0960608
31	0x401f81f9	2.492308
32	0x3ef07070	0.46960783
33	0x3e27618d	0.16345806
34	0x2b30bee2	6.2792664e-13
35	0x2b0f546b	5.092096e-13
36	0x3f1da51a	0.6158005
37	0x3f6da055	0.9282277
38	0x06e3ca74	8.568539e-35
39	0x06f96054	9.380493e-35

nu f4 [2]
0	0x3f800000	1.0
1	0x3f800000	1.0

p_plus f4 [1, 40]
0	0x0000000a	1.4e-44
1	0x0000000a	1.4e-44
2	0x0000000a	1.4e-44
3	0x0000000a	1.4e-44
4	0x0000000a	1.4e-44
5	0x0000000a	1.4e-44
6	0x0000000a	1.4e-44
7	0x0000000a	1.4e-44
8	0x0000000a	1.4e-44
9	0x0000000a	1.4e-44
10	0x0000000a	1.4e-44
11	0x0000000a	1.4e-44
12	0x0000000a	1.4e-44
13	0x0000000a	1.4e-44
14	0x0000000a	1.4e-44
15	0x0000000a	1.4e-44
16	0x0000000a	1.4e-44
17	0x0000000a	1.4e-44
18	0x0000007e	1.77e-43
19	0x0000008f	2e-43
20	0x0a8b2863	1.3400405e-32
21	0x0a80a810	1.238917e-32
22	0x0000000a	1.4e-44
23	0x0000000a	1.4e-44
24	0x1c83f634	8.732495e-22
25	0x1c8b5d11	9.222306e-22
26	0x408d817e	4.422057
27	0x40d23ffd	6.570311
28	0x0000000a	1.4e-44
29	0x0000000a	1.4e-44
30	0x0000000a	1.4e-44
31	0x0000000a	1.4e-44
32	0x0000000a	1.4e-44
33	0x0000000a	1.4e-44
34	0x0000000a	1.4e-44
35	0x0000000a	1.4e-44
36	0x0000000a	1.4e-44
37	0x0000000a	1.4e-44
38	0x0000000a	1.4e-44
39	0x0000000a	1.4e-44

eligibility f4 [1, 40, 1]
0	0x00000000	0.0
1	0x00000000	0.0
2	0x00000000	0.0
3	0x00000000	0.0
4	0x00000000	0.0
5	0x00000000	0.0
6	0x00000000	0.0
7	0x00000000	0.0
8	0x00000000	0.0
9	0x00000000	0.0
10	0x00000000	0.0
11	0x00000000	0.0
12	0x00000000	0.0
13	0x00000000	0.0
14	0x00000000	0.0
15	0x00000000	0.0
16	0x00000000	0.0
17	0x00000000	0.0
18	0x00000000	0.0
19	0x00000000	0.0
20	0x00000000	0.0
21	0x00000000	0.0
22	0x00000000	0.0
23	0x00000000	0.0
24	0x00000000	0.0
25	0x00000000	0.0
26	0x00000000	0.0
27	0xbf8df17c	-1.108932
28	0x00000000	0.0
29	0x00000000	0.0
30	0x00000000	0.0
31	0x00000000	0.0
32	0x00000000	0.0
33	0x00000000	0.0
34	0x00000000	0.0
35	0x00000000	0.0
36	0x00000000	0.0
37	0x00000000	0.0
38	0x00000000	0.0
39	0x00000000	0.0

w f4 [1, 40, 1]
0	0x41200000	10.0
1	0x41200000	10.0
2	0x41200000	10.0
3	0x41200000	10.0
4	0x41200000	10.0
5	0x41200000	10.0
6	0x411cfc29	9.811563
7	0x4116f849	9.4356165
8	0x41200000	10.0
9	0x41132322	9.196077
10	0x40b92e5d	5.7869096
11	0x40d9122c	6.7834682
12	0x408932bb	4.2874427
13	0x40daf23d	6.84207
14	0x40487c1f	3.1325758
15	0x4090c245	4.5237145
16	0x405165af	3.2718313
17	0x3fe76454	1.8077493
18	0x400c26d4	2.1898699
19	0x41044590	8.266983
20	0x3fe92a8f	1.8216113
21	0x40620736	3.5316901
22	0x40d70741	6.7196355
23	0x408ff4e7	4.4986453
24	0x3ed0003f	0.40625188
25	0x4001265b	2.017966
26	0x40254a8a	2.5826745
27	0x4007c08e	2.1211276
28	0x40099da4	2.1502466
29	0x3ffe0dee	1.9848001
30	0x400625dc	2.0960608
31	0x401f81f9	2.492308
32	0x3ef07070	0.46960783
33	0x3e27618d	0.16345806
34	0x2b30bee2	6.2792664e-13
35	0x2b0f546b	5.092096e-13
36	0x3f1da51a	0.6158005
37	0x3f6da055	0.9282277
38	0x06e3ca74	8.568539e-35
39	0x06f96054	9.380493e-35

w f4 [1, 40, 1]
0	0x41200000	10.0
1	0x41200000	10.0
2	0x41200000	10.0
3	0x41200000	10.0
4	0x41200000	10.0
5	0x41200000	10.0
6	0x411cfc29	9.811563
7	0x4116f849	9.4356165
8	0x41200000	10.0
9	0x41132322	9.196077
10	0x40b92e5d	5.7869096
11	0x40d9122c	6.7834682
12	0x408932bb	4.2874427
13	0x40daf23d	6.84207
14	0x40487c1f	3.1325758
15	0x4090c245	4.5237145
16	0x405165af	3.2718313
17	0x3fe76454	1.8077493
18	0x400c26d4	2.1898699
19	0x41044590	8.266983
20	0x3fe92a8f	1.8216113
21	0x40620736	3.5316901
22	0x40d70741	6.7196355
23	0x408ff4e7	4.4986453
24	0x3ed0003f	0.40625188
25	0x4001265b	2.017966
26	0x40254a8a	2.5826745
27	0x4007c08e	2.1211276
28	0x40099da4	2.1502466
29	0x3ffe0dee	1.9848001
30	0x400625dc	2.0960608
31	0x401f81f9	2.492308
32	0x3ef07070	0.46960783
33	0x3e27618d	0.16345806
34	0x2b30bee2	6.2792664e-13
35	0x2b0f546b	5.092096e-13
36	0x3f1da51a	0.6158005
37	0x3f6da055	0.9282277
38	0x06e3ca74	8.568539e-35
39	0x06f96054	9.380493e-35

w f4 [1, 40, 1]
0	0x41200000	10.0
1	0x41200000	10.0
2	0x41200000	10.0
3	0x41200000	10.0
4	0x41200000	10.0
5	0x41200000	10.0
6	0x411cfc29	9.811563
7	0x4116f849	9.4356165
8	0x41200000	10.0
9	0x41132322	9.196077
10	0x40b92e5d	5.7869096
11	0x40d9122c	6.7834682
12	0x408932bb	4.2874427
13	0x40daf23d	6.84207
14	0x40487c1f	3.1325758
15	0x4090c245	4.5237145
16	0x405165af	3.2718313
17	0x3fe76454	1.8077493
18	0x400c26d4	2.1898699
19	0x41044590	8.266983
20	0x3fe92a8f	1.8216113
21	0x40620736	3.5316901
22	0x40d70741	6.7196355
23	0x408ff4e7	4.4986453
24	0x3ed0003f	0.40625188
25	0x4001265b	2.017966
26	0x40254a8a	2.5826745
27	0x4007c08e	2.1211276
28	0x40099da4	2.1502466
29	0x3ffe0dee	1.9848001
30	0x400625dc	2.0960608
31	0x401f81f9	2.492308
32	0x3ef07070	0.46960783
33	0x3e27618d	0.16345806
34	0x2b30bee2	6.2792664e-13
35	0x2b0f546b	5.092096e-13
36	0x3f1da51a	0.6158005
37	0x3f6da055	0.9282277
38	0x06e3ca74	8.568539e-35
39	0x06f96054	9.380493e-35

w f4 [1, 40, 1]
0	0x41200000	10.0
1	0x41200000	10.0
2	0x41200000	10.0
3	0x41200000	10.0
4	0x41200000	10.0
5	0x41200000	10.0
6	0x411cfc29	9.811563
7	0x4116f849	9.4356165
8	0x41200000	10.0
9	0x41132322	9.196077
10	0x40b92e5d	5.7869096
11	0x40d9122c	6.7834682
12	0x408932bb	4.2874427
13	0x40daf23d	6.84207
14	0x40487c1f	3.1325758
15	0x4090c245	4.5237145
16	0x405165af	3.2718313
17	0x3fe76454	1.8077493
18	0x400c26d4	2.1898699
19	0x41044590	8.266983
20	0x3fe92a8f	1.8216113
21	0x40620736	3.5316901
22	0x40d70741	6.7196355
23	0x408ff4e7	4.4986453
24	0x3ed0003f	0.40625188
25	0x4001265b	2.017966
26	0x40254a8a	2.5826745
27	0x4007c08e	2.1211276
28	0x40099da4	2.1502466
29	0x3ffe0dee	1.9848001
30	0x400625dc	2.0960608
31	0x401f81f9	2.492308
32	0x3ef07070	0.46960783
33	0x3e27618d	0.16345806
34	0x2b30bee2	6.2792664e-13
35	0x2b0f546b	5.092096e-13
36	0x3f1da51a	0.6158005
37	0x3f6da055	0.9282277
38	0x06e3ca74	8.568539e-35
39	0x06f96054	9.380493e-35

w f4 [1, 40, 1]
0	0x41200000	10.0
1	0x41200000	10.0
2	0x41200000	10.0
3	0x41200000	10.0
4	0x41200000	10.0
5	0x41200000	10.0
6	0x411cfc29	9.811563
7	0x4116f849	9.4356165
8	0x41200000	10.0
9	0x41132322	9.196077
10	0x40b92e5d	5.7869096
11	0x40d9122c	6.7834682
12	0x408932bb	4.2874427
13	0x40daf23d	6.84207
14	0x40487c1f	3.1325758
15	0x4090c245	4.5237145
16	0x405165af	3.2718313
17	0x3fe76454	1.8077493
18	0x400c26d4	2.1898699
19	0x41044590	8.266983
20	0x3fe92a8f	1.8216113
21	0x40620736	3.5316901
22	0x40d70741	6.7196355
23	0x408ff4e7	4.4986453
24	0x3ed0003f	0.40625188
25	0x4001265b	2.017966
26	0x40254a8a	2.5826745
27	0x4007c08e	2.1211276
28	0x40099da4	2.1502466
29	0x3ffe0dee	1.9848001
30	0x400625dc	2.0960608
31	0x401f81f9	2.492308
32	0x3ef07070	0.46960783
33	0x3e27618d	0.16345806
34	0x2b30bee2	6.2792664e-13
35	0x2b0f546b	5.092096e-13
36	0x3f1da51a	0.6158005
37	0x3f6da055	0.9282277
38	0x06e3ca74	8.568539e-35
39	0x06f96054	9.380493e-35

w f4 [1, 40, 1]
0	0x41200000	10.0
1	0x41200000	10.0
2	0x41200000	10.0
3	0x41200000	10.0
4	0x41200000	10.0
5	0x41200000	10.0
6	0x411cfc29	9.811563
7	0x4116f849	9.4356165
8	0x41200000	10.0
9	0x41132322	9.196077
10	0x40b92e5d	5.7869096
11	0x40d9122c	6.7834682
12	0x408932bb	4.2874427
13	0x40daf23d	6.84207
14	0x40487c1f	3.1325758
15	0x4090c245	4.5237145
16	0x405165af	3.2718313
17	0x3fe76454	1.8077493
18	0x400c26d4	2.1898699
19	0x41044590	8.266983
20	0x3fe92a8f	1.8216113
21	0x40620736	3.5316901
22	0x40d70741	6.7196355
23	0x408ff4e7	4.4986453
24	0x3ed0003f	0.40625188
25	0x4001265b	2.017966
26	0x40254a8a	2.5826745
27	0x4007c08e	2.1211276
28	0x40099da4	2.1502466
29	0x3ffe0dee	1.9848001
30	0x400625dc	2.0960608
31	0x401f81f9	2.492308
32	0x3ef07070	0.46960783
33	0x3e27618d	0.16345806
34	0x2b30bee2	6.2792664e-13
35	0x2b0f546b	5.092096e-13
36	0x3f1da51a	0.6158005
37	0x3f6da055	0.9282277
38	0x06e3ca74	8.568539e-35
39	0x06f96054	9.380493e-35

w f4 [1, 40, 1]
0	0x41200000	10.0
1	0x41200000	10.0
2	0x41200000	10.0
3	0x41200000	10.0
4	0x41200000	10.0
5	0x41200000	10.0
6	0x411cfc29	9.811563
7	0x4116f849	9.4356165
8	0x41200000	10.0
9	0x41132322	9.196077
10	0x40b92e5d	5.7869096
11	0x40d9122c	6.7834682
12	0x408932bb	4.2874427
13	0x40daf23d	6.84207
14	0x40487c1f	3.1325758
15	0x4090c245	4.5237145
16	0x405165af	3.2718313
17	0x3fe76454	1.8077493
18	0x400c26d4	2.1898699
19	0x41044590	8.266983
20	0x3fe92a8f	1.8216113
21	0x40620736	3.5316901
22	0x40d70741	6.7196355
23	0x408ff4e7	4.4986453
24	0x3ed0003f	0.40625188
25	0x4001265b	2.017966
26	0x40254a8a	2.5826745
27	0x4007c08e	2.1211276
28	0x40099da4	2.1502466
29	0x3ffe0dee	1.9848001
30	0x400625dc	2.0960608
31	0x401f81f9	2.492308
32	0x3ef07070	0.46960783
33	0x3e27618d	0.16345806
34	0x2b30bee2	6.2792664e-13
35	0x2b0f546b	5.092096e-13
36	0x3f1da51a	0.6158005
37	0x3f6da055	0.9282277
38	0x06e3ca74	8.568539e-35
39	0x06f96054	9.380493e-35

w f4 [1, 40, 1]
0	0x41200000	10.0
1	0x41200000	10.0
2	0x41200000	10.0
3	0x41200000	10.0
4	0x41200000	10.0
5	0x41200000	10.0
6	0x411cfc29	9.811563
7	0x4116f849	9.4356165
8	0x41200000	10.0
9	0x41132322	9.196077
10	0x40b92e5d	5.7869096
11	0x40d9122c	6.7834682
12	0x408932bb	4.2874427
13	0x40daf23d	6.84207
14	0x40487c1f	3.1325758
15	0x4090c245	4.5237145
16	0x405165af	3.2718313
17	0x3fe76454	1.8077493
18	0x400c26d4	2.1898699
19	0x41044590	8.266983
20	0x3fe92a8f	1.8216113
21	0x40620736	3.5316901
22	0x40d70741	6.7196355
23	0x408ff4e7	4.4986453
24	0x3ed0003f	0.40625188
25	0x4001265b	2.017966
26	0x40254a8a	2.5826745
27	0x4007c08e	2.1211276
28	0x40099da4	2.1502466
29	0x3ffe0dee	1.9848001
30	0x400625dc	2.0960608
31	0x401f81f9	2.492308
32	0x3ef07070	0.46960783
33	0x3e27618d	0.16345806
34	0x2b30bee2	6.2792664e-13
35	0x2b0f546b	5.092096e-13
36	0x3f1da51a	0.6158005
37	0x3f6da055	0.9282277
38	0x06e3ca74	8.568539e-35
39	0x06f96054	9.380493e-35

w f4 [1, 40, 1]
0	0x41200000	10.0
1	0x41200000	10.0
2	0x41200000	10.0
3	0x41200000	10.0
4	0x41200000	10.0
5	0x41200000	10.0
6	0x411cfc29	9.811563
7	0x4116f849	9.4356165
8	0x41200000	10.0
9	0x41132322	9.196077
10	0x40b92e5d	5.7869096
11	0x40d9122c	6.7834682
12	0x408932bb	4.2874427
13	0x40daf23d	6.84207
14	0x40487c1f	3.1325758
15	0x4090c245	4.5237145
16	0x405165af	3.2718313
17	0x3fe76454	1.8077493
18	0x400c26d4	2.1898699
19	0x41044590	8.266983
20	0x3fe92a8f	1.8216113
21	0x40620736	3.5316901
22	0x40d70741	6.7196355
23	0x408ff4e7	4.4986453
24	0x3ed0003f	0.40625188
25	0x4001265b	2.017966
26	0x40254a8a	2.5826745
27	0x4007c08e	2.1211276
28	0x40099da4	2.1502466
29	0x3ffe0dee	1.9848001
30	0x400625dc	2.0960608
31	0x401f81f9	2.492308
32	0x3ef07070	0.46960783
33	0x3e27618d	0.16345806
34	0x2b30bee2	6.2792664e-13
35	0x2b0f546b	5.092096e-13
36	0x3f1da51a	0.6158005
37	0x3f6da055	0.9282277
38	0x06e3ca74	8.568539e-35
39	0x06f96054	9.380493e-35

w f4 [1, 40, 1]
0	0x41200000	10.0
1	0x41200000	10.0
2	0x41200000	10.0
3	0x41200000	10.0
4	0x41200000	10.0
5	0x41200000	10.0
6	0x411cfc29	9.811563
7	0x4116f849	9.4356165
8	0x41200000	10.0
9	0x41132322	9.196077
10	0x40b92e5d	5.7869096
11	0x40d9122c	6.7834682
12	0x408932bb	4.2874427
13	0x40daf23d	6.84207
14	0x40487c1f	3.1325758
15	0x4090c245	4.5237145
16	0x405165af	3.2718313
17	0x3fe76454	1.8077493
18	0x400c26d4	2.1898699
19	0x41044590	8.266983
20	0x3fe92a8f	1.8216113
21	0x40620736	3.5316901
22	0x40d70741	6.7196355
23	0x408ff4e7	4.4986453
24	0x3ed0003f	0.40625188
25	0x4001265b	2.017966
26	0x40254a8a	2.5826745
27	0x4007c08e	2.1211276
28	0x40099da4	2.1502466
29	0x3ffe0dee	1.9848001
30	0x400625dc	2.0960608
31	0x401f81f9	2.492308
32	0x3ef07070	0.46960783
33	0x3e27618d	0.16345806
34	0x2b30bee2	6.2792664e-13
35	0x2b0f546b	5.092096e-13
36	0x3f1da51a	0.6158005
37	0x3f6da055	0.9282277
38	0x06e3ca74	8.568539e-35
39	0x06f96054	9.380493e-35

w f4 [1, 40, 1]
0	0x41200000	10.0
1	0x41200000	10.0
2	0x41200000	10.0
3	0x41200000	10.0
4	0x41200000	10.0
5	0x41200000	10.0
6	0x411cfc29	9.811563
7	0x4116f849	9.4356165
8	0x41200000	10.0
9	0x41132322	9.196077
10	0x40b92e5d	5.7869096
11	0x40d9122c	6.7834682
12	0x408932bb	4.2874427
13	0x40daf23d	6.84207
14	0x40487c1f	3.1325758
15	0x4090c245	4.5237145
16	0x405165af	3.2718313
17	0x3fe76454	1.8077493
18	0x400c26d4	2.1898699
19	0x41044590	8.266983
20	0x3fe92a8f	1.8216113
21	0x40620736	3.5316901
22	0x40d70741	6.7196355
23	0x408ff4e7	4.4986453
24	0x3ed0003f	0.40625188
25	0x4001265b	2.017966
26	0x40254a8a	2.5826745
27	0x4007c08e	2.1211276
28	0x40099da4	2.1502466
29	0x3ffe0dee	1.9848001
30	0x400625dc	2.0960608
31	0x401f81f9	2.492308
32	0x3ef07070	0.46960783
33	0x3e27618d	0.16345806
34	0x2b30bee2	6.2792664e-13
35	0x2b0f546b	5.092096e-13
36	0x3f1da51a	0.6158005
37	0x3f6da055	0.9282277
38	0x06e3ca74	8.568539e-35
39	0x06f96054	9.380493e-35

w f4 [1, 40, 1]
0	0x41200000	10.0
1	0x41200000	10.0
2	0x41200000	10.0
3	0x41200000	10.0
4	0x41200000	10.0
5	0x41200000	10.0
6	0x411cfc29	9.811563
7	0x4116f849	9.4356165
8	0x41200000	10.0
9	0x41132322	9.196077
10	0x40b92e5d	5.7869096
11	0x40d9122c	6.7834682
12	0x408932bb	4.2874427
13	0x40daf23d	6.84207
14	0x40487c1f	3.1325758
15	0x4090c245	4.5237145
16	0x405165af	3.2718313
17	0x3fe76454	1.8077493
18	0x400c26d4	2.1898699
19	0x41044590	8.266983
20	0x3fe92a8f	1.8216113
21	0x40620736	3.5316901
22	0x40d70741	6.7196355
23	0x408ff4e7	4.4986453
24	0x3ed0003f	0.40625188
25	0x4001265b	2.017966
26	0x40254a8a	2.5826745
27	0x4007c08e	2.1211276
28	0x40099da4	2.1502466
29	0x3ffe0dee	1.9848001
30	0x400625dc	2.0960608
31	0x401f81f9	2.492308
32	0x3ef07070	0.46960783
33	0x3e27618d	0.16345806
34	0x2b30bee2	6.2792664e-13
35	0x2b0f546b	5.092096e-13
36	0x3f1da51a	0.6158005
37	0x3f6da055	0.9282277
38	0x06e3ca74	8.568539e-35
39	0x06f96054	9.380493e-35

w f4 [1, 40, 1]
0	0x41200000	10.0
1	0x41200000	10.0
2	0x41200000	10.0
3	0x41200000	10.0
4	0x41200000	10.0
5	0x41200000	10.0
6	0x411cfc29	9.811563
7	0x4116f849	9.4356165
8	0x41200000	10.0
9	0x41132322	9.196077
10	0x40b92e5d	5.7869096
11	0x40d9122c	6.7834682
12	0x408932bb	4.2874427
13	0x40daf23d	6.84207
14	0x40487c1f	3.1325758
15	0x4090c245	4.5237145
16	0x405165af	3.2718313
17	0x3fe76454	1.8077493
18	0x400c26d4	2.1898699
19	0x41044590	8.266983
20	0x3fe92a8f	1.8216113
21	0x40620736	3.5316901
22	0x40d70741	6.7196355
23	0x408ff4e7	4.4986453
24	0x3ed0003f	0.40625188
25	0x4001265b	2.017966
26	0x40254a8a	2.5826745
27	0x4007c08e	2.1211276
28	0x40099da4	2.1502466
29	0x3ffe0dee	1.9848001
30	0x400625dc	2.0960608
31	0x401f81f9	2.492308
32	0x3ef07070	0.46960783
33	0x3e27618d	0.16345806
34	0x2b30bee2	6.2792664e-13
35	0x2b0f546b	5.092096e-13
36	0x3f1da51a	0.6158005
37	0x3f6da055	0.9282277
38	0x06e3ca74	8.568539e-35
39	0x06f96054	9.380493e-35

w f4 [1, 40, 1]
0	0x41200000	10.0
1	0x41200000	10.0
2	0x41200000	10.0
3	0x41200000	10.0
4	0x41200000	10.0
5	0x41200000	10.0
6	0x411cfc29	9.811563
7	0x4116f849	9.4356165
8	0x41200000	10.0
9	0x41132322	9.196077
10	0x40b92e5d	5.7869096
11	0x40d9122c	6.7834682
12	0x408932bb	4.2874427
13	0x40daf23d	6.84207
14	0x40487c1f	3.1325758
15	0x4090c245	4.5237145
16	0x405165af	3.2718313
17	0x3fe76454	1.8077493
18	0x400c26d4	2.1898699
19	0x41044590	8.266983
20	0x3fe92a8f	1.8216113
21	0x40620736	3.5316901
22	0x40d70741	6.7196355
23	0x408ff4e7	4.4986453
24	0x3ed0003f	0.40625188
25	0x4001265b	2.017966
26	0x40254a8a	2.5826745
27	0x4007c08e	2.1211276
28	0x40099da4	2.1502466
29	0x3ffe0dee	1.9848001
30	0x400625dc	2.0960608
31	0x401f81f9	2.492308
32	0x3ef07070	0.46960783
33	0x3e27618d	0.16345806
34	0x2b30bee2	6.2792664e-13
35	0x2b0f546b	5.092096e-13
36	0x3f1da51a	0.6158005
37	0x3f6da055	0.9282277
38	0x06e3ca74	8.568539e-35
39	0x06f96054	9.380493e-35

w f4 [1, 40, 1]
0	0x41200000	10.0
1	0x41200000	10.0
2	0x41200000	10.0
3	0x41200000	10.0
4	0x41200000	10.0
5	0x41200000	10.0
6	0x411cfc29	9.811563
7	0x4116f849	9.4356165
8	0x41200000	10.0
9	0x41132322	9.196077
10	0x40b92e5d	5.7869096
11	0x40d9122c	6.7834682
12	0x408932bb	4.2874427
13	0x40daf23d	6.84207
14	0x40487c1f	3.1325758
15	0x4090c245	4.5237145
16	0x405165af	3.2718313
17	0x3fe76454	1.8077493
18	0x400c26d4	2.1898699
19	0x41044590	8.266983
20	0x3fe92a8f	1.8216113
21	0x40620736	3.5316901
22	0x40d70741	6.7196355
23	0x408ff4e7	4.4986453
24	0x3ed0003f	0.40625188
25	0x4001265b	2.017966
26	0x40254a8a	2.5826745
27	0x4007c08e	2.1211276
28	0x40099da4	2.1502466
29	0x3ffe0dee	1.9848001
30	0x400625dc	2.0960608
31	0x401f81f9	2.492308
32	0x3ef07070	0.46960783
33	0x3e27618d	0.16345806
34	0x2b30bee2	6.2792664e-13
35	0x2b0f546b	5.092096e-13
36	0x3f1da51a	0.6158005
37	0x3f6da055	0.9282277
38	0x06e3ca74	8.568539e-35
39	0x06f96054	9.380493e-35

w f4 [1, 40, 1]
0	0x41200000	10.0
1	0x41200000	10.0
2	0x41200000	10.0
3	0x41200000	10.0
4	0x41200000	10.0
5	0x41200000	10.0
6	0x411cfc29	9.811563
7	0x4116f849	9.4356165
8	0x41200000	10.0
9	0x41132322	9.196077
10	0x40b92e5d	5.7869096
11	0x40d9122c	6.7834682
12	0x408932bb	4.2874427
13	0x40daf23d	6.84207
14	0x40487c1f	3.1325758
15	0x4090c245	4.5237145
16	0x405165af	3.2718313
17	0x3fe76454	1.8077493
18	0x400c26d4	2.1898699
19	0x41044590	8.266983
20	0x3fe92a8f	1.8216113
21	0x40620736	3.5316901
22	0x40d70741	6.7196355
23	0x408ff4e7	4.4986453
24	0x3ed0003f	0.40625188
25	0x4001265b	2.017966
26	0x40254a8a	2.5826745
27	0x4007c08e	2.1211276
28	0x40099da4	2.1502466
29	0x3ffe0dee	1.9848001
30	0x400625dc	2.0960608
31	0x401f81f9	2.492308
32	0x3ef07070	0.46960783
33	0x3e27618d	0.16345806
34	0x2b30bee2	6.2792664e-13
35	0x2b0f546b	5.092096e-13
36	0x3f1da51a	0.6158005
37	0x3f6da055	0.9282277
38	0x06e3ca74	8.568539e-35
39	0x06f96054	9.380493e-35

w f4 [1, 40, 1]
0	0x41200000	10.0
1	0x41200000	10.0
2	0x41200000	10.0
3	0x41200000	10.0
4	0x41200000	10.0
5	0x41200000	10.0
6	0x411cfc29	9.811563
7	0x4116f849	9.4356165
8	0x41200000	10.0
9	0x41132322	9.196077
10	0x40b92e5d	5.7869096
11	0x40d9122c	6.7834682
12	0x408932bb	4.2874427
13	0x40daf23d	6.84207
14	0x40487c1f	3.1325758
15	0x4090c245	4.5237145
16	0x405165af	3.2718313
17	0x3fe76454	1.8077493
18	0x400c26d4	2.1898699
19	0x41044590	8.266983
20	0x3fe92a8f	1.8216113
21	0x40620736	3.5316901
22	0x40d70741	6.7196355
23	0x408ff4e7	4.4986453
24	0x3ed0003f	0.40625188
25	0x4001265b	2.017966
26	0x40254a8a	2.5826745
27	0x4007c08e	2.1211276
28	0x40099da4	2.1502466
29	0x3ffe0dee	1.9848001
30	0x400625dc	2.0960608
31	0x401f81f9	2.492308
32	0x3ef07070	0.46960783
33	0x3e27618d	0.16345806
34	0x2b30bee2	6.2792664e-13
35	0x2b0f546b	5.092096e-13
36	0x3f1da51a	0.6158005
37	0x3f6da055	0.9282277
38	0x06e3ca74	8.568539e-35
39	0x06f96054	9.380493e-35

w f4 [1, 40, 1]
0	0x41200000	10.0
1	0x41200000	10.0
2	0x41200000	10.0
3	0x41200000	10.0
4	0x41200000	10.0
5	0x41200000	10.0
6	0x411cfc29	9.811563
7	0x4116f849	9.4356165
8	0x41200000	10.0
9	0x41132322	9.196077
10	0x40b92e5d	5.7869096
11	0x40d9122c	6.7834682
12	0x408932bb	4.2874427
13	0x40daf23d	6.84207
14	0x40487c1f	3.1325758
15	0x4090c245	4.5237145
16	0x405165af	3.2718313
17	0x3fe76454	1.8077493
18	0x400c26d4	2.1898699
19	0x41044590	8.266983
20	0x3fe92a8f	1.8216113
21	0x40620736	3.5316901
22	0x40d70741	6.7196355
23	0x408ff4e7	4.4986453
24	0x3ed0003f	0.40625188
25	0x4001265b	2.017966
26	0x40254a8a	2.5826745
27	0x4007c08e	2.1211276
28	0x40099da4	2.1502466
29	0x3ffe0dee	1.9848001
30	0x400625dc	2.0960608
31	0x401f81f9	2.492308
32	0x3ef07070	0.46960783
33	0x3e27618d	0.16345806
34	0x2b30bee2	6.2792664e-13
35	0x2b0f546b	5.092096e-13
36	0x3f1da51a	0.6158005
37	0x3f6da055	0.9282277
38	0x06e3ca74	8.568539e-35
39	0x06f96054	9.380493e-35

w f4 [1, 40, 1]
0	0x41200000	10.0
1	0x41200000	10.0
2	0x41200000	10.0
3	0x41200000	10.0
4	0x41200000	10.0
5	0x41200000	10.0
6	0x411cfc29	9.811563
7	0x4116f849	9.4356165
8	0x41200000	10.0
9	0x41132322	9.196077
10	0x40b92e5d	5.7869096
11	0x40d9122c	6.7834682
12	0x408932bb	4.2874427
13	0x40daf23d	6.84207
14	0x40487c1f	3.1325758
15	0x4090c245	4.5237145
16	0x405165af	3.2718313
17	0x3fe76454	1.8077493
18	0x400c26d4	2.1898699
19	0x41044590	8.266983
20	0x3fe92a8f	1.8216113
21	0x40620736	3.5316901
22	0x40d70741	6.7196355
23	0x408ff4e7	4.4986453
24	0x3ed0003f	0.40625188
25	0x4001265b	2.017966
26	0x40254a8a	2.5826745
27	0x4007c08e	2.1211276
28	0x40099da4	2.1502466
29	0x3ffe0dee	1.9848001
30	0x400625dc	2.0960608
31	0x401f81f9	2.492308
32	0x3ef07070	0.46960783
33	0x3e27618d	0.16345806
34	0x2b30bee2	6.2792664e-13
35	0x2b0f546b	5.092096e-13
36	0x3f1da51a	0.6158005
37	0x3f6da055	0.9282277
38	0x06e3ca74	8.568539e-35
39	0x06f96054	9.380493e-35

w f4 [1, 40, 1]
0	0x41200000	10.0
1	0x41200000	10.0
2	0x41200000	10.0
3	0x41200000	10.0
4	0x41200000	10.0
5	0x41200000	10.0
6	0x411cfc29	9.811563
7	0x4116f849	9.4356165
8	0x41200000	10.0
9	0x41132322	9.196077
10	0x40b92e5d	5.7869096
11	0x40d9122c	6.7834682
12	0x408932bb	4.2874427
13	0x40daf23d	6.84207
14	0x40487c1f	3.1325758
15	0x4090c245	4.5237145
16	0x405165af	3.2718313
17	0x3fe76454	1.8077493
18	0x400c26d4	2.1898699
19	0x41044590	8.266983
20	0x3fe92a8f	1.8216113
21	0x40620736	3.5316901
22	0x40d70741	6.7196355
23	0x408ff4e7	4.4986453
24	0x3ed0003f	0.40625188
25	0x4001265b	2.017966
26	0x40254a8a	2.5826745
27	0x4007c08e	2.1211276
28	0x40099da4	2.1502466
29	0x3ffe0dee	1.9848001
30	0x400625dc	2.0960608
31	0x401f81f9	2.492308
32	0x3ef07070	0.46960783
33	0x3e27618d	0.16345806
34	0x2b30bee2	6.2792664e-13
35	0x2b0f546b	5.092096e-13
36	0x3f1da51a	0.6158005
37	0x3f6da055	0.9282277
38	0x06e3ca74	8.568539e-35
39	0x06f96054	9.380493e-35

w f4 [1, 40, 1]
0	0x41200000	10.0
1	0x41200000	10.0
2	0x41200000	10.0
3	0x41200000	10.0
4	0x41200000	10.0
5	0x41200000	10.0
6	0x411cfc29	9.811563
7	0x4116f849	9.4356165
8	0x41200000	10.0
9	0x41132322	9.196077
10	0x40b92e5d	5.7869096
11	0x40d9122c	6.7834682
12	0x408932bb	4.2874427
13	0x40daf23d	6.84207
14	0x40487c1f	3.1325758
15	0x4090c245	4.5237145
16	0x405165af	3.2718313
17	0x3fe76454	1.8077493
18	0x400c26d4	2.1898699
19	0x41044590	8.266983
20	0x3fe92a8f	1.8216113
21	0x40620736	3.5316901
22	0x40d70741	6.7196355
23	0x408ff4e7	4.4986453
24	0x3ed0003f	0.40625188
25	0x4001265b	2.017966
26	0x40254a8a	2.5826745
27	0x4007c08e	2.1211276
28	0x40099da4	2.1502466
29	0x3ffe0dee	1.9848001
30	0x400625dc	2.0960608
31	0x401f81f9	2.492308
32	0x3ef07070	0.46960783
33	0x3e27618d	0.16345806
34	0x2b30bee2	6.2792664e-13
35	0x2b0f546b	5.092096e-13
36	0x3f1da51a	0.6158005
37	0x3f6da055	0.9282277
38	0x06e3ca74	8.568539e-35
39	0x06f96054	9.380493e-35

w f4 [1, 40, 1]
0	0x41200000	10.0
1	0x41200000	10.0
2	0x41200000	10.0
3	0x41200000	10.0
4	0x41200000	10.0
5	0x41200000	10.0
6	0x411cfc29	9.811563
7	0x4116f849	9.4356165
8	0x41200000	10.0
9	0x41132322	9.196077
10	0x40b92e5d	5.7869096
11	0x40d9122c	6.7834682
12	0x408932bb	4.2874427
13	0x40daf23d	6.84207
14	0x40487c1f	3.1325758
15	0x4090c245	4.5237145
16	0x405165af	3.2718313
17	0x3fe76454	1.8077493
18	0x400c26d4	2.1898699
19	0x41044590	8.266983
20	0x3fe92a8f	1.8216113
21	0x40620736	3.5316901
22	0x40d70741	6.7196355
23	0x408ff4e7	4.4986453
24	0x3ed0003f	0.40625188
25	0x4001265b	2.017966
26	0x40254a8a	2.5826745
27	0x4007c08e	2.1211276
28	0x40099da4	2.1502466
29	0x3ffe0dee	1.9848001
30	0x400625dc	2.0960608
31	0x401f81f9	2.492308
32	0x3ef07070	0.46960783
33	0x3e27618d	0.16345806
34	0x2b30bee2	6.2792664e-13
35	0x2b0f546b	5.092096e-13
36	0x3f1da51a	0.6158005
37	0x3f6da055	0.9282277
38	0x06e3ca74	8.568539e-35
39	0x06f96054	9.380493e-35

w f4 [1, 40, 1]
0	0x41200000	10.0
1	0x41200000	10.0
2	0x41200000	10.0
3	0x41200000	10.0
4	0x41200000	10.0
5	0x41200000	10.0
6	0x411cfc29	9.811563
7	0x4116f849	9.4356165
8	0x41200000	10.0
9	0x41132322	9.196077
10	0x40b92e5d	5.7869096
11	0x40d9122c	6.7834682
12	0x408932bb	4.2874427
13	0x40daf23d	6.84207
14	0x40487c1f	3.1325758
15	0x4090c245	4.5237145
16	0x405165af	3.2718313
17	0x3fe76454	1.8077493
18	0x400c26d4	2.1898699
19	0x41044590	8.266983
20	0x3fe92a8f	1.8216113
21	0x40620736	3.5316901
22	0x40d70741	6.7196355
23	0x408ff4e7	4.4986453
24	0x3ed0003f	0.40625188
25	0x4001265b	2.017966
26	0x40254a8a	2.5826745
27	0x4007c08e	2.1211276
28	0x40099da4	2.1502466
29	0x3ffe0dee	1.9848001
30	0x400625dc	2.0960608
31	0x401f81f9	2.492308
32	0x3ef07070	0.46960783
33	0x3e27618d	0.16345806
34	0x2b30bee2	6.2792664e-13
35	0x2b0f546b	5.092096e-13
36	0x3f1da51a	0.6158005
37	0x3f6da055	0.9282277
38	0x06e3ca74	8.568539e-35
39	0x06f96054	9.380493e-35

w f4 [1, 40, 1]
0	0x41200000	10.0
1	0x41200000	10.0
2	0x41200000	10.0
3	0x41200000	10.0
4	0x41200000	10.0
5	0x41200000	10.0
6	0x411cfc29	9.811563
7	0x4116f849	9.4356165
8	0x41200000	10.0
9	0x41132322	9.196077
10	0x40b92e5d	5.7869096
11	0x40d9122c	6.7834682
12	0x408932bb	4.2874427
13	0x40daf23d	6.84207
14	0x40487c1f	3.1325758
15	0x4090c245	4.5237145
16	0x405165af	3.2718313
17	0x3fe76454	1.8077493
18	0x400c26d4	2.1898699
19	0x41044590	8.266983
20	0x3fe92a8f	1.8216113
21	0x40620736	3.5316901
22	0x40d70741	6.7196355
23	0x408ff4e7	4.4986453
24	0x3ed0003f	0.40625188
25	0x4001265b	2.017966
26	0x40254a8a	2.5826745
27	0x4007c08e	2.1211276
28	0x40099da4	2.1502466
29	0x3ffe0dee	1.9848001
30	0x400625dc	2.0960608
31	0x401f81f9	2.492308
32	0x3ef07070	0.46960783
33	0x3e27618d	0.16345806
34	0x2b30bee2	6.2792664e-13
35	0x2b0f546b	5.092096e-13
36	0x3f1da51a	0.6158005
37	0x3f6da055	0.9282277
38	0x06e3ca74	8.568539e-35
39	0x06f96054	9.380493e-35

w f4 [1, 40, 1]
0	0x41200000	10.0
1	0x41200000	10.0
2	0x41200000	10.0
3	0x41200000	10.0
4	0x41200000	10.0
5	0x41200000	10.0
6	0x411cfc29	9.811563
7	0x4116f849	9.4356165
8	0x41200000	10.0
9	0x41132322	9.196077
10	0x40b92e5d	5.7869096
11	0x40d9122c	6.7834682
12	0x408932bb	4.2874427
13	0x40daf23d	6.84207
14	0x40487c1f	3.1325758
15	0x4090c245	4.5237145
16	0x405165af	3.2718313
17	0x3fe76454	1.8077493
18	0x400c26d4	2.1898699
19	0x41044590	8.266983
20	0x3fe92a8f	1.8216113
21	0x40620736	3.5316901
22	0x40d70741	6.7196355
23	0x408ff4e7	4.4986453
24	0x3ed0003f	0.40625188
25	0x4001265b	2.017966
26	0x40254a8a	2.5826745
27	0x4007c08e	2.1211276
28	0x40099da4	2.1502466
29	0x3ffe0dee	1.9848001
30	0x400625dc	2.0960608
31	0x401f81f9	2.492308
32	0x3ef07070	0.46960783
33	0x3e27618d	0.16345806
34	0x2b30bee2	6.2792664e-13
35	0x2b0f546b	5.092096e-13
36	0x3f1da51a	0.6158005
37	0x3f6da055	0.9282277
38	0x06e3ca74	8.568539e-35
39	0x06f96054	9.380493e-35

w f4 [1, 40, 1]
0	0x41200000	10.0
1	0x41200000	10.0
2	0x41200000	10.0
3	0x41200000	10.0
4	0x41200000	10.0
5	0x41200000	10.0
6	0x411cfc29	9.811563
7	0x4116f849	9.4356165
8	0x41200000	10.0
9	0x41132322	9.196077
10	0x40b92e5d	5.7869096
11	0x40d9122c	6.7834682
12	0x408932bb	4.2874427
13	0x40daf23d	6.84207
14	0x40487c1f	3.1325758
15	0x4090c245	4.5237145
16	0x405165af	3.2718313
17	0x3fe76454	1.8077493
18	0x400c26d4	2.1898699
19	0x41044590	8.266983
20	0x3fe92a8f	1.8216113
21	0x40620736	3.5316901
22	0x40d70741	6.7196355
23	0x408ff4e7	4.4986453
24	0x3ed0003f	0.40625188
25	0x4001265b	2.017966
26	0x40254a8a	2.5826745
27	0x4007c08e	2.1211276
28	0x40099da4	2.1502466
29	0x3ffe0dee	1.9848001
30	0x400625dc	2.0960608
31	0x401f81f9	2.492308
32	0x3ef07070	0.46960783
33	0x3e27618d	0.16345806
34	0x2b30bee2	6.2792664e-13
35	0x2b0f546b	5.092096e-13
36	0x3f1da51a	0.6158005
37	0x3f6da055	0.9282277
38	0x06e3ca74	8.568539e-35
39	0x06f96054	9.380493e-35

w f4 [1, 40, 1]
0	0x41200000	10.0
1	0x41200000	10.0
2	0x41200000	10.0
3	0x41200000	10.0
4	0x41200000	10.0
5	0x41200000	10.0
6	0x411cfc29	9.811563
7	0x4116f849	9.4356165
8	0x41200000	10.0
9	0x41132322	9.196077
10	0x40b92e5d	5.7869096
11	0x40d9122c	6.7834682
12	0x408932bb	4.2874427
13	0x40daf23d	6.84207
14	0x40487c1f	3.1325758
15	0x4090c245	4.5237145
16	0x405165af	3.2718313
17	0x3fe76454	1.8077493
18	0x400c26d4	2.1898699
19	0x41044590	8.266983
20	0x3fe92a8f	1.8216113
21	0x40620736	3.5316901
22	0x40d70741	6.7196355
23	0x408ff4e7	4.4986453
24	0x3ed0003f	0.40625188
25	0x4001265b	2.017966
26	0x40254a8a	2.5826745
27	0x4007c08e	2.1211276
28	0x40099da4	2.1502466
29	0x3ffe0dee	1.9848001
30	0x400625dc	2.0960608
31	0x401f81f9	2.492308
32	0x3ef07070	0.46960783
33	0x3e27618d	0.16345806
34	0x2b30bee2	6.2792664e-13
35	0x2b0f546b	5.092096e-13
36	0x3f1da51a	0.6158005
37	0x3f6da055	0.9282277
38	0x06e3ca74	8.568539e-35
39	0x06f96054	9.380493e-35

w f4 [1, 40, 1]
0	0x41200000	10.0
1	0x41200000	10.0
2	0x41200000	10.0
3	0x41200000	10.0
4	0x41200000	10.0
5	0x41200000	10.0
6	0x411cfc29	9.811563
7	0x4116f849	9.4356165
8	0x41200000	10.0
9	0x41132322	9.196077
10	0x40b92e5d	5.7869096
11	0x40d9122c	6.7834682
12	0x408932bb	4.2874427
13	0x40daf23d	6.84207
14	0x40487c1f	3.1325758
15	0x4090c245	4.5237145
16	0x405165af	3.2718313
17	0x3fe76454	1.8077493
18	0x400c26d4	2.1898699
19	0x41044590	8.266983
20	0x3fe92a8f	1.8216113
21	0x40620736	3.5316901
22	0x40d70741	6.7196355
23	0x408ff4e7	4.4986453
24	0x3ed0003f	0.40625188
25	0x4001265b	2.017966
26	0x40254a8a	2.5826745
27	0x4007c08e	2.1211276
28	0x40099da4	2.1502466
29	0x3ffe0dee	1.9848001
30	0x400625dc	2.0960608
31	0x401f81f9	2.492308
32	0x3ef07070	0.46960783
33	0x3e27618d	0.16345806
34	0x2b30bee2	6.2792664e-13
35	0x2b0f546b	5.092096e-13
36	0x3f1da51a	0.6158005
37	0x3f6da055	0.9282277
38	0x06e3ca74	8.568539e-35
39	0x06f96054	9.380493e-35

w f4 [1, 40, 1]
0	0x41200000	10.0
1	0x41200000	10.0
2	0x41200000	10.0
3	0x41200000	10.0
4	0x41200000	10.0
5	0x41200000	10.0
6	0x411cfc29	9.811563
7	0x4116f849	9.4356165
8	0x41200000	10.0
9	0x41132322	9.196077
10	0x40b92e5d	5.7869096
11	0x40d9122c	6.7834682
12	0x408932bb	4.2874427
13	0x40daf23d	6.84207
14	0x40487c1f	3.1325758
15	0x4090c245	4.5237145
16	0x405165af	3.2718313
17	0x3fe76454	1.8077493
18	0x400c26d4	2.1898699
19	0x41044590	8.266983
20	0x3fe92a8f	1.8216113
21	0x40620736	3.5316901
22	0x40d70741	6.7196355
23	0x408ff4e7	4.4986453
24	0x3ed0003f	0.40625188
25	0x4001265b	2.017966
26	0x40254a8a	2.5826745
27	0x4007c08e	2.1211276
28	0x40099da4	2.1502466
29	0x3ffe0dee	1.9848001
30	0x400625dc	2.0960608
31	0x401f81f9	2.492308
32	0x3ef07070	0.46960783
33	0x3e27618d	0.16345806
34	0x2b30bee2	6.2792664e-13
35	0x2b0f546b	5.092096e-13
36	0x3f1da51a	0.6158005
37	0x3f6da055	0.9282277
38	0x06e3ca74	8.568539e-35
39	0x06f96054	9.380493e-35

w f4 [1, 40, 1]
0	0x41200000	10.0
1	0x41200000	10.0
2	0x41200000	10.0
3	0x41200000	10.0
4	0x41200000	10.0
5	0x41200000	10.0
6	0x411cfc29	9.811563
7	0x4116f849	9.4356165
8	0x41200000	10.0
9	0x41132322	9.196077
10	0x40b92e5d	5.7869096
11	0x40d9122c	6.7834682
12	0x408932bb	4.2874427
13	0x40daf23d	6.84207
14	0x40487c1f	3.1325758
15	0x4090c245	4.5237145
16	0x405165af	3.2718313
17	0x3fe76454	1.8077493
18	0x400c26d4	2.1898699
19	0x41044590	8.266983
20	0x3fe92a8f	1.8216113
21	0x40620736	3.5316901
22	0x40d70741	6.7196355
23	0x408ff4e7	4.4986453
24	0x3ed0003f	0.40625188
25	0x4001265b	2.017966
26	0x40254a8a	2.5826745
27	0x4007c08e	2.1211276
28	0x40099da4	2.1502466
29	0x3ffe0dee	1.9848001
30	0x400625dc	2.0960608
31	0x401f81f9	2.492308
32	0x3ef07070	0.46960783
33	0x3e27618d	0.16345806
34	0x2b30bee2	6.2792664e-13
35	0x2b0f546b	5.092096e-13
36	0x3f1da51a	0.6158005
37	0x3f6da055	0.9282277
38	0x06e3ca74	8.568539e-35
39	0x06f96054	9.380493e-35

w f4 [1, 40, 1]
0	0x41200000	10.0
1	0x41200000	10.0
2	0x41200000	10.0
3	0x41200000	10.0
4	0x41200000	10.0
5	0x41200000	10.0
6	0x411cfc29	9.811563
7	0x4116f849	9.4356165
8	0x41200000	10.0
9	0x41132322	9.196077
10	0x40b92e5d	5.7869096
11	0x40d9122c	6.7834682
12	0x408932bb	4.2874427
13	0x40daf23d	6.84207
14	0x40487c1f	3.1325758
15	0x4090c245	4.5237145
16	0x405165af	3.2718313
17	0x3fe76454	1.8077493
18	0x400c26d4	2.1898699
19	0x41044590	8.266983
20	0x3fe92a8f	1.8216113
21	0x40620736	3.5316901
22	0x40d70741	6.7196355
23	0x408ff4e7	4.4986453
24	0x3ed0003f	0.40625188
25	0x4001265b	2.017966
26	0x40254a8a	2.5826745
27	0x4007c08e	2.1211276
28	0x40099da4	2.1502466
29	0x3ffe0dee	1.9848001
30	0x400625dc	2.0960608
31	0x401f81f9	2.492308
32	0x3ef07070	0.46960783
33	0x3e27618d	0.16345806
34	0x2b30bee2	6.2792664e-13
35	0x2b0f546b	5.092096e-13
36	0x3f1da51a	0.6158005
37	0x3f6da055	0.9282277
38	0x06e3ca74	8.568539e-35
39	0x06f96054	9.380493e-35

w f4 [1, 40, 1]
0	0x41200000	10.0
1	0x41200000	10.0
2	0x41200000	10.0
3	0x41200000	10.0
4	0x41200000	10.0
5	0x41200000	10.0
6	0x411cfc29	9.811563
7	0x4116f849	9.4356165
8	0x41200000	10.0
9	0x41132322	9.196077
10	0x40b92e5d	5.7869096
11	0x40d9122c	6.7834682
12	0x408932bb	4.2874427
13	0x40daf23d	6.84207
14	0x40487c1f	3.1325758
15	0x4090c245	4.5237145
16	0x405165af	3.2718313
17	0x3fe76454	1.8077493
18	0x400c26d4	2.1898699
19	0x41044590	8.266983
20	0x3fe92a8f	1.8216113
21	0x40620736	3.5316901
22	0x40d70741	6.7196355
23	0x408ff4e7	4.4986453
24	0x3ed0003f	0.40625188
25	0x4001265b	2.017966
26	0x40254a8a	2.5826745
27	0x4007c08e	2.1211276
28	0x40099da4	2.1502466
29	0x3ffe0dee	1.9848001
30	0x400625dc	2.0960608
31	0x401f81f9	2.492308
32	0x3ef07070	0.46960783
33	0x3e27618d	0.16345806
34	0x2b30bee2	6.2792664e-13
35	0x2b0f546b	5.092096e-13
36	0x3f1da51a	0.6158005
37	0x3f6da055	0.9282277
38	0x06e3ca74	8.568539e-35
39	0x06f96054	9.380493e-35

w f4 [1, 40, 1]
0	0x41200000	10.0
1	0x41200000	10.0
2	0x41200000	10.0
3	0x41200000	10.0
4	0x41200000	10.0
5	0x41200000	10.0
6	0x411cfc29	9.811563
7	0x4116f849	9.4356165
8	0x41200000	10.0
9	0x41132322	9.196077
10	0x40b92e5d	5.7869096
11	0x40d9122c	6.7834682
12	0x408932bb	4.2874427
13	0x40daf23d	6.84207
14	0x40487c1f	3.1325758
15	0x4090c245	4.5237145
16	0x405165af	3.2718313
17	0x3fe76454	1.8077493
18	0x400c26d4	2.1898699
19	0x41044590	8.266983
20	0x3fe92a8f	1.8216113
21	0x40620736	3.5316901
22	0x40d70741	6.7196355
23	0x408ff4e7	4.4986453
24	0x3ed0003f	0.40625188
25	0x4001265b	2.017966
26	0x40254a8a	2.5826745
27	0x4007c08e	2.1211276
28	0x40099da4	2.1502466
29	0x3ffe0dee	1.9848001
30	0x400625dc	2.0960608
31	0x401f81f9	2.492308
32	0x3ef07070	0.46960783
33	0x3e27618d	0.16345806
34	0x2b30bee2	6.2792664e-13
35	0x2b0f546b	5.092096e-13
36	0x3f1da51a	0.6158005
37	0x3f6da055	0.9282277
38	0x06e3ca74	8.568539e-35
39	0x06f96054	9.380493e-35

w f4 [1, 40, 1]
0	0x41200000	10.0
1	0x41200000	10.0
2	0x41200000	10.0
3	0x41200000	10.0
4	0x41200000	10.0
5	0x41200000	10.0
6	0x411cfc29	9.811563
7	0x4116f849	9.4356165
8	0x41200000	10.0
9	0x41132322	9.196077
10	0x40b92e5d	5.7869096
11	0x40d9122c	6.7834682
12	0x408932bb	4.2874427
13	0x40daf23d	6.84207
14	0x40487c1f	3.1325758
15	0x4090c245	4.5237145
16	0x405165af	3.2718313
17	0x3fe76454	1.8077493
18	0x400c26d4	2.1898699
19	0x41044590	8.266983
20	0x3fe92a8f	1.8216113
21	0x40620736	3.5316901
22	0x40d70741	6.7196355
23	0x408ff4e7	4.4986453
24	0x3ed0003f	0.40625188
25	0x4001265b	2.017966
26	0x40254a8a	2.5826745
27	0x4007c08e	2.1211276
28	0x40099da4	2.1502466
29	0x3ffe0dee	1.9848001
30	0x400625dc	2.0960608
31	0x401f81f9	2.492308
32	0x3ef07070	0.46960783
33	0x3e27618d	0.16345806
34	0x2b30bee2	6.2792664e-13
35	0x2b0f546b	5.092096e-13
36	0x3f1da51a	0.6158005
37	0x3f6da055	0.9282277
38	0x06e3ca74	8.568539e-35
39	0x06f96054	9.380493e-35

w f4 [1, 40, 1]
0	0x41200000	10.0
1	0x41200000	10.0
2	0x41200000	10.0
3	0x41200000	10.0
4	0x41200000	10.0
5	0x41200000	10.0
6	0x411cfc29	9.811563
7	0x4116f849	9.4356165
8	0x41200000	10.0
9	0x41132322	9.196077
10	0x40b92e5d	5.7869096
11	0x40d9122c	6.7834682
12	0x408932bb	4.2874427
13	0x40daf23d	6.84207
14	0x40487c1f	3.1325758
15	0x4090c245	4.5237145
16	0x405165af	3.2718313
17	0x3fe76454	1.8077493
18	0x400c26d4	2.1898699
19	0x41044590	8.266983
20	0x3fe92a8f	1.8216113
21	0x40620736	3.5316901
22	0x40d70741	6.7196355
23	0x408ff4e7	4.4986453
24	0x3ed0003f	0.40625188
25	0x4001265b	2.017966
26	0x40254a8a	2.5826745
27	0x4007c08e	2.1211276
28	0x40099da4	2.1502466
29	0x3ffe0dee	1.9848001
30	0x400625dc	2.0960608
31	0x401f81f9	2.492308
32	0x3ef07070	0.46960783
33	0x3e27618d	0.16345806
34	0x2b30bee2	6.2792664e-13
35	0x2b0f546b	5.092096e-13
36	0x3f1da51a	0.6158005
37	0x3f6da055	0.9282277
38	0x06e3ca74	8.568539e-35
39	0x06f96054	9.380493e-35

w f4 [1, 40, 1]
0	0x41200000	10.0
1	0x41200000	10.0
2	0x41200000	10.0
3	0x41200000	10.0
4	0x41200000	10.0
5	0x41200000	10.0
6	0x411cfc29	9.811563
7	0x4116f849	9.4356165
8	0x41200000	10.0
9	0x41132322	9.196077
10	0x40b92e5d	5.7869096
11	0x40d9122c	6.7834682
12	0x408932bb	4.2874427
13	0x40daf23d	6.84207
14	0x40487c1f	3.1325758
15	0x4090c245	4.5237145
16	0x405165af	3.2718313
17	0x3fe76454	1.8077493
18	0x400c26d4	2.1898699
19	0x41044590	8.266983
20	0x3fe92a8f	1.8216113
21	0x40620736	3.5316901
22	0x40d70741	6.7196355
23	0x408ff4e7	4.4986453
24	0x3ed0003f	0.40625188
25	0x4001265b	2.017966
26	0x40254a8a	2.5826745
27	0x4007c08e	2.1211276
28	0x40099da4	2.1502466
29	0x3ffe0dee	1.9848001
30	0x400625dc	2.0960608
31	0x401f81f9	2.492308
32	0x3ef07070	0.46960783
33	0x3e27618d	0.16345806
34	0x2b30bee2	6.2792664e-13
35	0x2b0f546b	5.092096e-13
36	0x3f1da51a	0.6158005
37	0x3f6da055	0.9282277
38	0x06e3ca74	8.568539e-35
39	0x06f96054	9.380493e-35

w f4 [1, 40, 1]
0	0x41200000	10.0
1	0x41200000	10.0
2	0x41200000	10.0
3	0x41200000	10.0
4	0x41200000	10.0
5	0x41200000	10.0
6	0x411cfc29	9.811563
7	0x4116f849	9.4356165
8	0x41200000	10.0
9	0x41132322	9.196077
10	0x40b92e5d	5.7869096
11	0x40d9122c	6.7834682
12	0x408932bb	4.2874427
13	0x40daf23d	6.84207
14	0x40487c1f	3.1325758
15	0x4090c245	4.5237145
16	0x405165af	3.2718313
17	0x3fe76454	1.8077493
18	0x400c26d4	2.1898699
19	0x41044590	8.266983
20	0x3fe92a8f	1.8216113
21	0x40620736	3.5316901
22	0x40d70741	6.7196355
23	0x408ff4e7	4.4986453
24	0x3ed0003f	0.40625188
25	0x4001265b	2.017966
26	0x40254a8a	2.5826745
27	0x4007c08e	2.1211276
28	0x40099da4	2.1502466
29	0x3ffe0dee	1.9848001
30	0x400625dc	2.0960608
31	0x401f81f9	2.492308
32	0x3ef07070	0.46960783
33	0x3e27618d	0.16345806
34	0x2b30bee2	6.2792664e-13
35	0x2b0f546b	5.092096e-13
36	0x3f1da51a	0.6158005
37	0x3f6da055	0.9282277
38	0x06e3ca74	8.568539e-35
39	0x06f96054	9.380493e-35

w f4 [1, 40, 1]
0	0x41200000	10.0
1	0x41200000	10.0
2	0x41200000	10.0
3	0x41200000	10.0
4	0x41200000	10.0
5	0x41200000	10.0
6	0x411cfc29	9.811563
7	0x4116f849	9.4356165
8	0x41200000	10.0
9	0x41132322	9.196077
10	0x40b92e5d	5.7869096
11	0x40d9122c	6.7834682
12	0x408932bb	4.2874427
13	0x40daf23d	6.84207
14	0x40487c1f	3.1325758
15	0x4090c245	4.5237145
16	0x405165af	3.2718313
17	0x3fe76454	1.8077493
18	0x400c26d4	2.1898699
19	0x41044590	8.266983
20	0x3fe92a8f	1.8216113
21	0x40620736	3.5316901
22	0x40d70741	6.7196355
23	0x408ff4e7	4.4986453
24	0x3ed0003f	0.40625188
25	0x4001265b	2.017966
26	0x40254a8a	2.5826745
27	0x4007c08e	2.1211276
28	0x40099da4	2.1502466
29	0x3ffe0dee	1.9848001
30	0x400625dc	2.0960608
31	0x401f81f9	2.492308
32	0x3ef07070	0.46960783
33	0x3e27618d	0.16345806
34	0x2b30bee2	6.2792664e-13
35	0x2b0f546b	5.092096e-13
36	0x3f1da51a	0.6158005
37	0x3f6da055	0.9282277
38	0x06e3ca74	8.568539e-35
39	0x06f96054	9.380493e-35

w f4 [1, 40, 1]
0	0x41200000	10.0
1	0x41200000	10.0
2	0x41200000	10.0
3	0x41200000	10.0
4	0x41200000	10.0
5	0x41200000	10.0
6	0x411cfc29	9.811563
7	0x4116f849	9.4356165
8	0x41200000	10.0
9	0x41132322	9.196077
10	0x40b92e5d	5.7869096
11	0x40d9122c	6.7834682
12	0x408932bb	4.2874427
13	0x40daf23d	6.84207
14	0x40487c1f	3.1325758
15	0x4090c245	4.5237145
16	0x405165af	3.2718313
17	0x3fe76454	1.8077493
18	0x400c26d4	2.1898699
19	0x41044590	8.266983
20	0x3fe92a8f	1.8216113
21	0x40620736	3.5316901
22	0x40d70741	6.7196355
23	0x408ff4e7	4.4986453
24	0x3ed0003f	0.40625188
25	0x4001265b	2.017966
26	0x40254a8a	2.5826745
27	0x4007c08e	2.1211276
28	0x40099da4	2.1502466
29	0x3ffe0dee	1.9848001
30	0x400625dc	2.0960608
31	0x401f81f9	2.492308
32	0x3ef07070	0.46960783
33	0x3e27618d	0.16345806
34	0x2b30bee2	6.2792664e-13
35	0x2b0f546b	5.092096e-13
36	0x3f1da51a	0.6158005
37	0x3f6da055	0.9282277
38	0x06e3ca74	8.568539e-35
39	0x06f96054	9.380493e-35

w f4 [1, 40, 1]
0	0x41200000	10.0
1	0x41200000	10.0
2	0x41200000	10.0
3	0x41200000	10.0
4	0x41200000	10.0
5	0x41200000	10.0
6	0x411cfc29	9.811563
7	0x4116f849	9.4356165
8	0x41200000	10.0
9	0x41132322	9.196077
10	0x40b92e5d	5.7869096
11	0x40d9122c	6.7834682
12	0x408932bb	4.2874427
13	0x40daf23d	6.84207
14	0x40487c1f	3.1325758
15	0x4090c245	4.5237145
16	0x405165af	3.2718313
17	0x3fe76454	1.8077493
18	0x400c26d4	2.1898699
19	0x41044590	8.266983
20	0x3fe92a8f	1.8216113
21	0x40620736	3.5316901
22	0x40d70741	6.7196355
23	0x408ff4e7	4.4986453
24	0x3ed0003f	0.40625188
25	0x4001265b	2.017966
26	0x40254a8a	2.5826745
27	0x4007c08e	2.1211276
28	0x40099da4	2.1502466
29	0x3ffe0dee	1.9848001
30	0x400625dc	2.0960608
31	0x401f81f9	2.492308
32	0x3ef07070	0.46960783
33	0x3e27618d	0.16345806
34	0x2b30bee2	6.2792664e-13
35	0x2b0f546b	5.092096e-13
36	0x3f1da51a	0.6158005
37	0x3f6da055	0.9282277
38	0x06e3ca74	8.568539e-35
39	0x06f96054	9.380493e-35

w f4 [1, 40, 1]
0	0x41200000	10.0
1	0x41200000	10.0
2	0x41200000	10.0
3	0x41200000	10.0
4	0x41200000	10.0
5	0x41200000	10.0
6	0x411cfc29	9.811563
7	0x4116f849	9.4356165
8	0x41200000	10.0
9	0x41132322	9.196077
10	0x40b92e5d	5.7869096
11	0x40d9122c	6.7834682
12	0x408932bb	4.2874427
13	0x40daf23d	6.84207
14	0x40487c1f	3.1325758
15	0x4090c245	4.5237145
16	0x405165af	3.2718313
17	0x3fe76454	1.8077493
18	0x400c26d4	2.1898699
19	0x41044590	8.266983
20	0x3fe92a8f	1.8216113
21	0x40620736	3.5316901
22	0x40d70741	6.7196355
23	0x408ff4e7	4.4986453
24	0x3ed0003f	0.40625188
25	0x4001265b	2.017966
26	0x40254a8a	2.5826745
27	0x4007c08e	2.1211276
28	0x40099da4	2.1502466
29	0x3ffe0dee	1.9848001
30	0x400625dc	2.0960608
31	0x401f81f9	2.492308
32	0x3ef07070	0.46960783
33	0x3e27618d	0.16345806
34	0x2b30bee2	6.2792664e-13
35	0x2b0f546b	5.092096e-13
36	0x3f1da51a	0.6158005
37	0x3f6da055	0.9282277
38	0x06e3ca74	8.568539e-35
39	0x06f96054	9.380493e-35

w f4 [1, 40, 1]
0	0x41200000	10.0
1	0x41200000	10.0
2	0x41200000	10.0
3	0x41200000	10.0
4	0x41200000	10.0
5	0x41200000	10.0
6	0x411cfc29	9.811563
7	0x4116f849	9.4356165
8	0x41200000	10.0
9	0x41132322	9.196077
10	0x40b92e5d	5.7869096
11	0x40d9122c	6.7834682
12	0x408932bb	4.2874427
13	0x40daf23d	6.84207
14	0x40487c1f	3.1325758
15	0x4090c245	4.5237145
16	0x405165af	3.2718313
17	0x3fe76454	1.8077493
18	0x400c26d4	2.1898699
19	0x41044590	8.266983
20	0x3fe92a8f	1.8216113
21	0x40620736	3.5316901
22	0x40d70741	6.7196355
23	0x408ff4e7	4.4986453
24	0x3ed0003f	0.40625188
25	0x4001265b	2.017966
26	0x40254a8a	2.5826745
27	0x4007c08e	2.1211276
28	0x40099da4	2.1502466
29	0x3ffe0dee	1.9848001
30	0x400625dc	2.0960608
31	0x401f81f9	2.492308
32	0x3ef07070	0.46960783
33	0x3e27618d	0.16345806
34	0x2b30bee2	6.2792664e-13
35	0x2b0f546b	5.092096e-13
36	0x3f1da51a	0.6158005
37	0x3f6da055	0.9282277
38	0x06e3ca74	8.568539e-35
39	0x06f96054	9.380493e-35

w f4 [1, 40, 1]
0	0x41200000	10.0
1	0x41200000	10.0
2	0x41200000	10.0
3	0x41200000	10.0
4	0x41200000	10.0
5	0x41200000	10.0
6	0x411cfc29	9.811563
7	0x4116f849	9.4356165
8	0x41200000	10.0
9	0x41132322	9.196077
10	0x40b92e5d	5.7869096
11	0x40d9122c	6.7834682
12	0x408932bb	4.2874427
13	0x40daf23d	6.84207
14	0x40487c1f	3.1325758
15	0x4090c245	4.5237145
16	0x405165af	3.2718313
17	0x3fe76454	1.8077493
18	0x400c26d4	2.1898699
19	0x41044590	8.266983
20	0x3fe92a8f	1.8216113
21	0x40620736	3.5316901
22	0x40d70741	6.7196355
23	0x408ff4e7	4.4986453
24	0x3ed0003f	0.40625188
25	0x4001265b	2.017966
26	0x40254a8a	2.5826745
27	0x4007c08e	2.1211276
28	0x40099da4	2.1502466
29	0x3ffe0dee	1.9848001
30	0x400625dc	2.0960608
31	0x401f81f9	2.492308
32	0x3ef07070	0.46960783
33	0x3e27618d	0.16345806
34	0x2b30bee2	6.2792664e-13
35	0x2b0f546b	5.092096e-13
36	0x3f1da51a	0.6158005
37	0x3f6da055	0.9282277
38	0x06e3ca74	8.568539e-35
39	0x06f96054	9.380493e-35

w f4 [1, 40, 1]
0	0x41200000	10.0
1	0x41200000	10.0
2	0x41200000	10.0
3	0x41200000	10.0
4	0x41200000	10.0
5	0x41200000	10.0
6	0x411cfc29	9.811563
7	0x4116f849	9.4356165
8	0x41200000	10.0
9	0x41132322	9.196077
10	0x40b92e5d	5.7869096
11	0x40d9122c	6.7834682
12	0x408932bb	4.2874427
13	0x40daf23d	6.84207
14	0x40487c1f	3.1325758
15	0x4090c245	4.5237145
16	0x405165af	3.2718313
17	0x3fe76454	1.8077493
18	0x400c26d4	2.1898699
19	0x41044590	8.266983
20	0x3fe92a8f	1.8216113
21	0x40620736	3.5316901
22	0x40d70741	6.7196355
23	0x408ff4e7	4.4986453
24	0x3ed0003f	0.40625188
25	0x4001265b	2.017966
26	0x40254a8a	2.5826745
27	0x4007c08e	2.1211276
28	0x40099da4	2.1502466
29	0x3ffe0dee	1.9848001
30	0x400625dc	2.0960608
31	0x401f81f9	2.492308
32	0x3ef07070	0.46960783
33	0x3e27618d	0.16345806
34	0x2b30bee2	6.2792664e-13
35	0x2b0f546b	5.092096e-13
36	0x3f1da51a	0.6158005
37	0x3f6da055	0.9282277
38	0x06e3ca74	8.568539e-35
39	0x06f96054	9.380493e-35

w f4 [1, 40, 1]
0	0x41200000	10.0
1	0x41200000	10.0
2	0x41200000	10.0
3	0x41200000	10.0
4	0x41200000	10.0
5	0x41200000	10.0
6	0x411cfc29	9.811563
7	0x4116f849	9.4356165
8	0x41200000	10.0
9	0x41132322	9.196077
10	0x40b92e5d	5.7869096
11	0x40d9122c	6.7834682
12	0x408932bb	4.2874427
13	0x40daf23d	6.84207
14	0x40487c1f	3.1325758
15	0x4090c245	4.5237145
16	0x405165af	3.2718313
17	0x3fe76454	1.8077493
18	0x400c26d4	2.1898699
19	0x41044590	8.266983
20	0x3fe92a8f	1.8216113
21	0x40620736	3.5316901
22	0x40d70741	6.7196355
23	0x408ff4e7	4.4986453
24	0x3ed0003f	0.40625188
25	0x4001265b	2.017966
26	0x40254a8a	2.5826745
27	0x4007c08e	2.1211276
28	0x40099da4	2.1502466
29	0x3ffe0dee	1.9848001
30	0x400625dc	2.0960608
31	0x401f81f9	2.492308
32	0x3ef07070	0.46960783
33	0x3e27618d	0.16345806
34	0x2b30bee2	6.2792664e-13
35	0x2b0f546b	5.092096e-13
36	0x3f1da51a	0.6158005
37	0x3f6da055	0.9282277
38	0x06e3ca74	8.568539e-35
39	0x06f96054	9.380493e-35

w f4 [1, 40, 1]
0	0x41200000	10.0
1	0x41200000	10.0
2	0x41200000	10.0
3	0x41200000	10.0
4	0x41200000	10.0
5	0x41200000	10.0
6	0x411cfc29	9.811563
7	0x4116f849	9.4356165
8	0x41200000	10.0
9	0x41132322	9.196077
10	0x40b92e5d	5.7869096
11	0x40d9122c	6.7834682
12	0x408932bb	4.2874427
13	0x40daf23d	6.84207
14	0x40487c1f	3.1325758
15	0x4090c245	4.5237145
16	0x405165af	3.2718313
17	0x3fe76454	1.8077493
18	0x400c26d4	2.1898699
19	0x41044590	8.266983
20	0x3fe92a8f	1.8216113
21	0x40620736	3.5316901
22	0x40d70741	6.7196355
23	0x408ff4e7	4.4986453
24	0x3ed0003f	0.40625188
25	0x4001265b	2.017966
26	0x40254a8a	2.5826745
27	0x4007c08e	2.1211276
28	0x40099da4	2.1502466
29	0x3ffe0dee	1.9848001
30	0x400625dc	2.0960608
31	0x401f81f9	2.492308
32	0x3ef07070	0.46960783
33	0x3e27618d	0.16345806
34	0x2b30bee2	6.2792664e-13
35	0x2b0f546b	5.092096e-13
36	0x3f1da51a	0.6158005
37	0x3f6da055	0.9282277
38	0x06e3ca74	8.568539e-35
39	0x06f96054	9.380493e-35

w f4 [1, 40, 1]
0	0x41200000	10.0
1	0x41200000	10.0
2	0x41200000	10.0
3	0x41200000	10.0
4	0x41200000	10.0
5	0x41200000	10.0
6	0x411cfc29	9.811563
7	0x4116f849	9.4356165
8	0x41200000	10.0
9	0x41132322	9.196077
10	0x40b92e5d	5.7869096
11	0x40d9122c	6.7834682
12	0x408932bb	4.2874427
13	0x40daf23d	6.84207
14	0x40487c1f	3.1325758
15	0x4090c245	4.5237145
16	0x405165af	3.2718313
17	0x3fe76454	1.8077493
18	0x400c26d4	2.1898699
19	0x41044590	8.266983
20	0x3fe92a8f	1.8216113
21	0x40620736	3.5316901
22	0x40d70741	6.7196355
23	0x408ff4e7	4.4986453
24	0x3ed0003f	0.40625188
25	0x4001265b	2.017966
26	0x40254a8a	2.5826745
27	0x4007c08e	2.1211276
28	0x40099da4	2.1502466
29	0x3ffe0dee	1.9848001
30	0x400625dc	2.0960608
31	0x401f81f9	2.492308
32	0x3ef07070	0.46960783
33	0x3e27618d	0.16345806
34	0x2b30bee2	6.2792664e-13
35	0x2b0f546b	5.092096e-13
36	0x3f1da51a	0.6158005
37	0x3f6da055	0.9282277
38	0x06e3ca74	8.568539e-35
39	0x06f96054	9.380493e-35

w f4 [1, 40, 1]
0	0x41200000	10.0
1	0x41200000	10.0
2	0x41200000	10.0
3	0x41200000	10.0
4	0x41200000	10.0
5	0x41200000	10.0
6	0x411cfc29	9.811563
7	0x4116f849	9.4356165
8	0x41200000	10.0
9	0x41132322	9.196077
10	0x40b92e5d	5.7869096
11	0x40d9122c	6.7834682
12	0x408932bb	4.2874427
13	0x40daf23d	6.84207
14	0x40487c1f	3.1325758
15	0x4090c245	4.5237145
16	0x405165af	3.2718313
17	0x3fe76454	1.8077493
18	0x400c26d4	2.1898699
19	0x41044590	8.266983
20	0x3fe92a8f	1.8216113
21	0x40620736	3.5316901
22	0x40d70741	6.7196355
23	0x408ff4e7	4.4986453
24	0x3ed0003f	0.40625188
25	0x4001265b	2.017966
26	0x40254a8a	2.5826745
27	0x4007c08e	2.1211276
28	0x40099da4	2.1502466
29	0x3ffe0dee	1.9848001
30	0x400625dc	2.0960608
31	0x401f81f9	2.492308
32	0x3ef07070	0.46960783
33	0x3e27618d	0.16345806
34	0x2b30bee2	6.2792664e-13
35	0x2b0f546b	5.092096e-13
36	0x3f1da51a	0.6158005
37	0x3f6da055	0.9282277
38	0x06e3ca74	8.568539e-35
39	0x06f96054	9.380493e-35

w f4 [1, 40, 1]
0	0x41200000	10.0
1	0x41200000	10.0
2	0x41200000	10.0
3	0x41200000	10.0
4	0x41200000	10.0
5	0x41200000	10.0
6	0x411cfc29	9.811563
7	0x4116f849	9.4356165
8	0x41200000	10.0
9	0x41132322	9.196077
10	0x40b92e5d	5.7869096
11	0x40d9122c	6.7834682
12	0x408932bb	4.2874427
13	0x40daf23d	6.84207
14	0x40487c1f	3.1325758
15	0x4090c245	4.5237145
16	0x405165af	3.2718313
17	0x3fe76454	1.8077493
18	0x400c26d4	2.1898699
19	0x41044590	8.266983
20	0x3fe92a8f	1.8216113
21	0x40620736	3.5316901
22	0x40d70741	6.7196355
23	0x408ff4e7	4.4986453
24	0x3ed0003f	0.40625188
25	0x4001265b	2.017966
26	0x40254a8a	2.5826745
27	0x4007c08e	2.1211276
28	0x40099da4	2.1502466
29	0x3ffe0dee	1.9848001
30	0x400625dc	2.0960608
31	0x401f81f9	2.492308
32	0x3ef07070	0.46960783
33	0x3e27618d	0.16345806
34	0x2b30bee2	6.2792664e-13
35	0x2b0f546b	5.092096e-13
36	0x3f1da51a	0.6158005
37	0x3f6da055	0.9282277
38	0x06e3ca74	8.568539e-35
39	0x06f96054	9.380493e-35

w f4 [1, 40, 1]
0	0x41200000	10.0
1	0x41200000	10.0
2	0x41200000	10.0
3	0x41200000	10.0
4	0x41200000	10.0
5	0x41200000	10.0
6	0x411cfc29	9.811563
7	0x4116f849	9.4356165
8	0x41200000	10.0
9	0x41132322	9.196077
10	0x40b92e5d	5.7869096
11	0x40d9122c	6.7834682
12	0x408932bb	4.2874427
13	0x40daf23d	6.84207
14	0x40487c1f	3.1325758
15	0x4090c245	4.5237145
16	0x405165af	3.2718313
17	0x3fe76454	1.8077493
18	0x400c26d4	2.1898699
19	0x41044590	8.266983
20	0x3fe92a8f	1.8216113
21	0x40620736	3.5316901
22	0x40d70741	6.7196355
23	0x408ff4e7	4.4986453
24	0x3ed0003f	0.40625188
25	0x4001265b	2.017966
26	0x40254a8a	2.5826745
27	0x4007c08e	2.1211276
28	0x40099da4	2.1502466
29	0x3ffe0dee	1.9848001
30	0x400625dc	2.0960608
31	0x401f81f9	2.492308
32	0x3ef07070	0.46960783
33	0x3e27618d	0.16345806
34	0x2b30bee2	6.2792664e-13
35	0x2b0f546b	5.092096e-13
36	0x3f1da51a	0.6158005
37	0x3f6da055	0.9282277
38	0x06e3ca74	8.568539e-35
39	0x06f96054	9.380493e-35
