SNN_Codes/Spiking_codes/control/sail354.pt (torch, 612768 bytes, 505 tensors)

x f4 [1, 72]
00000000: 0000 0000 0000 0000 0000 0000 0000 0000
00000010: 0000 0000 0000 0000 0000 0000 0000 0000
00000020: 0000 0000 0000 0000 0000 0000 0000 0000
00000030: 0000 0000 0000 0000 0000 0000 0000 0000
00000040: 0000 0000 0000 0000 0000 0000 0000 0000
00000050: 0000 0000 0000 0000 0000 0000 0000 0000
00000060: 0000 0000 0000 0000 0000 0000 0000 0000
00000070: 0000 0000 0000 0000 0000 0000 0000 0000
00000080: 0000 0000 0000 0000 0000 0000 0000 0000
00000090: 0a00 0000 0a00 0000 0000 0000 0000 0000
000000a0: 0000 0000 0000 0000 0000 0000 0000 0000
000000b0: 0000 0000 0000 0000 0000 0000 0000 0000
000000c0: 0000 0000 0000 0000 0000 0000 0000 0000
000000d0: 0000 0000 0000 0000 0000 0000 0000 0000
000000e0: 0000 0000 0000 0000 0000 0000 0000 0000
000000f0: 0000 0000 0000 0000 0000 803f 5898 513f
00000100: c833 3609 c833 3609 12e9 3e1b 12e9 3e1b
00000110: 0a00 0000 0a00 0000 0a00 0000 0a00 0000
0.0 0.0 0.0 0.0 0.0 0.0 0.0 0.0
0.0 0.0 0.0 0.0 0.0 0.0 0.0 0.0
0.0 0.0 0.0 0.0 0.0 0.0 0.0 0.0
0.0 0.0 0.0 0.0 0.0 0.0 0.0 0.0
0.0 0.0 0.0 0.0 1.4e-44 1.4e-44 0.0 0.0
0.0 0.0 0.0 0.0 0.0 0.0 0.0 0.0
0.0 0.0 0.0 0.0 0.0 0.0 0.0 0.0
0.0 0.0 0.0 0.0 0.0 0.0 1.0 0.81873083
2.19318e-33 2.19318e-33 1.5791741e-22 1.5791741e-22 1.4e-44 1.4e-44 1.4e-44 1.4e-44

w f4 [72, 1]
00000000: 4bb4 5740 c6f3 a03f 495c 5840 7ed5 b83f
00000010: eeb6 a53f b24c 2540 8d2e 1240 613b e93f
00000020: 651e ba3f 74d6 dc3f 1c05 e73f 5fc2 8a3f
00000030: d080 1740 b0bd a83f e84b a53f 8e2e 0f3f
00000040: f999 243f a4c2 243f a1b3 1840 54b7 f53f
00000050: b6e3 6640 fe99 0a41 0cfb 1a41 86fc ed3f
00000060: cef2 a43f f4f8 f940 4a4d 7340 f319 7340
00000070: 69b9 9b40 2493 2740 6c57 8640 15a1 1c40
00000080: 7d44 543f 03c1 a240 3c58 1240 6f00 6540
00000090: b1fe 1a41 0000 2041 410d 1c41 f3cd 1b41
000000a0: c1bb 0c41 680e d940 bd33 1a41 c9b7 8840
000000b0: 1c7c a540 140f df40 4a6b 6640 e94e b640
000000c0: 0c31 9a40 3ed8 6640 c475 983f be51 4740
000000d0: 522d 8b40 ab62 3440 edb7 7140 cf85 f240
000000e0: e499 9d3f 7a14 2c3f e261 8c3f c187 8f3f
000000f0: dd3d 043f cded 3c3f 00f8 4b3f 83fa 913f
00000100: 7661 bc3f 0866 633d 1bc7 c73e 3804 663f
00000110: ce12 4b3f 1dba 293f 2197 4f2b c363 542b
3.3703792 1.2574394 3.3806326 1.4440153 1.2946451 2.582806 2.2840912 1.8221246
1.4540526 1.7252946 1.8048434 1.0840567 2.367237 1.3182888 1.291379 0.5593041
0.64297444 0.643595 2.3859637 1.9196572 3.6076484 8.662596 9.686291 1.8592689
1.2886598 7.81164 3.8015924 3.7984588 4.866383 2.6183558 4.1981716 2.4473317
0.82917005 5.086061 2.2866354 3.5781515 9.6871805 10.0 9.753236 9.737781
8.795838 6.7830086 9.637631 4.2724347 5.1714 6.9705906 3.6002984 5.6971326
4.818487 3.6069484 1.1910939 3.1143641 4.3492823 2.8185222 3.776851 7.578834
1.2312589 0.67218745 1.0967371 1.1213304 0.51656896 0.73800355 0.7967529 1.1404575
1.4717243 0.055517226 0.39019093 0.8985019 0.7932557 0.6629961 7.3750907e-13 7.5455977e-13

nu f4 [2]
00000000: 0000 803f 0000 803f
1.0 1.0

p_plus f4 [1, 72]
00000000: 0a00 0000 0a00 0000 0a00 0000 0a00 0000
00000010: 0a00 0000 0a00 0000 0a00 0000 0a00 0000
00000020: 0a00 0000 0a00 0000 0a00 0000 0a00 0000
00000030: 0a00 0000 0a00 0000 0a00 0000 0a00 0000
00000040: 0a00 0000 0a00 0000 0a00 0000 0a00 0000
00000050: 0a00 0000 0a00 0000 0a00 0000 0a00 0000
00000060: 0a00 0000 0a00 0000 0a00 0000 0a00 0000
00000070: 0a00 0000 0a00 0000 0a00 0000 0a00 0000
00000080: 0a00 0000 0a00 0000 0a00 0000 0a00 0000
00000090: 0a00 0000 0a00 0000 0a00 0000 0a00 0000
000000a0: 0a00 0000 0a00 0000 0a00 0000 0a00 0000
000000b0: 0a00 0000 0a00 0000 0a00 0000 0a00 0000
000000c0: 0a00 0000 0a00 0000 0000 0000 0000 0000
000000d0: 0a00 0000 0a00 0000 0a00 0000 0a00 0000
000000e0: 0a00 0000 0a00 0000 0a00 0000 0a00 0000
000000f0: 0a00 0000 0a00 0000 df9f c140 dfa9 a340
00000100: cb0f 7c0a 4044 870a 808f 6f1c 7848 571c
00000110: 0a00 0000 0a00 0000 0a00 0000 0a00 0000
1.4e-44 1.4e-44 1.4e-44 1.4e-44 1.4e-44 1.4e-44 1.4e-44 1.4e-44
1.4e-44 1.4e-44 1.4e-44 1.4e-44 1.4e-44 1.4e-44 1.4e-44 1.4e-44
1.4e-44 1.4e-44 1.4e-44 1.4e-44 1.4e-44 1.4e-44 1.4e-44 1.4e-44
1.4e-44 1.4e-44 1.4e-44 1.4e-44 1.4e-44 1.4e-44 1.4e-44 1.4e-44
1.4e-44 1.4e-44 1.4e-44 1.4e-44 1.4e-44 1.4e-44 1.4e-44 1.4e-44
1.4e-44 1.4e-44 1.4e-44 1.4e-44 1.4e-44 1.4e-44 1.4e-44 1.4e-44
1.4e-44 1.4e-44 0.0 0.0 1.4e-44 1.4e-44 1.4e-44 1.4e-44
1.4e-44 1.4e-44 1.4e-44 1.4e-44 1.4e-44 1.4e-44 6.0507655 5.114486
1.2136329e-32 1.30257e-32 7.9263936e-22 7.1231196e-22 1.4e-44 1.4e-44 1.4e-44 1.4e-44

eligibility f4 [1, 72, 1]
00000000: 0000 0000 0000 0000 0000 0000 0000 0000
00000010: 0000 0000 0000 0000 0000 0000 0000 0000
00000020: 0000 0000 0000 0000 0000 0000 0000 0000
00000030: 0000 0000 0000 0000 0000 0000 0000 0000
00000040: 0000 0000 0000 0000 0000 0000 0000 0000
00000050: 0000 0000 0000 0000 0000 0000 0000 0000
00000060: 0000 0000 0000 0000 0000 0000 0000 0000
00000070: 0000 0000 0000 0000 0000 0000 0000 0000
00000080: 0000 0000 0000 0000 0000 0000 0000 0000
00000090: 0000 0000 0000 0000 0000 0000 0000 0000
000000a0: 0000 0000 0000 0000 0000 0000 0000 0000
000000b0: 0000 0000 0000 0000 0000 0000 0000 0000
000000c0: 0000 0000 0000 0000 0000 0000 0000 0000
000000d0: 0000 0000 0000 0000 0000 0000 0000 0000
000000e0: 0000 0000 0000 0000 0000 0000 0000 0000
000000f0: 0000 0000 0000 0000 17c8 62bf 0000 0000
00000100: 0000 0000 0000 0000 0000 0000 0000 0000
00000110: 0000 0000 0000 0000 0000 0000 0000 0000
0.0 0.0 0.0 0.0 0.0 0.0 0.0 0.0
0.0 0.0 0.0 0.0 0.0 0.0 0.0 0.0
0.0 0.0 0.0 0.0 0.0 0.0 0.0 0.0
0.0 0.0 0.0 0.0 0.0 0.0 0.0 0.0
0.0 0.0 0.0 0.0 0.0 0.0 0.0 0.0
0.0 0.0 0.0 0.0 0.0 0.0 0.0 0.0
0.0 0.0 0.0 0.0 0.0 0.0 0.0 0.0
0.0 0.0 0.0 0.0 0.0 0.0 -0.8858656 0.0
0.0 0.0 0.0 0.0 0.0 0.0 0.0 0.0

w f4 [1, 72, 1]
00000000: 4bb4 5740 c6f3 a03f 495c 5840 7ed5 b83f
00000010: eeb6 a53f b24c 2540 8d2e 1240 613b e93f
00000020: 651e ba3f 74d6 dc3f 1c05 e73f 5fc2 8a3f
00000030: d080 1740 b0bd a83f e84b a53f 8e2e 0f3f
00000040: f999 243f a4c2 243f a1b3 1840 54b7 f53f
00000050: b6e3 6640 fe99 0a41 0cfb 1a41 86fc ed3f
00000060: cef2 a43f f4f8 f940 4a4d 7340 f319 7340
00000070: 69b9 9b40 2493 2740 6c57 8640 15a1 1c40
00000080: 7d44 543f 03c1 a240 3c58 1240 6f00 6540
00000090: b1fe 1a41 0000 2041 410d 1c41 f3cd 1b41
000000a0: c1bb 0c41 680e d940 bd33 1a41 c9b7 8840
000000b0: 1c7c a540 140f df40 4a6b 6640 e94e b640
000000c0: 0c31 9a40 3ed8 6640 c475 983f be51 4740
000000d0: 522d 8b40 ab62 3440 edb7 7140 cf85 f240
000000e0: e499 9d3f 7a14 2c3f e261 8c3f c187 8f3f
000000f0: dd3d 043f cded 3c3f 00f8 4b3f 83fa 913f
00000100: 7661 bc3f 0866 633d 1bc7 c73e 3804 663f
00000110: ce12 4b3f 1dba 293f 2197 4f2b c363 542b
3.3703792 1.2574394 3.3806326 1.4440153 1.2946451 2.582806 2.2840912 1.8221246
1.4540526 1.7252946 1.8048434 1.0840567 2.367237 1.3182888 1.291379 0.5593041
0.64297444 0.643595 2.3859637 1.9196572 3.6076484 8.662596 9.686291 1.8592689
1.2886598 7.81164 3.8015924 3.7984588 4.866383 2.6183558 4.1981716 2.4473317
0.82917005 5.086061 2.2866354 3.5781515 9.6871805 10.0 9.753236 9.737781
8.795838 6.7830086 9.637631 4.2724347 5.1714 6.9705906 3.6002984 5.6971326
4.818487 3.6069484 1.1910939 3.1143641 4.3492823 2.8185222 3.776851 7.578834
1.2312589 0.67218745 1.0967371 1.1213304 0.51656896 0.73800355 0.7967529 1.1404575
1.4717243 0.055517226 0.39019093 0.8985019 0.7932557 0.6629961 7.3750907e-13 7.5455977e-13

w f4 [1, 72, 1]
00000000: 4bb4 5740 c6f3 a03f 495c 5840 7ed5 b83f
00000010: eeb6 a53f b24c 2540 8d2e 1240 613b e93f
00000020: 651e ba3f 74d6 dc3f 1c05 e73f 5fc2 8a3f
00000030: d080 1740 b0bd a83f e84b a53f 8e2e 0f3f
00000040: f999 243f a4c2 243f a1b3 1840 54b7 f53f
00000050: b6e3 6640 fe99 0a41 0cfb 1a41 86fc ed3f
00000060: cef2 a43f f4f8 f940 4a4d 7340 f319 7340
00000070: 69b9 9b40 2493 2740 6c57 8640 15a1 1c40
00000080: 7d44 543f 03c1 a240 3c58 1240 6f00 6540
00000090: b1fe 1a41 0000 2041 410d 1c41 f3cd 1b41
000000a0: c1bb 0c41 680e d940 bd33 1a41 c9b7 8840
000000b0: 1c7c a540 140f df40 4a6b 6640 e94e b640
000000c0: 0c31 9a40 3ed8 6640 c475 983f be51 4740
000000d0: 522d 8b40 ab62 3440 edb7 7140 cf85 f240
000000e0: e499 9d3f 7a14 2c3f e261 8c3f c187 8f3f
000000f0: dd3d 043f cded 3c3f 00f8 4b3f 83fa 913f
00000100: 7661 bc3f 0866 633d 1bc7 c73e 3804 663f
00000110: ce12 4b3f 1dba 293f 2197 4f2b c363 542b
3.3703792 1.2574394 3.3806326 1.4440153 1.2946451 2.582806 2.2840912 1.8221246
1.4540526 1.7252946 1.8048434 1.0840567 2.367237 1.3182888 1.291379 0.5593041
0.64297444 0.643595 2.3859637 1.9196572 3.6076484 8.662596 9.686291 1.8592689
1.2886598 7.81164 3.8015924 3.7984588 4.866383 2.6183558 4.1981716 2.4473317
0.82917005 5.086061 2.2866354 3.5781515 9.6871805 10.0 9.753236 9.737781
8.795838 6.7830086 9.637631 4.2724347 5.1714 6.9705906 3.6002984 5.6971326
4.818487 3.6069484 1.1910939 3.1143641 4.3492823 2.8185222 3.776851 7.578834
1.2312589 0.67218745 1.0967371 1.1213304 0.51656896 0.73800355 0.7967529 1.1404575
1.4717243 0.055517226 0.39019093 0.8985019 0.7932557 0.6629961 7.3750907e-13 7.5455977e-13

w f4 [1, 72, 1]
00000000: 4bb4 5740 c6f3 a03f 495c 5840 7ed5 b83f
00000010: eeb6 a53f b24c 2540 8d2e 1240 613b e93f
00000020: 651e ba3f 74d6 dc3f 1c05 e73f 5fc2 8a3f
00000030: d080 1740 b0bd a83f e84b a53f 8e2e 0f3f
00000040: f999 243f a4c2 243f a1b3 1840 54b7 f53f
00000050: b6e3 6640 fe99 0a41 0cfb 1a41 86fc ed3f
00000060: cef2 a43f f4f8 f940 4a4d 7340 f319 7340
00000070: 69b9 9b40 2493 2740 6c57 8640 15a1 1c40
00000080: 7d44 543f 03c1 a240 3c58 1240 6f00 6540
00000090: b1fe 1a41 0000 2041 410d 1c41 f3cd 1b41
000000a0: c1bb 0c41 680e d940 bd33 1a41 c9b7 8840
000000b0: 1c7c a540 140f df40 4a6b 6640 e94e b640
000000c0: 0c31 9a40 3ed8 6640 c475 983f be51 4740
000000d0: 522d 8b40 ab62 3440 edb7 7140 cf85 f240
000000e0: e499 9d3f 7a14 2c3f e261 8c3f c187 8f3f
000000f0: dd3d 043f cded 3c3f 00f8 4b3f 83fa 913f
00000100: 7661 bc3f 0866 633d 1bc7 c73e 3804 663f
00000110: ce12 4b3f 1dba 293f 2197 4f2b c363 542b
3.3703792 1.2574394 3.3806326 1.4440153 1.2946451 2.582806 2.2840912 1.8221246
1.4540526 1.7252946 1.8048434 1.0840567 2.367237 1.3182888 1.291379 0.5593041
0.64297444 0.643595 2.3859637 1.9196572 3.6076484 8.662596 9.686291 1.8592689
1.2886598 7.81164 3.8015924 3.7984588 4.866383 2.6183558 4.1981716 2.4473317
0.82917005 5.086061 2.2866354 3.5781515 9.6871805 10.0 9.753236 9.737781
8.795838 6.7830086 9.637631 4.2724347 5.1714 6.9705906 3.6002984 5.6971326
4.818487 3.6069484 1.1910939 3.1143641 4.3492823 2.8185222 3.776851 7.578834
1.2312589 0.67218745 1.0967371 1.1213304 0.51656896 0.73800355 0.7967529 1.1404575
1.4717243 0.055517226 0.39019093 0.8985019 0.7932557 0.6629961 7.3750907e-13 7.5455977e-13

w f4 [1, 72, 1]
00000000: 4bb4 5740 c6f3 a03f 495c 5840 7ed5 b83f
00000010: eeb6 a53f b24c 2540 8d2e 1240 613b e93f
00000020: 651e ba3f 74d6 dc3f 1c05 e73f 5fc2 8a3f
00000030: d080 1740 b0bd a83f e84b a53f 8e2e 0f3f
00000040: f999 243f a4c2 243f a1b3 1840 54b7 f53f
00000050: b6e3 6640 fe99 0a41 0cfb 1a41 86fc ed3f
00000060: cef2 a43f f4f8 f940 4a4d 7340 f319 7340
00000070: 69b9 9b40 2493 2740 6c57 8640 15a1 1c40
00000080: 7d44 543f 03c1 a240 3c58 1240 6f00 6540
00000090: b1fe 1a41 0000 2041 410d 1c41 f3cd 1b41
000000a0: c1bb 0c41 680e d940 bd33 1a41 c9b7 8840
000000b0: 1c7c a540 140f df40 4a6b 6640 e94e b640
000000c0: 0c31 9a40 3ed8 6640 c475 983f be51 4740
000000d0: 522d 8b40 ab62 3440 edb7 7140 cf85 f240
000000e0: e499 9d3f 7a14 2c3f e261 8c3f c187 8f3f
000000f0: dd3d 043f cded 3c3f 00f8 4b3f 83fa 913f
00000100: 7661 bc3f 0866 633d 1bc7 c73e 3804 663f
00000110: ce12 4b3f 1dba 293f 2197 4f2b c363 542b
3.3703792 1.2574394 3.3806326 1.4440153 1.2946451 2.582806 2.2840912 1.8221246
1.4540526 1.7252946 1.8048434 1.0840567 2.367237 1.3182888 1.291379 0.5593041
0.64297444 0.643595 2.3859637 1.9196572 3.6076484 8.662596 9.686291 1.8592689
1.2886598 7.81164 3.8015924 3.7984588 4.866383 2.6183558 4.1981716 2.4473317
0.82917005 5.086061 2.2866354 3.5781515 9.6871805 10.0 9.753236 9.737781
8.795838 6.7830086 9.637631 4.2724347 5.1714 6.9705906 3.6002984 5.6971326
4.818487 3.6069484 1.1910939 3.1143641 4.3492823 2.8185222 3.776851 7.578834
1.2312589 0.67218745 1.0967371 1.1213304 0.51656896 0.73800355 0.7967529 1.1404575
1.4717243 0.055517226 0.39019093 0.8985019 0.7932557 0.6629961 7.3750907e-13 7.5455977e-13

w f4 [1, 72, 1]
00000000: 4bb4 5740 c6f3 a03f 495c 5840 7ed5 b83f
00000010: eeb6 a53f b24c 2540 8d2e 1240 613b e93f
00000020: 651e ba3f 74d6 dc3f 1c05 e73f 5fc2 8a3f
00000030: d080 1740 b0bd a83f e84b a53f 8e2e 0f3f
00000040: f999 243f a4c2 243f a1b3 1840 54b7 f53f
00000050: b6e3 6640 fe99 0a41 0cfb 1a41 86fc ed3f
00000060: cef2 a43f f4f8 f940 4a4d 7340 f319 7340
00000070: 69b9 9b40 2493 2740 6c57 8640 15a1 1c40
00000080: 7d44 543f 03c1 a240 3c58 1240 6f00 6540
00000090: b1fe 1a41 0000 2041 410d 1c41 f3cd 1b41
000000a0: c1bb 0c41 680e d940 bd33 1a41 c9b7 8840
000000b0: 1c7c a540 140f df40 4a6b 6640 e94e b640
000000c0: 0c31 9a40 3ed8 6640 c475 983f be51 4740
000000d0: 522d 8b40 ab62 3440 edb7 7140 cf85 f240
000000e0: e499 9d3f 7a14 2c3f e261 8c3f c187 8f3f
000000f0: dd3d 043f cded 3c3f 00f8 4b3f 83fa 913f
00000100: 7661 bc3f 0866 633d 1bc7 c73e 3804 663f
00000110: ce12 4b3f 1dba 293f 2197 4f2b c363 542b
3.3703792 1.2574394 3.3806326 1.4440153 1.2946451 2.582806 2.2840912 1.8221246
1.4540526 1.7252946 1.8048434 1.0840567 2.367237 1.3182888 1.291379 0.5593041
0.64297444 0.643595 2.3859637 1.9196572 3.6076484 8.662596 9.686291 1.8592689
1.2886598 7.81164 3.8015924 3.7984588 4.866383 2.6183558 4.1981716 2.4473317
0.82917005 5.086061 2.2866354 3.5781515 9.6871805 10.0 9.753236 9.737781
8.795838 6.7830086 9.637631 4.2724347 5.1714 6.9705906 3.6002984 5.6971326
4.818487 3.6069484 1.1910939 3.1143641 4.3492823 2.8185222 3.776851 7.578834
1.2312589 0.67218745 1.0967371 1.1213304 0.51656896 0.73800355 0.7967529 1.1404575
1.4717243 0.055517226 0.39019093 0.8985019 0.7932557 0.6629961 7.3750907e-13 7.5455977e-13

w f4 [1, 72, 1]
00000000: 4bb4 5740 c6f3 a03f 495c 5840 7ed5 b83f
00000010: eeb6 a53f b24c 2540 8d2e 1240 613b e93f
00000020: 651e ba3f 74d6 dc3f 1c05 e73f 5fc2 8a3f
00000030: d080 1740 b0bd a83f e84b a53f 8e2e 0f3f
00000040: f999 243f a4c2 243f a1b3 1840 54b7 f53f
00000050: b6e3 6640 fe99 0a41 0cfb 1a41 86fc ed3f
00000060: cef2 a43f f4f8 f940 4a4d 7340 f319 7340
00000070: 69b9 9b40 2493 2740 6c57 8640 15a1 1c40
00000080: 7d44 543f 03c1 a240 3c58 1240 6f00 6540
00000090: b1fe 1a41 0000 2041 410d 1c41 f3cd 1b41
000000a0: c1bb 0c41 680e d940 bd33 1a41 c9b7 8840
000000b0: 1c7c a540 140f df40 4a6b 6640 e94e b640
000000c0: 0c31 9a40 3ed8 6640 c475 983f be51 4740
000000d0: 522d 8b40 ab62 3440 edb7 7140 cf85 f240
000000e0: e499 9d3f 7a14 2c3f e261 8c3f c187 8f3f
000000f0: dd3d 043f cded 3c3f 00f8 4b3f 83fa 913f
00000100: 7661 bc3f 0866 633d 1bc7 c73e 3804 663f
00000110: ce12 4b3f 1dba 293f 2197 4f2b c363 542b
3.3703792 1.2574394 3.3806326 1.4440153 1.2946451 2.582806 2.2840912 1.8221246
1.4540526 1.7252946 1.8048434 1.0840567 2.367237 1.3182888 1.291379 0.5593041
0.64297444 0.643595 2.3859637 1.9196572 3.6076484 8.662596 9.686291 1.8592689
1.2886598 7.81164 3.8015924 3.7984588 4.866383 2.6183558 4.1981716 2.4473317
0.82917005 5.086061 2.2866354 3.5781515 9.6871805 10.0 9.753236 9.737781
8.795838 6.7830086 9.637631 4.2724347 5.1714 6.9705906 3.6002984 5.6971326
4.818487 3.6069484 1.1910939 3.1143641 4.3492823 2.8185222 3.776851 7.578834
1.2312589 0.67218745 1.0967371 1.1213304 0.51656896 0.73800355 0.7967529 1.1404575
1.4717243 0.055517226 0.39019093 0.8985019 0.7932557 0.6629961 7.3750907e-13 7.5455977e-13

w f4 [1, 72, 1]
00000000: 4bb4 5740 c6f3 a03f 495c 5840 7ed5 b83f
00000010: eeb6 a53f b24c 2540 8d2e 1240 613b e93f
00000020: 651e ba3f 74d6 dc3f 1c05 e73f 5fc2 8a3f
00000030: d080 1740 b0bd a83f e84b a53f 8e2e 0f3f
00000040: f999 243f a4c2 243f a1b3 1840 54b7 f53f
00000050: b6e3 6640 fe99 0a41 0cfb 1a41 86fc ed3f
00000060: cef2 a43f f4f8 f940 4a4d 7340 f319 7340
00000070: 69b9 9b40 2493 2740 6c57 8640 15a1 1c40
00000080: 7d44 543f 03c1 a240 3c58 1240 6f00 6540
00000090: b1fe 1a41 0000 2041 410d 1c41 f3cd 1b41
000000a0: c1bb 0c41 680e d940 bd33 1a41 c9b7 8840
000000b0: 1c7c a540 140f df40 4a6b 6640 e94e b640
000000c0: 0c31 9a40 3ed8 6640 c475 983f be51 4740
000000d0: 522d 8b40 ab62 3440 edb7 7140 cf85 f240
000000e0: e499 9d3f 7a14 2c3f e261 8c3f c187 8f3f
000000f0: dd3d 043f cded 3c3f 00f8 4b3f 83fa 913f
00000100: 7661 bc3f 0866 633d 1bc7 c73e 3804 663f
00000110: ce12 4b3f 1dba 293f 2197 4f2b c363 542b
3.3703792 1.2574394 3.3806326 1.4440153 1.2946451 2.582806 2.2840912 1.8221246
1.4540526 1.7252946 1.8048434 1.0840567 2.367237 1.3182888 1.291379 0.5593041
0.64297444 0.643595 2.3859637 1.9196572 3.6076484 8.662596 9.686291 1.8592689
1.2886598 7.81164 3.8015924 3.7984588 4.866383 2.6183558 4.1981716 2.4473317
0.82917005 5.086061 2.2866354 3.5781515 9.6871805 10.0 9.753236 9.737781
8.795838 6.7830086 9.637631 4.2724347 5.1714 6.9705906 3.6002984 5.6971326
4.818487 3.6069484 1.1910939 3.1143641 4.3492823 2.8185222 3.776851 7.578834
1.2312589 0.67218745 1.0967371 1.1213304 0.51656896 0.73800355 0.7967529 1.1404575
1.4717243 0.055517226 0.39019093 0.8985019 0.7932557 0.6629961 7.3750907e-13 7.5455977e-13

w f4 [1, 72, 1]
00000000: 4bb4 5740 c6f3 a03f 495c 5840 7ed5 b83f
00000010: eeb6 a53f b24c 2540 8d2e 1240 613b e93f
00000020: 651e ba3f 74d6 dc3f 1c05 e73f 5fc2 8a3f
00000030: d080 1740 b0bd a83f e84b a53f 8e2e 0f3f
00000040: f999 243f a4c2 243f a1b3 1840 54b7 f53f
00000050: b6e3 6640 fe99 0a41 0cfb 1a41 86fc ed3f
00000060: cef2 a43f f4f8 f940 4a4d 7340 f319 7340
00000070: 69b9 9b40 2493 2740 6c57 8640 15a1 1c40
00000080: 7d44 543f 03c1 a240 3c58 1240 6f00 6540
00000090: b1fe 1a41 0000 2041 410d 1c41 f3cd 1b41
000000a0: c1bb 0c41 680e d940 bd33 1a41 c9b7 8840
000000b0: 1c7c a540 140f df40 4a6b 6640 e94e b640
000000c0: 0c31 9a40 3ed8 6640 c475 983f be51 4740
000000d0: 522d 8b40 ab62 3440 edb7 7140 cf85 f240
000000e0: e499 9d3f 7a14 2c3f e261 8c3f c187 8f3f
000000f0: dd3d 043f cded 3c3f 00f8 4b3f 83fa 913f
00000100: 7661 bc3f 0866 633d 1bc7 c73e 3804 663f
00000110: ce12 4b3f 1dba 293f 2197 4f2b c363 542b
3.3703792 1.2574394 3.3806326 1.4440153 1.2946451 2.582806 2.2840912 1.8221246
1.4540526 1.7252946 1.8048434 1.0840567 2.367237 1.3182888 1.291379 0.5593041
0.64297444 0.643595 2.3859637 1.9196572 3.6076484 8.662596 9.686291 1.8592689
1.2886598 7.81164 3.8015924 3.7984588 4.866383 2.6183558 4.1981716 2.4473317
0.82917005 5.086061 2.2866354 3.5781515 9.6871805 10.0 9.753236 9.737781
8.795838 6.7830086 9.637631 4.2724347 5.1714 6.9705906 3.6002984 5.6971326
4.818487 3.6069484 1.1910939 3.1143641 4.3492823 2.8185222 3.776851 7.578834
1.2312589 0.67218745 1.0967371 1.1213304 0.51656896 0.73800355 0.7967529 1.1404575
1.4717243 0.055517226 0.39019093 0.8985019 0.7932557 0.6629961 7.3750907e-13 7.5455977e-13

w f4 [1, 72, 1]
00000000: 4bb4 5740 c6f3 a03f 495c 5840 7ed5 b83f
00000010: eeb6 a53f b24c 2540 8d2e 1240 613b e93f
00000020: 651e ba3f 74d6 dc3f 1c05 e73f 5fc2 8a3f
00000030: d080 1740 b0bd a83f e84b a53f 8e2e 0f3f
00000040: f999 243f a4c2 243f a1b3 1840 54b7 f53f
00000050: b6e3 6640 fe99 0a41 0cfb 1a41 86fc ed3f
00000060: cef2 a43f f4f8 f940 4a4d 7340 f319 7340
00000070: 69b9 9b40 2493 2740 6c57 8640 15a1 1c40
00000080: 7d44 543f 03c1 a240 3c58 1240 6f00 6540
00000090: b1fe 1a41 0000 2041 410d 1c41 f3cd 1b41
000000a0: c1bb 0c41 680e d940 bd33 1a41 c9b7 8840
000000b0: 1c7c a540 140f df40 4a6b 6640 e94e b640
000000c0: 0c31 9a40 3ed8 6640 c475 983f be51 4740
000000d0: 522d 8b40 ab62 3440 edb7 7140 cf85 f240
000000e0: e499 9d3f 7a14 2c3f e261 8c3f c187 8f3f
000000f0: dd3d 043f cded 3c3f 00f8 4b3f 83fa 913f
00000100: 7661 bc3f 0866 633d 1bc7 c73e 3804 663f
00000110: ce12 4b3f 1dba 293f 2197 4f2b c363 542b
3.3703792 1.2574394 3.3806326 1.4440153 1.2946451 2.582806 2.2840912 1.8221246
1.4540526 1.7252946 1.8048434 1.0840567 2.367237 1.3182888 1.291379 0.5593041
0.64297444 0.643595 2.3859637 1.9196572 3.6076484 8.662596 9.686291 1.8592689
1.2886598 7.81164 3.8015924 3.7984588 4.866383 2.6183558 4.1981716 2.4473317
0.82917005 5.086061 2.2866354 3.5781515 9.6871805 10.0 9.753236 9.737781
8.795838 6.7830086 9.637631 4.2724347 5.1714 6.9705906 3.6002984 5.6971326
4.818487 3.6069484 1.1910939 3.1143641 4.3492823 2.8185222 3.776851 7.578834
1.2312589 0.67218745 1.0967371 1.1213304 0.51656896 0.73800355 0.7967529 1.1404575
1.4717243 0.055517226 0.39019093 0.8985019 0.7932557 0.6629961 7.3750907e-13 7.5455977e-13

w f4 [1, 72, 1]
00000000: 4bb4 5740 c6f3 a03f 495c 5840 7ed5 b83f
00000010: eeb6 a53f b24c 2540 8d2e 1240 613b e93f
00000020: 651e ba3f 74d6 dc3f 1c05 e73f 5fc2 8a3f
00000030: d080 1740 b0bd a83f e84b a53f 8e2e 0f3f
00000040: f999 243f a4c2 243f a1b3 1840 54b7 f53f
00000050: b6e3 6640 fe99 0a41 0cfb 1a41 86fc ed3f
00000060: cef2 a43f f4f8 f940 4a4d 7340 f319 7340
00000070: 69b9 9b40 2493 2740 6c57 8640 15a1 1c40
00000080: 7d44 543f 03c1 a240 3c58 1240 6f00 6540
00000090: b1fe 1a41 0000 2041 410d 1c41 f3cd 1b41
000000a0: c1bb 0c41 680e d940 bd33 1a41 c9b7 8840
000000b0: 1c7c a540 140f df40 4a6b 6640 e94e b640
000000c0: 0c31 9a40 3ed8 6640 c475 983f be51 4740
000000d0: 522d 8b40 ab62 3440 edb7 7140 cf85 f240
000000e0: e499 9d3f 7a14 2c3f e261 8c3f c187 8f3f
000000f0: dd3d 043f cded 3c3f 00f8 4b3f 83fa 913f
00000100: 7661 bc3f 0866 633d 1bc7 c73e 3804 663f
00000110: ce12 4b3f 1dba 293f 2197 4f2b c363 542b
3.3703792 1.2574394 3.3806326 1.4440153 1.2946451 2.582806 2.2840912 1.8221246
1.4540526 1.7252946 1.8048434 1.0840567 2.367237 1.3182888 1.291379 0.5593041
0.64297444 0.643595 2.3859637 1.9196572 3.6076484 8.662596 9.686291 1.8592689
1.2886598 7.81164 3.8015924 3.7984588 4.866383 2.6183558 4.1981716 2.4473317
0.82917005 5.086061 2.2866354 3.5781515 9.6871805 10.0 9.753236 9.737781
8.795838 6.7830086 9.637631 4.2724347 5.1714 6.9705906 3.6002984 5.6971326
4.818487 3.6069484 1.1910939 3.1143641 4.3492823 2.8185222 3.776851 7.578834
1.2312589 0.67218745 1.0967371 1.1213304 0.51656896 0.73800355 0.7967529 1.1404575
1.4717243 0.055517226 0.39019093 0.8985019 0.7932557 0.6629961 7.3750907e-13 7.5455977e-13

w f4 [1, 72, 1]
00000000: 4bb4 5740 c6f3 a03f 495c 5840 7ed5 b83f
00000010: eeb6 a53f b24c 2540 8d2e 1240 613b e93f
00000020: 651e ba3f 74d6 dc3f 1c05 e73f 5fc2 8a3f
00000030: d080 1740 b0bd a83f e84b a53f 8e2e 0f3f
00000040: f999 243f a4c2 243f a1b3 1840 54b7 f53f
00000050: b6e3 6640 fe99 0a41 0cfb 1a41 86fc ed3f
00000060: cef2 a43f f4f8 f940 4a4d 7340 f319 7340
00000070: 69b9 9b40 2493 2740 6c57 8640 15a1 1c40
00000080: 7d44 543f 03c1 a240 3c58 1240 6f00 6540
00000090: b1fe 1a41 0000 2041 410d 1c41 f3cd 1b41
000000a0: c1bb 0c41 680e d940 bd33 1a41 c9b7 8840
000000b0: 1c7c a540 140f df40 4a6b 6640 e94e b640
000000c0: 0c31 9a40 3ed8 6640 c475 983f be51 4740
000000d0: 522d 8b40 ab62 3440 edb7 7140 cf85 f240
000000e0: e499 9d3f 7a14 2c3f e261 8c3f c187 8f3f
000000f0: dd3d 043f cded 3c3f 00f8 4b3f 83fa 913f
00000100: 7661 bc3f 0866 633d 1bc7 c73e 3804 663f
00000110: ce12 4b3f 1dba 293f 2197 4f2b c363 542b
3.3703792 1.2574394 3.3806326 1.4440153 1.2946451 2.582806 2.2840912 1.8221246
1.4540526 1.7252946 1.8048434 1.0840567 2.367237 1.3182888 1.291379 0.5593041
0.64297444 0.643595 2.3859637 1.9196572 3.6076484 8.662596 9.686291 1.8592689
1.2886598 7.81164 3.8015924 3.7984588 4.866383 2.6183558 4.1981716 2.4473317
0.82917005 5.086061 2.2866354 3.5781515 9.6871805 10.0 9.753236 9.737781
8.795838 6.7830086 9.637631 4.2724347 5.1714 6.9705906 3.6002984 5.6971326
4.818487 3.6069484 1.1910939 3.1143641 4.3492823 2.8185222 3.776851 7.578834
1.2312589 0.67218745 1.0967371 1.1213304 0.51656896 0.73800355 0.7967529 1.1404575
1.4717243 0.055517226 0.39019093 0.8985019 0.7932557 0.6629961 7.3750907e-13 7.5455977e-13

w f4 [1, 72, 1]
00000000: 4bb4 5740 c6f3 a03f 495c 5840 7ed5 b83f
00000010: eeb6 a53f b24c 2540 8d2e 1240 613b e93f
00000020: 651e ba3f 74d6 dc3f 1c05 e73f 5fc2 8a3f
00000030: d080 1740 b0bd a83f e84b a53f 8e2e 0f3f
00000040: f999 243f a4c2 243f a1b3 1840 54b7 f53f
00000050: b6e3 6640 fe99 0a41 0cfb 1a41 86fc ed3f
00000060: cef2 a43f f4f8 f940 4a4d 7340 f319 7340
00000070: 69b9 9b40 2493 2740 6c57 8640 15a1 1c40
00000080: 7d44 543f 03c1 a240 3c58 1240 6f00 6540
00000090: b1fe 1a41 0000 2041 410d 1c41 f3cd 1b41
000000a0: c1bb 0c41 680e d940 bd33 1a41 c9b7 8840
000000b0: 1c7c a540 140f df40 4a6b 6640 e94e b640
000000c0: 0c31 9a40 3ed8 6640 c475 983f be51 4740
000000d0: 522d 8b40 ab62 3440 edb7 7140 cf85 f240
000000e0: e499 9d3f 7a14 2c3f e261 8c3f c187 8f3f
000000f0: dd3d 043f cded 3c3f 00f8 4b3f 83fa 913f
00000100: 7661 bc3f 0866 633d 1bc7 c73e 3804 663f
00000110: ce12 4b3f 1dba 293f 2197 4f2b c363 542b
3.3703792 1.2574394 3.3806326 1.4440153 1.2946451 2.582806 2.2840912 1.8221246
1.4540526 1.7252946 1.8048434 1.0840567 2.367237 1.3182888 1.291379 0.5593041
0.64297444 0.643595 2.3859637 1.9196572 3.6076484 8.662596 9.686291 1.8592689
1.2886598 7.81164 3.8015924 3.7984588 4.866383 2.6183558 4.1981716 2.4473317
0.82917005 5.086061 2.2866354 3.5781515 9.6871805 10.0 9.753236 9.737781
8.795838 6.7830086 9.637631 4.2724347 5.1714 6.9705906 3.6002984 5.6971326
4.818487 3.6069484 1.1910939 3.1143641 4.3492823 2.8185222 3.776851 7.578834
1.2312589 0.67218745 1.0967371 1.1213304 0.51656896 0.73800355 0.7967529 1.1404575
1.4717243 0.055517226 0.39019093 0.8985019 0.7932557 0.6629961 7.3750907e-13 7.5455977e-13

w f4 [1, 72, 1]
00000000: 4bb4 5740 c6f3 a03f 495c 5840 7ed5 b83f
00000010: eeb6 a53f b24c 2540 8d2e 1240 613b e93f
00000020: 651e ba3f 74d6 dc3f 1c05 e73f 5fc2 8a3f
00000030: d080 1740 b0bd a83f e84b a53f 8e2e 0f3f
00000040: f999 243f a4c2 243f a1b3 1840 54b7 f53f
00000050: b6e3 6640 fe99 0a41 0cfb 1a41 86fc ed3f
00000060: cef2 a43f f4f8 f940 4a4d 7340 f319 7340
00000070: 69b9 9b40 2493 2740 6c57 8640 15a1 1c40
00000080: 7d44 543f 03c1 a240 3c58 1240 6f00 6540
00000090: b1fe 1a41 0000 2041 410d 1c41 f3cd 1b41
000000a0: c1bb 0c41 680e d940 bd33 1a41 c9b7 8840
000000b0: 1c7c a540 140f df40 4a6b 6640 e94e b640
000000c0: 0c31 9a40 3ed8 6640 c475 983f be51 4740
000000d0: 522d 8b40 ab62 3440 edb7 7140 cf85 f240
000000e0: e499 9d3f 7a14 2c3f e261 8c3f c187 8f3f
000000f0: dd3d 043f cded 3c3f 00f8 4b3f 83fa 913f
00000100: 7661 bc3f 0866 633d 1bc7 c73e 3804 663f
00000110: ce12 4b3f 1dba 293f 2197 4f2b c363 542b
3.3703792 1.2574394 3.3806326 1.4440153 1.2946451 2.582806 2.2840912 1.8221246
1.4540526 1.7252946 1.8048434 1.0840567 2.367237 1.3182888 1.291379 0.5593041
0.64297444 0.643595 2.3859637 1.9196572 3.6076484 8.662596 9.686291 1.8592689
1.2886598 7.81164 3.8015924 3.7984588 4.866383 2.6183558 4.1981716 2.4473317
0.82917005 5.086061 2.2866354 3.5781515 9.6871805 10.0 9.753236 9.737781
8.795838 6.7830086 9.637631 4.2724347 5.1714 6.9705906 3.6002984 5.6971326
4.818487 3.6069484 1.1910939 3.1143641 4.3492823 2.8185222 3.776851 7.578834
1.2312589 0.67218745 1.0967371 1.1213304 0.51656896 0.73800355 0.7967529 1.1404575
1.4717243 0.055517226 0.39019093 0.8985019 0.7932557 0.6629961 7.3750907e-13 7.5455977e-13

w f4 [1, 72, 1]
00000000: 4bb4 5740 c6f3 a03f 495c 5840 7ed5 b83f
00000010: eeb6 a53f b24c 2540 8d2e 1240 613b e93f
00000020: 651e ba3f 74d6 dc3f 1c05 e73f 5fc2 8a3f
00000030: d080 1740 b0bd a83f e84b a53f 8e2e 0f3f
00000040: f999 243f a4c2 243f a1b3 1840 54b7 f53f
00000050: b6e3 6640 fe99 0a41 0cfb 1a41 86fc ed3f
00000060: cef2 a43f f4f8 f940 4a4d 7340 f319 7340
00000070: 69b9 9b40 2493 2740 6c57 8640 15a1 1c40
00000080: 7d44 543f 03c1 a240 3c58 1240 6f00 6540
00000090: b1fe 1a41 0000 2041 410d 1c41 f3cd 1b41
000000a0: c1bb 0c41 680e d940 bd33 1a41 c9b7 8840
000000b0: 1c7c a540 140f df40 4a6b 6640 e94e b640
000000c0: 0c31 9a40 3ed8 6640 c475 983f be51 4740
000000d0: 522d 8b40 ab62 3440 edb7 7140 cf85 f240
000000e0: e499 9d3f 7a14 2c3f e261 8c3f c187 8f3f
000000f0: dd3d 043f cded 3c3f 00f8 4b3f 83fa 913f
00000100: 7661 bc3f 0866 633d 1bc7 c73e 3804 663f
00000110: ce12 4b3f 1dba 293f 2197 4f2b c363 542b
3.3703792 1.2574394 3.3806326 1.4440153 1.2946451 2.582806 2.2840912 1.8221246
1.4540526 1.7252946 1.8048434 1.0840567 2.367237 1.3182888 1.291379 0.5593041
0.64297444 0.643595 2.3859637 1.9196572 3.6076484 8.662596 9.686291 1.8592689
1.2886598 7.81164 3.8015924 3.7984588 4.866383 2.6183558 4.1981716 2.4473317
0.82917005 5.086061 2.2866354 3.5781515 9.6871805 10.0 9.753236 9.737781
8.795838 6.7830086 9.637631 4.2724347 5.1714 6.9705906 3.6002984 5.6971326
4.818487 3.6069484 1.1910939 3.1143641 4.3492823 2.8185222 3.776851 7.578834
1.2312589 0.67218745 1.0967371 1.1213304 0.51656896 0.73800355 0.7967529 1.1404575
1.4717243 0.055517226 0.39019093 0.8985019 0.7932557 0.6629961 7.3750907e-13 7.5455977e-13

w f4 [1, 72, 1]
00000000: 4bb4 5740 c6f3 a03f 495c 5840 7ed5 b83f
00000010: eeb6 a53f b24c 2540 8d2e 1240 613b e93f
00000020: 651e ba3f 74d6 dc3f 1c05 e73f 5fc2 8a3f
00000030: d080 1740 b0bd a83f e84b a53f 8e2e 0f3f
00000040: f999 243f a4c2 243f a1b3 1840 54b7 f53f
00000050: b6e3 6640 fe99 0a41 0cfb 1a41 86fc ed3f
00000060: cef2 a43f f4f8 f940 4a4d 7340 f319 7340
00000070: 69b9 9b40 2493 2740 6c57 8640 15a1 1c40
00000080: 7d44 543f 03c1 a240 3c58 1240 6f00 6540
00000090: b1fe 1a41 0000 2041 410d 1c41 f3cd 1b41
000000a0: c1bb 0c41 680e d940 bd33 1a41 c9b7 8840
000000b0: 1c7c a540 140f df40 4a6b 6640 e94e b640
000000c0: 0c31 9a40 3ed8 6640 c475 983f be51 4740
000000d0: 522d 8b40 ab62 3440 edb7 7140 cf85 f240
000000e0: e499 9d3f 7a14 2c3f e261 8c3f c187 8f3f
000000f0: dd3d 043f cded 3c3f 00f8 4b3f 83fa 913f
00000100: 7661 bc3f 0866 633d 1bc7 c73e 3804 663f
00000110: ce12 4b3f 1dba 293f 2197 4f2b c363 542b
3.3703792 1.2574394 3.3806326 1.4440153 1.2946451 2.582806 2.2840912 1.8221246
1.4540526 1.7252946 1.8048434 1.0840567 2.367237 1.3182888 1.291379 0.5593041
0.64297444 0.643595 2.3859637 1.9196572 3.6076484 8.662596 9.686291 1.8592689
1.2886598 7.81164 3.8015924 3.7984588 4.866383 2.6183558 4.1981716 2.4473317
0.82917005 5.086061 2.2866354 3.5781515 9.6871805 10.0 9.753236 9.737781
8.795838 6.7830086 9.637631 4.2724347 5.1714 6.9705906 3.6002984 5.6971326
4.818487 3.6069484 1.1910939 3.1143641 4.3492823 2.8185222 3.776851 7.578834
1.2312589 0.67218745 1.0967371 1.1213304 0.51656896 0.73800355 0.7967529 1.1404575
1.4717243 0.055517226 0.39019093 0.8985019 0.7932557 0.6629961 7.3750907e-13 7.5455977e-13

w f4 [1, 72, 1]
00000000: 4bb4 5740 c6f3 a03f 495c 5840 7ed5 b83f
00000010: eeb6 a53f b24c 2540 8d2e 1240 613b e93f
00000020: 651e ba3f 74d6 dc3f 1c05 e73f 5fc2 8a3f
00000030: d080 1740 b0bd a83f e84b a53f 8e2e 0f3f
00000040: f999 243f a4c2 243f a1b3 1840 54b7 f53f
00000050: b6e3 6640 fe99 0a41 0cfb 1a41 86fc ed3f
00000060: cef2 a43f f4f8 f940 4a4d 7340 f319 7340
00000070: 69b9 9b40 2493 2740 6c57 8640 15a1 1c40
00000080: 7d44 543f 03c1 a240 3c58 1240 6f00 6540
00000090: b1fe 1a41 0000 2041 410d 1c41 f3cd 1b41
000000a0: c1bb 0c41 680e d940 bd33 1a41 c9b7 8840
000000b0: 1c7c a540 140f df40 4a6b 6640 e94e b640
000000c0: 0c31 9a40 3ed8 6640 c475 983f be51 4740
000000d0: 522d 8b40 ab62 3440 edb7 7140 cf85 f240
000000e0: e499 9d3f 7a14 2c3f e261 8c3f c187 8f3f
000000f0: dd3d 043f cded 3c3f 00f8 4b3f 83fa 913f
00000100: 7661 bc3f 0866 633d 1bc7 c73e 3804 663f
00000110: ce12 4b3f 1dba 293f 2197 4f2b c363 542b
3.3703792 1.2574394 3.3806326 1.4440153 1.2946451 2.582806 2.2840912 1.8221246
1.4540526 1.7252946 1.8048434 1.0840567 2.367237 1.3182888 1.291379 0.5593041
0.64297444 0.643595 2.3859637 1.9196572 3.6076484 8.662596 9.686291 1.8592689
1.2886598 7.81164 3.8015924 3.7984588 4.866383 2.6183558 4.1981716 2.4473317
0.82917005 5.086061 2.2866354 3.5781515 9.6871805 10.0 9.753236 9.737781
8.795838 6.7830086 9.637631 4.2724347 5.1714 6.9705906 3.6002984 5.6971326
4.818487 3.6069484 1.1910939 3.1143641 4.3492823 2.8185222 3.776851 7.578834
1.2312589 0.67218745 1.0967371 1.1213304 0.51656896 0.73800355 0.7967529 1.1404575
1.4717243 0.055517226 0.39019093 0.8985019 0.7932557 0.6629961 7.3750907e-13 7.5455977e-13

w f4 [1, 72, 1]
00000000: 4bb4 5740 c6f3 a03f 495c 5840 7ed5 b83f
00000010: eeb6 a53f b24c 2540 8d2e 1240 613b e93f
00000020: 651e ba3f 74d6 dc3f 1c05 e73f 5fc2 8a3f
00000030: d080 1740 b0bd a83f e84b a53f 8e2e 0f3f
00000040: f999 243f a4c2 243f a1b3 1840 54b7 f53f
00000050: b6e3 6640 fe99 0a41 0cfb 1a41 86fc ed3f
00000060: cef2 a43f f4f8 f940 4a4d 7340 f319 7340
00000070: 69b9 9b40 2493 2740 6c57 8640 15a1 1c40
00000080: 7d44 543f 03c1 a240 3c58 1240 6f00 6540
00000090: b1fe 1a41 0000 2041 410d 1c41 f3cd 1b41
000000a0: c1bb 0c41 680e d940 bd33 1a41 c9b7 8840
000000b0: 1c7c a540 140f df40 4a6b 6640 e94e b640
000000c0: 0c31 9a40 3ed8 6640 c475 983f be51 4740
000000d0: 522d 8b40 ab62 3440 edb7 7140 cf85 f240
000000e0: e499 9d3f 7a14 2c3f e261 8c3f c187 8f3f
000000f0: dd3d 043f cded 3c3f 00f8 4b3f 83fa 913f
00000100: 7661 bc3f 0866 633d 1bc7 c73e 3804 663f
00000110: ce12 4b3f 1dba 293f 2197 4f2b c363 542b
3.3703792 1.2574394 3.3806326 1.4440153 1.2946451 2.582806 2.2840912 1.8221246
1.4540526 1.7252946 1.8048434 1.0840567 2.367237 1.3182888 1.291379 0.5593041
0.64297444 0.643595 2.3859637 1.9196572 3.6076484 8.662596 9.686291 1.8592689
1.2886598 7.81164 3.8015924 3.7984588 4.866383 2.6183558 4.1981716 2.4473317
0.82917005 5.086061 2.2866354 3.5781515 9.6871805 10.0 9.753236 9.737781
8.795838 6.7830086 9.637631 4.2724347 5.1714 6.9705906 3.6002984 5.6971326
4.818487 3.6069484 1.1910939 3.1143641 4.3492823 2.8185222 3.776851 7.578834
1.2312589 0.67218745 1.0967371 1.1213304 0.51656896 0.73800355 0.7967529 1.1404575
1.4717243 0.055517226 0.39019093 0.8985019 0.7932557 0.6629961 7.3750907e-13 7.5455977e-13

w f4 [1, 72, 1]
00000000: 4bb4 5740 c6f3 a03f 495c 5840 7ed5 b83f
00000010: eeb6 a53f b24c 2540 8d2e 1240 613b e93f
00000020: 651e ba3f 74d6 dc3f 1c05 e73f 5fc2 8a3f
00000030: d080 1740 b0bd a83f e84b a53f 8e2e 0f3f
00000040: f999 243f a4c2 243f a1b3 1840 54b7 f53f
00000050: b6e3 6640 fe99 0a41 0cfb 1a41 86fc ed3f
00000060: cef2 a43f f4f8 f940 4a4d 7340 f319 7340
00000070: 69b9 9b40 2493 2740 6c57 8640 15a1 1c40
00000080: 7d44 543f 03c1 a240 3c58 1240 6f00 6540
00000090: b1fe 1a41 0000 2041 410d 1c41 f3cd 1b41
000000a0: c1bb 0c41 680e d940 bd33 1a41 c9b7 8840
000000b0: 1c7c a540 140f df40 4a6b 6640 e94e b640
000000c0: 0c31 9a40 3ed8 6640 c475 983f be51 4740
000000d0: 522d 8b40 ab62 3440 edb7 7140 cf85 f240
000000e0: e499 9d3f 7a14 2c3f e261 8c3f c187 8f3f
000000f0: dd3d 043f cded 3c3f 00f8 4b3f 83fa 913f
00000100: 7661 bc3f 0866 633d 1bc7 c73e 3804 663f
00000110: ce12 4b3f 1dba 293f 2197 4f2b c363 542b
3.3703792 1.2574394 3.3806326 1.4440153 1.2946451 2.582806 2.2840912 1.8221246
1.4540526 1.7252946 1.8048434 1.0840567 2.367237 1.3182888 1.291379 0.5593041
0.64297444 0.643595 2.3859637 1.9196572 3.6076484 8.662596 9.686291 1.8592689
1.2886598 7.81164 3.8015924 3.7984588 4.866383 2.6183558 4.1981716 2.4473317
0.82917005 5.086061 2.2866354 3.5781515 9.6871805 10.0 9.753236 9.737781
8.795838 6.7830086 9.637631 4.2724347 5.1714 6.9705906 3.6002984 5.6971326
4.818487 3.6069484 1.1910939 3.1143641 4.3492823 2.8185222 3.776851 7.578834
1.2312589 0.67218745 1.0967371 1.1213304 0.51656896 0.73800355 0.7967529 1.1404575
1.4717243 0.055517226 0.39019093 0.8985019 0.7932557 0.6629961 7.3750907e-13 7.5455977e-13

w f4 [1, 72, 1]
00000000: 4bb4 5740 c6f3 a03f 495c 5840 7ed5 b83f
00000010: eeb6 a53f b24c 2540 8d2e 1240 613b e93f
00000020: 651e ba3f 74d6 dc3f 1c05 e73f 5fc2 8a3f
00000030: d080 1740 b0bd a83f e84b a53f 8e2e 0f3f
00000040: f999 243f a4c2 243f a1b3 1840 54b7 f53f
00000050: b6e3 6640 fe99 0a41 0cfb 1a41 86fc ed3f
00000060: cef2 a43f f4f8 f940 4a4d 7340 f319 7340
00000070: 69b9 9b40 2493 2740 6c57 8640 15a1 1c40
00000080: 7d44 543f 03c1 a240 3c58 1240 6f00 6540
00000090: b1fe 1a41 0000 2041 410d 1c41 f3cd 1b41
000000a0: c1bb 0c41 680e d940 bd33 1a41 c9b7 8840
000000b0: 1c7c a540 140f df40 4a6b 6640 e94e b640
000000c0: 0c31 9a40 3ed8 6640 c475 983f be51 4740
000000d0: 522d 8b40 ab62 3440 edb7 7140 cf85 f240
000000e0: e499 9d3f 7a14 2c3f e261 8c3f c187 8f3f
000000f0: dd3d 043f cded 3c3f 00f8 4b3f 83fa 913f
00000100: 7661 bc3f 0866 633d 1bc7 c73e 3804 663f
00000110: ce12 4b3f 1dba 293f 2197 4f2b c363 542b
3.3703792 1.2574394 3.3806326 1.4440153 1.2946451 2.582806 2.2840912 1.8221246
1.4540526 1.7252946 1.8048434 1.0840567 2.367237 1.3182888 1.291379 0.5593041
0.64297444 0.643595 2.3859637 1.9196572 3.6076484 8.662596 9.686291 1.8592689
1.2886598 7.81164 3.8015924 3.7984588 4.866383 2.6183558 4.1981716 2.4473317
0.82917005 5.086061 2.2866354 3.5781515 9.6871805 10.0 9.753236 9.737781
8.795838 6.7830086 9.637631 4.2724347 5.1714 6.9705906 3.6002984 5.6971326
4.818487 3.6069484 1.1910939 3.1143641 4.3492823 2.8185222 3.776851 7.578834
1.2312589 0.67218745 1.0967371 1.1213304 0.51656896 0.73800355 0.7967529 1.1404575
1.4717243 0.055517226 0.39019093 0.8985019 0.7932557 0.6629961 7.3750907e-13 7.5455977e-13

w f4 [1, 72, 1]
00000000: 4bb4 5740 c6f3 a03f 495c 5840 7ed5 b83f
00000010: eeb6 a53f b24c 2540 8d2e 1240 613b e93f
00000020: 651e ba3f 74d6 dc3f 1c05 e73f 5fc2 8a3f
00000030: d080 1740 b0bd a83f e84b a53f 8e2e 0f3f
00000040: f999 243f a4c2 243f a1b3 1840 54b7 f53f
00000050: b6e3 6640 fe99 0a41 0cfb 1a41 86fc ed3f
00000060: cef2 a43f f4f8 f940 4a4d 7340 f319 7340
00000070: 69b9 9b40 2493 2740 6c57 8640 15a1 1c40
00000080: 7d44 543f 03c1 a240 3c58 1240 6f00 6540
00000090: b1fe 1a41 0000 2041 410d 1c41 f3cd 1b41
000000a0: c1bb 0c41 680e d940 bd33 1a41 c9b7 8840
000000b0: 1c7c a540 140f df40 4a6b 6640 e94e b640
000000c0: 0c31 9a40 3ed8 6640 c475 983f be51 4740
000000d0: 522d 8b40 ab62 3440 edb7 7140 cf85 f240
000000e0: e499 9d3f 7a14 2c3f e261 8c3f c187 8f3f
000000f0: dd3d 043f cded 3c3f 00f8 4b3f 83fa 913f
00000100: 7661 bc3f 0866 633d 1bc7 c73e 3804 663f
00000110: ce12 4b3f 1dba 293f 2197 4f2b c363 542b
3.3703792 1.2574394 3.3806326 1.4440153 1.2946451 2.582806 2.2840912 1.8221246
1.4540526 1.7252946 1.8048434 1.0840567 2.367237 1.3182888 1.291379 0.5593041
0.64297444 0.643595 2.3859637 1.9196572 3.6076484 8.662596 9.686291 1.8592689
1.2886598 7.81164 3.8015924 3.7984588 4.866383 2.6183558 4.1981716 2.4473317
0.82917005 5.086061 2.2866354 3.5781515 9.6871805 10.0 9.753236 9.737781
8.795838 6.7830086 9.637631 4.2724347 5.1714 6.9705906 3.6002984 5.6971326
4.818487 3.6069484 1.1910939 3.1143641 4.3492823 2.8185222 3.776851 7.578834
1.2312589 0.67218745 1.0967371 1.1213304 0.51656896 0.73800355 0.7967529 1.1404575
1.4717243 0.055517226 0.39019093 0.8985019 0.7932557 0.6629961 7.3750907e-13 7.5455977e-13

w f4 [1, 72, 1]
00000000: 4bb4 5740 c6f3 a03f 495c 5840 7ed5 b83f
00000010: eeb6 a53f b24c 2540 8d2e 1240 613b e93f
00000020: 651e ba3f 74d6 dc3f 1c05 e73f 5fc2 8a3f
00000030: d080 1740 b0bd a83f e84b a53f 8e2e 0f3f
00000040: f999 243f a4c2 243f a1b3 1840 54b7 f53f
00000050: b6e3 6640 fe99 0a41 0cfb 1a41 86fc ed3f
00000060: cef2 a43f f4f8 f940 4a4d 7340 f319 7340
00000070: 69b9 9b40 2493 2740 6c57 8640 15a1 1c40
00000080: 7d44 543f 03c1 a240 3c58 1240 6f00 6540
00000090: b1fe 1a41 0000 2041 410d 1c41 f3cd 1b41
000000a0: c1bb 0c41 680e d940 bd33 1a41 c9b7 8840
000000b0: 1c7c a540 140f df40 4a6b 6640 e94e b640
000000c0: 0c31 9a40 3ed8 6640 c475 983f be51 4740
000000d0: 522d 8b40 ab62 3440 edb7 7140 cf85 f240
000000e0: e499 9d3f 7a14 2c3f e261 8c3f c187 8f3f
000000f0: dd3d 043f cded 3c3f 00f8 4b3f 83fa 913f
00000100: 7661 bc3f 0866 633d 1bc7 c73e 3804 663f
00000110: ce12 4b3f 1dba 293f 2197 4f2b c363 542b
3.3703792 1.2574394 3.3806326 1.4440153 1.2946451 2.582806 2.2840912 1.8221246
1.4540526 1.7252946 1.8048434 1.0840567 2.367237 1.3182888 1.291379 0.5593041
0.64297444 0.643595 2.3859637 1.9196572 3.6076484 8.662596 9.686291 1.8592689
1.2886598 7.81164 3.8015924 3.7984588 4.866383 2.6183558 4.1981716 2.4473317
0.82917005 5.086061 2.2866354 3.5781515 9.6871805 10.0 9.753236 9.737781
8.795838 6.7830086 9.637631 4.2724347 5.1714 6.9705906 3.6002984 5.6971326
4.818487 3.6069484 1.1910939 3.1143641 4.3492823 2.8185222 3.776851 7.578834
1.2312589 0.67218745 1.0967371 1.1213304 0.51656896 0.73800355 0.7967529 1.1404575
1.4717243 0.055517226 0.39019093 0.8985019 0.7932557 0.6629961 7.3750907e-13 7.5455977e-13

w f4 [1, 72, 1]
00000000: 4bb4 5740 c6f3 a03f 495c 5840 7ed5 b83f
00000010: eeb6 a53f b24c 2540 8d2e 1240 613b e93f
00000020: 651e ba3f 74d6 dc3f 1c05 e73f 5fc2 8a3f
00000030: d080 1740 b0bd a83f e84b a53f 8e2e 0f3f
00000040: f999 243f a4c2 243f a1b3 1840 54b7 f53f
00000050: b6e3 6640 fe99 0a41 0cfb 1a41 86fc ed3f
00000060: cef2 a43f f4f8 f940 4a4d 7340 f319 7340
00000070: 69b9 9b40 2493 2740 6c57 8640 15a1 1c40
00000080: 7d44 543f 03c1 a240 3c58 1240 6f00 6540
00000090: b1fe 1a41 0000 2041 410d 1c41 f3cd 1b41
000000a0: c1bb 0c41 680e d940 bd33 1a41 c9b7 8840
000000b0: 1c7c a540 140f df40 4a6b 6640 e94e b640
000000c0: 0c31 9a40 3ed8 6640 c475 983f be51 4740
000000d0: 522d 8b40 ab62 3440 edb7 7140 cf85 f240
000000e0: e499 9d3f 7a14 2c3f e261 8c3f c187 8f3f
000000f0: dd3d 043f cded 3c3f 00f8 4b3f 83fa 913f
00000100: 7661 bc3f 0866 633d 1bc7 c73e 3804 663f
00000110: ce12 4b3f 1dba 293f 2197 4f2b c363 542b
3.3703792 1.2574394 3.3806326 1.4440153 1.2946451 2.582806 2.2840912 1.8221246
1.4540526 1.7252946 1.8048434 1.0840567 2.367237 1.3182888 1.291379 0.5593041
0.64297444 0.643595 2.3859637 1.9196572 3.6076484 8.662596 9.686291 1.8592689
1.2886598 7.81164 3.8015924 3.7984588 4.866383 2.6183558 4.1981716 2.4473317
0.82917005 5.086061 2.2866354 3.5781515 9.6871805 10.0 9.753236 9.737781
8.795838 6.7830086 9.637631 4.2724347 5.1714 6.9705906 3.6002984 5.6971326
4.818487 3.6069484 1.1910939 3.1143641 4.3492823 2.8185222 3.776851 7.578834
1.2312589 0.67218745 1.0967371 1.1213304 0.51656896 0.73800355 0.7967529 1.1404575
1.4717243 0.055517226 0.39019093 0.8985019 0.7932557 0.6629961 7.3750907e-13 7.5455977e-13

w f4 [1, 72, 1]
00000000: 4bb4 5740 c6f3 a03f 495c 5840 7ed5 b83f
00000010: eeb6 a53f b24c 2540 8d2e 1240 613b e93f
00000020: 651e ba3f 74d6 dc3f 1c05 e73f 5fc2 8a3f
00000030: d080 1740 b0bd a83f e84b a53f 8e2e 0f3f
00000040: f999 243f a4c2 243f a1b3 1840 54b7 f53f
00000050: b6e3 6640 fe99 0a41 0cfb 1a41 86fc ed3f
00000060: cef2 a43f f4f8 f940 4a4d 7340 f319 7340
00000070: 69b9 9b40 2493 2740 6c57 8640 15a1 1c40
00000080: 7d44 543f 03c1 a240 3c58 1240 6f00 6540
00000090: b1fe 1a41 0000 2041 410d 1c41 f3cd 1b41
000000a0: c1bb 0c41 680e d940 bd33 1a41 c9b7 8840
000000b0: 1c7c a540 140f df40 4a6b 6640 e94e b640
000000c0: 0c31 9a40 3ed8 6640 c475 983f be51 4740
000000d0: 522d 8b40 ab62 3440 edb7 7140 cf85 f240
000000e0: e499 9d3f 7a14 2c3f e261 8c3f c187 8f3f
000000f0: dd3d 043f cded 3c3f 00f8 4b3f 83fa 913f
00000100: 7661 bc3f 0866 633d 1bc7 c73e 3804 663f
00000110: ce12 4b3f 1dba 293f 2197 4f2b c363 542b
3.3703792 1.2574394 3.3806326 1.4440153 1.2946451 2.582806 2.2840912 1.8221246
1.4540526 1.7252946 1.8048434 1.0840567 2.367237 1.3182888 1.291379 0.5593041
0.64297444 0.643595 2.3859637 1.9196572 3.6076484 8.662596 9.686291 1.8592689
1.2886598 7.81164 3.8015924 3.7984588 4.866383 2.6183558 4.1981716 2.4473317
0.82917005 5.086061 2.2866354 3.5781515 9.6871805 10.0 9.753236 9.737781
8.795838 6.7830086 9.637631 4.2724347 5.1714 6.9705906 3.6002984 5.6971326
4.818487 3.6069484 1.1910939 3.1143641 4.3492823 2.8185222 3.776851 7.578834
1.2312589 0.67218745 1.0967371 1.1213304 0.51656896 0.73800355 0.7967529 1.1404575
1.4717243 0.055517226 0.39019093 0.8985019 0.7932557 0.6629961 7.3750907e-13 7.5455977e-13

w f4 [1, 72, 1]
00000000: 4bb4 5740 c6f3 a03f 495c 5840 7ed5 b83f
00000010: eeb6 a53f b24c 2540 8d2e 1240 613b e93f
00000020: 651e ba3f 74d6 dc3f 1c05 e73f 5fc2 8a3f
00000030: d080 1740 b0bd a83f e84b a53f 8e2e 0f3f
00000040: f999 243f a4c2 243f a1b3 1840 54b7 f53f
00000050: b6e3 6640 fe99 0a41 0cfb 1a41 86fc ed3f
00000060: cef2 a43f f4f8 f940 4a4d 7340 f319 7340
00000070: 69b9 9b40 2493 2740 6c57 8640 15a1 1c40
00000080: 7d44 543f 03c1 a240 3c58 1240 6f00 6540
00000090: b1fe 1a41 0000 2041 410d 1c41 f3cd 1b41
000000a0: c1bb 0c41 680e d940 bd33 1a41 c9b7 8840
000000b0: 1c7c a540 140f df40 4a6b 6640 e94e b640
000000c0: 0c31 9a40 3ed8 6640 c475 983f be51 4740
000000d0: 522d 8b40 ab62 3440 edb7 7140 cf85 f240
000000e0: e499 9d3f 7a14 2c3f e261 8c3f c187 8f3f
000000f0: dd3d 043f cded 3c3f 00f8 4b3f 83fa 913f
00000100: 7661 bc3f 0866 633d 1bc7 c73e 3804 663f
00000110: ce12 4b3f 1dba 293f 2197 4f2b c363 542b
3.3703792 1.2574394 3.3806326 1.4440153 1.2946451 2.582806 2.2840912 1.8221246
1.4540526 1.7252946 1.8048434 1.0840567 2.367237 1.3182888 1.291379 0.5593041
0.64297444 0.643595 2.3859637 1.9196572 3.6076484 8.662596 9.686291 1.8592689
1.2886598 7.81164 3.8015924 3.7984588 4.866383 2.6183558 4.1981716 2.4473317
0.82917005 5.086061 2.2866354 3.5781515 9.6871805 10.0 9.753236 9.737781
8.795838 6.7830086 9.637631 4.2724347 5.1714 6.9705906 3.6002984 5.6971326
4.818487 3.6069484 1.1910939 3.1143641 4.3492823 2.8185222 3.776851 7.578834
1.2312589 0.67218745 1.0967371 1.1213304 0.51656896 0.73800355 0.7967529 1.1404575
1.4717243 0.055517226 0.39019093 0.8985019 0.7932557 0.6629961 7.3750907e-13 7.5455977e-13

w f4 [1, 72, 1]
00000000: 4bb4 5740 c6f3 a03f 495c 5840 7ed5 b83f
00000010: eeb6 a53f b24c 2540 8d2e 1240 613b e93f
00000020: 651e ba3f 74d6 dc3f 1c05 e73f 5fc2 8a3f
00000030: d080 1740 b0bd a83f e84b a53f 8e2e 0f3f
00000040: f999 243f a4c2 243f a1b3 1840 54b7 f53f
00000050: b6e3 6640 fe99 0a41 0cfb 1a41 86fc ed3f
00000060: cef2 a43f f4f8 f940 4a4d 7340 f319 7340
00000070: 69b9 9b40 2493 2740 6c57 8640 15a1 1c40
00000080: 7d44 543f 03c1 a240 3c58 1240 6f00 6540
00000090: b1fe 1a41 0000 2041 410d 1c41 f3cd 1b41
000000a0: c1bb 0c41 680e d940 bd33 1a41 c9b7 8840
000000b0: 1c7c a540 140f df40 4a6b 6640 e94e b640
000000c0: 0c31 9a40 3ed8 6640 c475 983f be51 4740
000000d0: 522d 8b40 ab62 3440 edb7 7140 cf85 f240
000000e0: e499 9d3f 7a14 2c3f e261 8c3f c187 8f3f
000000f0: dd3d 043f cded 3c3f 00f8 4b3f 83fa 913f
00000100: 7661 bc3f 0866 633d 1bc7 c73e 3804 663f
00000110: ce12 4b3f 1dba 293f 2197 4f2b c363 542b
3.3703792 1.2574394 3.3806326 1.4440153 1.2946451 2.582806 2.2840912 1.8221246
1.4540526 1.7252946 1.8048434 1.0840567 2.367237 1.3182888 1.291379 0.5593041
0.64297444 0.643595 2.3859637 1.9196572 3.6076484 8.662596 9.686291 1.8592689
1.2886598 7.81164 3.8015924 3.7984588 4.866383 2.6183558 4.1981716 2.4473317
0.82917005 5.086061 2.2866354 3.5781515 9.6871805 10.0 9.753236 9.737781
8.795838 6.7830086 9.637631 4.2724347 5.1714 6.9705906 3.6002984 5.6971326
4.818487 3.6069484 1.1910939 3.1143641 4.3492823 2.8185222 3.776851 7.578834
1.2312589 0.67218745 1.0967371 1.1213304 0.51656896 0.73800355 0.7967529 1.1404575
1.4717243 0.055517226 0.39019093 0.8985019 0.7932557 0.6629961 7.3750907e-13 7.5455977e-13

w f4 [1, 72, 1]
00000000: 4bb4 5740 c6f3 a03f 495c 5840 7ed5 b83f
00000010: eeb6 a53f b24c 2540 8d2e 1240 613b e93f
00000020: 651e ba3f 74d6 dc3f 1c05 e73f 5fc2 8a3f
00000030: d080 1740 b0bd a83f e84b a53f 8e2e 0f3f
00000040: f999 243f a4c2 243f a1b3 1840 54b7 f53f
00000050: b6e3 6640 fe99 0a41 0cfb 1a41 86fc ed3f
00000060: cef2 a43f f4f8 f940 4a4d 7340 f319 7340
00000070: 69b9 9b40 2493 2740 6c57 8640 15a1 1c40
00000080: 7d44 543f 03c1 a240 3c58 1240 6f00 6540
00000090: b1fe 1a41 0000 2041 410d 1c41 f3cd 1b41
000000a0: c1bb 0c41 680e d940 bd33 1a41 c9b7 8840
000000b0: 1c7c a540 140f df40 4a6b 6640 e94e b640
000000c0: 0c31 9a40 3ed8 6640 c475 983f be51 4740
000000d0: 522d 8b40 ab62 3440 edb7 7140 cf85 f240
000000e0: e499 9d3f 7a14 2c3f e261 8c3f c187 8f3f
000000f0: dd3d 043f cded 3c3f 00f8 4b3f 83fa 913f
00000100: 7661 bc3f 0866 633d 1bc7 c73e 3804 663f
00000110: ce12 4b3f 1dba 293f 2197 4f2b c363 542b
3.3703792 1.2574394 3.3806326 1.4440153 1.2946451 2.582806 2.2840912 1.8221246
1.4540526 1.7252946 1.8048434 1.0840567 2.367237 1.3182888 1.291379 0.5593041
0.64297444 0.643595 2.3859637 1.9196572 3.6076484 8.662596 9.686291 1.8592689
1.2886598 7.81164 3.8015924 3.7984588 4.866383 2.6183558 4.1981716 2.4473317
0.82917005 5.086061 2.2866354 3.5781515 9.6871805 10.0 9.753236 9.737781
8.795838 6.7830086 9.637631 4.2724347 5.1714 6.9705906 3.6002984 5.6971326
4.818487 3.6069484 1.1910939 3.1143641 4.3492823 2.8185222 3.776851 7.578834
1.2312589 0.67218745 1.0967371 1.1213304 0.51656896 0.73800355 0.7967529 1.1404575
1.4717243 0.055517226 0.39019093 0.8985019 0.7932557 0.6629961 7.3750907e-13 7.5455977e-13

w f4 [1, 72, 1]
00000000: 4bb4 5740 c6f3 a03f 495c 5840 7ed5 b83f
00000010: eeb6 a53f b24c 2540 8d2e 1240 613b e93f
00000020: 651e ba3f 74d6 dc3f 1c05 e73f 5fc2 8a3f
00000030: d080 1740 b0bd a83f e84b a53f 8e2e 0f3f
00000040: f999 243f a4c2 243f a1b3 1840 54b7 f53f
00000050: b6e3 6640 fe99 0a41 0cfb 1a41 86fc ed3f
00000060: cef2 a43f f4f8 f940 4a4d 7340 f319 7340
00000070: 69b9 9b40 2493 2740 6c57 8640 15a1 1c40
00000080: 7d44 543f 03c1 a240 3c58 1240 6f00 6540
00000090: b1fe 1a41 0000 2041 410d 1c41 f3cd 1b41
000000a0: c1bb 0c41 680e d940 bd33 1a41 c9b7 8840
000000b0: 1c7c a540 140f df40 4a6b 6640 e94e b640
000000c0: 0c31 9a40 3ed8 6640 c475 983f be51 4740
000000d0: 522d 8b40 ab62 3440 edb7 7140 cf85 f240
000000e0: e499 9d3f 7a14 2c3f e261 8c3f c187 8f3f
000000f0: dd3d 043f cded 3c3f 00f8 4b3f 83fa 913f
00000100: 7661 bc3f 0866 633d 1bc7 c73e 3804 663f
00000110: ce12 4b3f 1dba 293f 2197 4f2b c363 542b
3.3703792 1.2574394 3.3806326 1.4440153 1.2946451 2.582806 2.2840912 1.8221246
1.4540526 1.7252946 1.8048434 1.0840567 2.367237 1.3182888 1.291379 0.5593041
0.64297444 0.643595 2.3859637 1.9196572 3.6076484 8.662596 9.686291 1.8592689
1.2886598 7.81164 3.8015924 3.7984588 4.866383 2.6183558 4.1981716 2.4473317
0.82917005 5.086061 2.2866354 3.5781515 9.6871805 10.0 9.753236 9.737781
8.795838 6.7830086 9.637631 4.2724347 5.1714 6.9705906 3.6002984 5.6971326
4.818487 3.6069484 1.1910939 3.1143641 4.3492823 2.8185222 3.776851 7.578834
1.2312589 0.67218745 1.0967371 1.1213304 0.51656896 0.73800355 0.7967529 1.1404575
1.4717243 0.055517226 0.39019093 0.8985019 0.7932557 0.6629961 7.3750907e-13 7.5455977e-13
