SNN_Codes/Spiking_codes/control/sail923.pt (torch, 841888 bytes, 505 tensors)

x f4 [1, 144]
00000000: 0000 0000 0000 0000 0000 0000 0000 0000
00000010: 0000 0000 0000 0000 0000 0000 0000 0000
00000020: 0000 0000 0000 0000 0000 0000 0000 0000
00000030: 0000 0000 0000 0000 0000 0000 0000 0000
00000040: 0000 0000 0000 0000 0000 0000 0000 0000
00000050: 0000 0000 0000 0000 0000 0000 0000 0000
00000060: 0000 0000 0000 0000 0000 0000 0000 0000
00000070: 0000 0000 0000 0000 0000 0000 0000 0000
00000080: 0000 0000 0000 0000 0000 0000 0000 0000
00000090: 0000 0000 0000 0000 0000 0000 0000 0000
000000a0: 0000 0000 0000 0000 0000 0000 0000 0000
000000b0: 0000 0000 0000 0000 0000 0000 0000 0000
000000c0: 0000 0000 0000 0000 0000 0000 0000 0000
000000d0: 0000 0000 0000 0000 0000 0000 0000 0000
000000e0: 0000 0000 0000 0000 0000 0000 0000 0000
000000f0: 0000 0000 0000 0000 0000 0000 0000 0000
00000100: 0000 0000 0000 0000 0000 0000 0000 0000
00000110: 0000 0000 0000 0000 0000 0000 0000 0000
00000120: 0000 0000 0000 0000 0000 0000 0000 0000
00000130: 0000 0000 0000 0000 0000 0000 0000 0000
00000140: 0000 0000 0000 0000 0000 0000 0000 0000
00000150: 0000 0000 0000 0000 0000 0000 0000 0000
00000160: 0000 0000 0000 0000 0000 0000 0000 0000
00000170: 0000 0000 0000 0000 0000 0000 0000 0000
00000180: 0000 0000 0000 0000 0000 0000 0000 0000
00000190: 0000 0000 0000 0000 0000 0000 0000 0000
000001a0: 0000 0000 0000 0000 0000 0000 0000 0000
000001b0: 0000 0000 0000 0000 0000 0000 0000 0000
000001c0: 0000 0000 0000 0000 0000 0000 0000 0000
000001d0: 0000 0000 0000 0000 0000 0000 0000 0000
000001e0: 0000 0000 0000 0000 0000 0000 0000 0000
000001f0: 0000 0000 0000 0000 0000 0000 0000 0000
00000200: 0000 0000 0000 0000 1a00 0000 1b00 0000
00000210: 0a00 0000 0a00 0000 595d 4909 d68a 5e09
00000220: 5d57 5c3f 5d57 5c3f 0a00 0000 0a00 0000
00000230: 3d68 682d 3d68 682d 0a00 0000 0a00 0000
0.0 0.0 0.0 0.0 0.0 0.0 0.0 0.0
0.0 0.0 0.0 0.0 0.0 0.0 0.0 0.0
0.0 0.0 0.0 0.0 0.0 0.0 0.0 0.0
0.0 0.0 0.0 0.0 0.0 0.0 0.0 0.0
0.0 0.0 0.0 0.0 0.0 0.0 0.0 0.0
0.0 0.0 0.0 0.0 0.0 0.0 0.0 0.0
0.0 0.0 0.0 0.0 0.0 0.0 0.0 0.0
0.0 0.0 0.0 0.0 0.0 0.0 0.0 0.0
0.0 0.0 0.0 0.0 0.0 0.0 0.0 0.0
0.0 0.0 0.0 0.0 0.0 0.0 0.0 0.0
0.0 0.0 0.0 0.0 0.0 0.0 0.0 0.0
0.0 0.0 0.0 0.0 0.0 0.0 0.0 0.0
0.0 0.0 0.0 0.0 0.0 0.0 0.0 0.0
0.0 0.0 0.0 0.0 0.0 0.0 0.0 0.0
0.0 0.0 0.0 0.0 0.0 0.0 0.0 0.0
0.0 0.0 0.0 0.0 0.0 0.0 0.0 0.0
0.0 0.0 3.6e-44 3.8e-44 1.4e-44 1.4e-44 2.4238387e-33 2.6787558e-33
0.86070806 0.86070806 1.4e-44 1.4e-44 1.3210819e-11 1.3210819e-11 1.4e-44 1.4e-44

w f4 [144, 1]
00000000: bde2 b03f 94c6 4840 f5a0 ad3f 0b74 6240
00000010: f49d 1440 a356 0440 a911 893f de29 8940
00000020: 9c44 1e40 3331 9d3f 3730 7640 be07 d83e
00000030: e498 1940 1cf5 523f 1fe8 a13f f93c e23f
00000040: 4b73 1e40 d6bd ca3e 637b 2940 d32c 0c3f
00000050: 8ef2 5c3f 624a c63f ce00 f63f eabd 2f3f
00000060: 7032 223f e710 713f 2e27 d33f bf63 953f
00000070: 873b bc3f 7e51 5c3f 5bca 963f b9fc 973f
00000080: f79c ee3e ec48 233f 9d45 232e 9777 222e
00000090: 6605 8940 d583 9940 662d 0c41 c0a6 8340
000000a0: 1853 c540 41ef 0341 ead1 f740 0046 a640
000000b0: 8602 1e41 bb41 1e40 1e7c 9c40 8ca3 8540
000000c0: 2b3b c840 1b59 2a3f ce7d cc40 c872 d53f
000000d0: 1f09 b940 eb70 0040 7c9a 3c40 c75d 9040
000000e0: 19e0 3140 7ebe 5d40 1fc6 7940 1ce6 1e40
000000f0: 76cc 6140 92d2 4140 22f8 1440 0a67 4d40
00000100: 597a f33f 8fad 2340 a414 8240 a665 923f
00000110: c5fd 5040 1e40 5140 1e1c 9040 94e2 5d3f
00000120: 76e6 1541 0000 2041 12ac 1d41 0000 2041
00000130: 26b1 1841 2a69 a340 0e53 1441 d6ff 0e41
00000140: fa7b 0d41 7759 0441 5646 1041 45a1 9c40
00000150: 1c17 f640 3d30 c340 82bc c140 80cf ef40
00000160: 9042 bc40 1970 cd40 efd3 8340 5b0c e340
00000170: 23e7 0541 d4c0 7340 7c8f 703f 0755 f740
00000180: 4a6e 8940 4dc1 9940 9462 8340 b090 de40
00000190: ff5b 793f 5221 3740 5701 263f 6c33 8c40
000001a0: c86b 7d3e c782 9b40 6384 0141 329e b33f
000001b0: 17af 4d40 b975 2b40 6409 1641 3a1d 0a41
000001c0: 9624 3140 eb64 e63f 96b2 4040 f453 3c3f
000001d0: 9791 f43f cdda 363e 0000 0000 9df2 7b3f
000001e0: 915f 0740 4a20 e83f 0baa 993f 7ade f03f
000001f0: 3d6e 3e3f a689 a63f cc1e 2f3f 5f89 293f
00000200: 3fc6 923e 4cd6 813f dcf7 2c3f 951b 313f
00000210: b52e 0f3f b6bc fb3e bd73 863f 3263 3e3e
00000220: 04c3 c13e 923e 023f 2c5c 923e f994 a03e
00000230: 8796 b33e 0b0b 123e 3acf 8d2b d99e 7c2b
1.3819195 3.1371202 1.3564745 3.5383327 2.3221407 2.067788 1.0708514 4.2863607
2.4729376 1.228064 3.8466928 0.42193407 2.3999567 0.8240526 1.2648963 1.7674857
2.475787 0.39597958 2.648156 0.54755896 0.8630761 1.549145 1.9218996 0.6864916
0.6335821 0.94166416 1.6496332 1.1671065 1.4705666 0.8606185 1.1780504 1.1874
0.4660413 0.63783145 3.7123738e-11 3.6940753e-11 4.281909 4.797343 8.761084 4.114105
6.1663933 8.245912 7.7443743 5.196045 9.875616 2.4727619 4.890151 4.176214
6.2572227 0.66542214 6.390357 1.6675653 5.7823634 2.006892 2.946929 4.5114474
2.7793028 3.4647517 3.9027174 2.4827948 3.5281043 3.0284772 2.3276448 3.209414
1.9021713 2.5574682 4.0650196 1.1437271 3.2654889 3.2695384 4.5034323 0.86673856
9.368765 10.0 9.854509 10.0 9.543249 5.1065874 9.270277 8.93746
8.842768 8.271842 9.017172 4.894686 7.690321 6.0996385 6.054261 7.4940796
5.8831253 6.419934 4.119621 7.095258 8.36893 3.8086443 0.9396894 7.7291293
4.294713 4.8048463 4.1057835 6.955162 0.97406 2.8614087 0.64845794 4.381277
0.24748147 4.859714 8.094821 1.4032652 3.2138116 2.6790602 9.377293 8.632135
2.767858 1.7999548 3.0109 0.735656 1.910693 0.17856903 0.0 0.98417073
2.115208 1.8134854 1.2005018 1.8817894 0.7438696 1.3010757 0.6840637 0.66225237
0.28666875 1.0143523 0.67565703 0.6918271 0.55930644 0.49167413 1.050407 0.18592528
0.37844098 0.50876725 0.28585947 0.31363657 0.3507578 0.14262025 1.007617e-12 8.974883e-13

nu f4 [2]
00000000: 0000 803f 0000 803f
1.0 1.0

p_plus f4 [1, 144]
00000000: 0a00 0000 0a00 0000 0a00 0000 0a00 0000
00000010: 0a00 0000 0a00 0000 0a00 0000 0a00 0000
00000020: 0a00 0000 0a00 0000 0a00 0000 0a00 0000
00000030: 0a00 0000 0a00 0000 0a00 0000 0a00 0000
00000040: 0a00 0000 0a00 0000 0a00 0000 0a00 0000
00000050: 0a00 0000 0a00 0000 0a00 0000 0a00 0000
00000060: 0a00 0000 0a00 0000 0a00 0000 0a00 0000
00000070: 0a00 0000 0a00 0000 0a00 0000 0a00 0000
00000080: 0a00 0000 0a00 0000 0a00 0000 0a00 0000
00000090: 0a00 0000 0a00 0000 0a00 0000 0a00 0000
000000a0: 0a00 0000 0a00 0000 0a00 0000 0a00 0000
000000b0: 0a00 0000 0a00 0000 0a00 0000 0a00 0000
000000c0: 0a00 0000 0a00 0000 0a00 0000 0a00 0000
000000d0: 0a00 0000 0a00 0000 0a00 0000 0a00 0000
000000e0: 0a00 0000 0a00 0000 0a00 0000 0a00 0000
000000f0: 0a00 0000 0a00 0000 0a00 0000 0a00 0000
00000100: 0a00 0000 0a00 0000 0a00 0000 0a00 0000
00000110: 0a00 0000 0a00 0000 0a00 0000 0a00 0000
00000120: 0a00 0000 0a00 0000 0a00 0000 0a00 0000
00000130: 0a00 0000 0a00 0000 0a00 0000 0a00 0000
00000140: 0a00 0000 0a00 0000 0a00 0000 0a00 0000
00000150: 0a00 0000 0a00 0000 0a00 0000 0a00 0000
00000160: 0a00 0000 0a00 0000 0a00 0000 0a00 0000
00000170: 0a00 0000 0a00 0000 0a00 0000 0a00 0000
00000180: 0a00 0000 0a00 0000 0a00 0000 0a00 0000
00000190: 0a00 0000 0a00 0000 0a00 0000 0a00 0000
000001a0: 0000 0000 0000 0000 0a00 0000 0a00 0000
000001b0: 0a00 0000 0a00 0000 0000 0000 0000 0000
000001c0: 0a00 0000 0a00 0000 0000 0000 0000 0000
000001d0: 0a00 0000 0a00 0000 0a00 0000 0a00 0000
000001e0: 0a00 0000 0a00 0000 0a00 0000 0a00 0000
000001f0: 0a00 0000 0a00 0000 0a00 0000 0a00 0000
00000200: 0a00 0000 0a00 0000 7600 0000 7100 0000
00000210: 0a00 0000 0a00 0000 9d60 6a0a 6674 c30a
00000220: b46d b540 acac 9240 0a00 0000 0a00 0000
00000230: 2d08 932e 8ab2 b82e 0a00 0000 0a00 0000
1.4e-44 1.4e-44 1.4e-44 1.4e-44 1.4e-44 1.4e-44 1.4e-44 1.4e-44
1.4e-44 1.4e-44 1.4e-44 1.4e-44 1.4e-44 1.4e-44 1.4e-44 1.4e-44
1.4e-44 1.4e-44 1.4e-44 1.4e-44 1.4e-44 1.4e-44 1.4e-44 1.4e-44
1.4e-44 1.4e-44 1.4e-44 1.4e-44 1.4e-44 1.4e-44 1.4e-44 1.4e-44
1.4e-44 1.4e-44 1.4e-44 1.4e-44 1.4e-44 1.4e-44 1.4e-44 1.4e-44
1.4e-44 1.4e-44 1.4e-44 1.4e-44 1.4e-44 1.4e-44 1.4e-44 1.4e-44
1.4e-44 1.4e-44 1.4e-44 1.4e-44 1.4e-44 1.4e-44 1.4e-44 1.4e-44
1.4e-44 1.4e-44 1.4e-44 1.4e-44 1.4e-44 1.4e-44 1.4e-44 1.4e-44
1.4e-44 1.4e-44 1.4e-44 1.4e-44 1.4e-44 1.4e-44 1.4e-44 1.4e-44
1.4e-44 1.4e-44 1.4e-44 1.4e-44 1.4e-44 1.4e-44 1.4e-44 1.4e-44
1.4e-44 1.4e-44 1.4e-44 1.4e-44 1.4e-44 1.4e-44 1.4e-44 1.4e-44
1.4e-44 1.4e-44 1.4e-44 1.4e-44 1.4e-44 1.4e-44 1.4e-44 1.4e-44
1.4e-44 1.4e-44 1.4e-44 1.4e-44 1.4e-44 1.4e-44 1.4e-44 1.4e-44
0.0 0.0 1.4e-44 1.4e-44 1.4e-44 1.4e-44 0.0 0.0
1.4e-44 1.4e-44 0.0 0.0 1.4e-44 1.4e-44 1.4e-44 1.4e-44
1.4e-44 1.4e-44 1.4e-44 1.4e-44 1.4e-44 1.4e-44 1.4e-44 1.4e-44
1.4e-44 1.4e-44 1.65e-43 1.58e-43 1.4e-44 1.4e-44 1.1284861e-32 1.8821601e-32
5.6696415 4.583578 1.4e-44 1.4e-44 6.6862384e-11 8.399066e-11 1.4e-44 1.4e-44

eligibility f4 [1, 144, 1]
00000000: 0000 0000 0000 0000 0000 0000 0000 0000
00000010: 0000 0000 0000 0000 0000 0000 0000 0000
00000020: 0000 0000 0000 0000 0000 0000 0000 0000
00000030: 0000 0000 0000 0000 0000 0000 0000 0000
00000040: 0000 0000 0000 0000 0000 0000 0000 0000
00000050: 0000 0000 0000 0000 0000 0000 0000 0000
00000060: 0000 0000 0000 0000 0000 0000 0000 0000
00000070: 0000 0000 0000 0000 0000 0000 0000 0000
00000080: 0000 0000 0000 0000 0000 0000 0000 0000
00000090: 0000 0000 0000 0000 0000 0000 0000 0000
000000a0: 0000 0000 0000 0000 0000 0000 0000 0000
000000b0: 0000 0000 0000 0000 0000 0000 0000 0000
000000c0: 0000 0000 0000 0000 0000 0000 0000 0000
000000d0: 0000 0000 0000 0000 0000 0000 0000 0000
000000e0: 0000 0000 0000 0000 0000 0000 0000 0000
000000f0: 0000 0000 0000 0000 0000 0000 0000 0000
00000100: 0000 0000 0000 0000 0000 0000 0000 0000
00000110: 0000 0000 0000 0000 0000 0000 0000 0000
00000120: 0000 0000 0000 0000 0000 0000 0000 0000
00000130: 0000 0000 0000 0000 0000 0000 0000 0000
00000140: 0000 0000 0000 0000 0000 0000 0000 0000
00000150: 0000 0000 0000 0000 0000 0000 0000 0000
00000160: 0000 0000 0000 0000 0000 0000 0000 0000
00000170: 0000 0000 0000 0000 0000 0000 0000 0000
00000180: 0000 0000 0000 0000 0000 0000 0000 0000
00000190: 0000 0000 0000 0000 0000 0000 0000 0000
000001a0: 0000 0000 0000 0000 0000 0000 0000 0000
000001b0: 0000 0000 0000 0000 0000 0000 0000 0000
000001c0: 0000 0000 0000 0000 0000 0000 0000 0000
000001d0: 0000 0000 0000 0000 0000 0000 0000 0000
000001e0: 0000 0000 0000 0000 0000 0000 0000 0000
000001f0: 0000 0000 0000 0000 0000 0000 0000 0000
00000200: 0000 0000 0000 0000 0000 0000 0000 0000
00000210: 0000 0000 0000 0000 0000 0000 0000 0000
00000220: 0000 0000 0000 0000 0000 0000 0000 0000
00000230: 0000 0000 0000 0000 0000 0000 0000 0000
0.0 0.0 0.0 0.0 0.0 0.0 0.0 0.0
0.0 0.0 0.0 0.0 0.0 0.0 0.0 0.0
0.0 0.0 0.0 0.0 0.0 0.0 0.0 0.0
0.0 0.0 0.0 0.0 0.0 0.0 0.0 0.0
0.0 0.0 0.0 0.0 0.0 0.0 0.0 0.0
0.0 0.0 0.0 0.0 0.0 0.0 0.0 0.0
0.0 0.0 0.0 0.0 0.0 0.0 0.0 0.0
0.0 0.0 0.0 0.0 0.0 0.0 0.0 0.0
0.0 0.0 0.0 0.0 0.0 0.0 0.0 0.0
0.0 0.0 0.0 0.0 0.0 0.0 0.0 0.0
0.0 0.0 0.0 0.0 0.0 0.0 0.0 0.0
0.0 0.0 0.0 0.0 0.0 0.0 0.0 0.0
0.0 0.0 0.0 0.0 0.0 0.0 0.0 0.0
0.0 0.0 0.0 0.0 0.0 0.0 0.0 0.0
0.0 0.0 0.0 0.0 0.0 0.0 0.0 0.0
0.0 0.0 0.0 0.0 0.0 0.0 0.0 0.0
0.0 0.0 0.0 0.0 0.0 0.0 0.0 0.0
0.0 0.0 0.0 0.0 0.0 0.0 0.0 0.0

w f4 [1, 144, 1]
00000000: bde2 b03f 94c6 4840 f5a0 ad3f 0b74 6240
00000010: f49d 1440 a356 0440 a911 893f de29 8940
00000020: 9c44 1e40 3331 9d3f 3730 7640 be07 d83e
00000030: e498 1940 1cf5 523f 1fe8 a13f f93c e23f
00000040: 4b73 1e40 d6bd ca3e 637b 2940 d32c 0c3f
00000050: 8ef2 5c3f 624a c63f ce00 f63f eabd 2f3f
00000060: 7032 223f e710 713f 2e27 d33f bf63 953f
00000070: 873b bc3f 7e51 5c3f 5bca 963f b9fc 973f
00000080: f79c ee3e ec48 233f 9d45 232e 9777 222e
00000090: 6605 8940 d583 9940 662d 0c41 c0a6 8340
000000a0: 1853 c540 41ef 0341 ead1 f740 0046 a640
000000b0: 8602 1e41 bb41 1e40 1e7c 9c40 8ca3 8540
000000c0: 2b3b c840 1b59 2a3f ce7d cc40 c872 d53f
000000d0: 1f09 b940 eb70 0040 7c9a 3c40 c75d 9040
000000e0: 19e0 3140 7ebe 5d40 1fc6 7940 1ce6 1e40
000000f0: 76cc 6140 92d2 4140 22f8 1440 0a67 4d40
00000100: 597a f33f 8fad 2340 a414 8240 a665 923f
00000110: c5fd 5040 1e40 5140 1e1c 9040 94e2 5d3f
00000120: 76e6 1541 0000 2041 12ac 1d41 0000 2041
00000130: 26b1 1841 2a69 a340 0e53 1441 d6ff 0e41
00000140: fa7b 0d41 7759 0441 5646 1041 45a1 9c40
00000150: 1c17 f640 3d30 c340 82bc c140 80cf ef40
00000160: 9042 bc40 1970 cd40 efd3 8340 5b0c e340
00000170: 23e7 0541 d4c0 7340 7c8f 703f 0755 f740
00000180: 4a6e 8940 4dc1 9940 9462 8340 b090 de40
00000190: ff5b 793f 5221 3740 5701 263f 6c33 8c40
000001a0: c86b 7d3e c782 9b40 6384 0141 329e b33f
000001b0: 17af 4d40 b975 2b40 6409 1641 3a1d 0a41
000001c0: 9624 3140 eb64 e63f 96b2 4040 f453 3c3f
000001d0: 9791 f43f cdda 363e 0000 0000 9df2 7b3f
000001e0: 915f 0740 4a20 e83f 0baa 993f 7ade f03f
000001f0: 3d6e 3e3f a689 a63f cc1e 2f3f 5f89 293f
00000200: 3fc6 923e 4cd6 813f dcf7 2c3f 951b 313f
00000210: b52e 0f3f b6bc fb3e bd73 863f 3263 3e3e
00000220: 04c3 c13e 923e 023f 2c5c 923e f994 a03e
00000230: 8796 b33e 0b0b 123e 3acf 8d2b d99e 7c2b
1.3819195 3.1371202 1.3564745 3.5383327 2.3221407 2.067788 1.0708514 4.2863607
2.4729376 1.228064 3.8466928 0.42193407 2.3999567 0.8240526 1.2648963 1.7674857
2.475787 0.39597958 2.648156 0.54755896 0.8630761 1.549145 1.9218996 0.6864916
0.6335821 0.94166416 1.6496332 1.1671065 1.4705666 0.8606185 1.1780504 1.1874
0.4660413 0.63783145 3.7123738e-11 3.6940753e-11 4.281909 4.797343 8.761084 4.114105
6.1663933 8.245912 7.7443743 5.196045 9.875616 2.4727619 4.890151 4.176214
6.2572227 0.66542214 6.390357 1.6675653 5.7823634 2.006892 2.946929 4.5114474
2.7793028 3.4647517 3.9027174 2.4827948 3.5281043 3.0284772 2.3276448 3.209414
1.9021713 2.5574682 4.0650196 1.1437271 3.2654889 3.2695384 4.5034323 0.86673856
9.368765 10.0 9.854509 10.0 9.543249 5.1065874 9.270277 8.93746
8.842768 8.271842 9.017172 4.894686 7.690321 6.0996385 6.054261 7.4940796
5.8831253 6.419934 4.119621 7.095258 8.36893 3.8086443 0.9396894 7.7291293
4.294713 4.8048463 4.1057835 6.955162 0.97406 2.8614087 0.64845794 4.381277
0.24748147 4.859714 8.094821 1.4032652 3.2138116 2.6790602 9.377293 8.632135
2.767858 1.7999548 3.0109 0.735656 1.910693 0.17856903 0.0 0.98417073
2.115208 1.8134854 1.2005018 1.8817894 0.7438696 1.3010757 0.6840637 0.66225237
0.28666875 1.0143523 0.67565703 0.6918271 0.55930644 0.49167413 1.050407 0.18592528
0.37844098 0.50876725 0.28585947 0.31363657 0.3507578 0.14262025 1.007617e-12 8.974883e-13

w f4 [1, 144, 1]
00000000: bde2 b03f 94c6 4840 f5a0 ad3f 0b74 6240
00000010: f49d 1440 a356 0440 a911 893f de29 8940
00000020: 9c44 1e40 3331 9d3f 3730 7640 be07 d83e
00000030: e498 1940 1cf5 523f 1fe8 a13f f93c e23f
00000040: 4b73 1e40 d6bd ca3e 637b 2940 d32c 0c3f
00000050: 8ef2 5c3f 624a c63f ce00 f63f eabd 2f3f
00000060: 7032 223f e710 713f 2e27 d33f bf63 953f
00000070: 873b bc3f 7e51 5c3f 5bca 963f b9fc 973f
00000080: f79c ee3e ec48 233f 9d45 232e 9777 222e
00000090: 6605 8940 d583 9940 662d 0c41 c0a6 8340
000000a0: 1853 c540 41ef 0341 ead1 f740 0046 a640
000000b0: 8602 1e41 bb41 1e40 1e7c 9c40 8ca3 8540
000000c0: 2b3b c840 1b59 2a3f ce7d cc40 c872 d53f
000000d0: 1f09 b940 eb70 0040 7c9a 3c40 c75d 9040
000000e0: 19e0 3140 7ebe 5d40 1fc6 7940 1ce6 1e40
000000f0: 76cc 6140 92d2 4140 22f8 1440 0a67 4d40
00000100: 597a f33f 8fad 2340 a414 8240 a665 923f
00000110: c5fd 5040 1e40 5140 1e1c 9040 94e2 5d3f
00000120: 76e6 1541 0000 2041 12ac 1d41 0000 2041
00000130: 26b1 1841 2a69 a340 0e53 1441 d6ff 0e41
00000140: fa7b 0d41 7759 0441 5646 1041 45a1 9c40
00000150: 1c17 f640 3d30 c340 82bc c140 80cf ef40
00000160: 9042 bc40 1970 cd40 efd3 8340 5b0c e340
00000170: 23e7 0541 d4c0 7340 7c8f 703f 0755 f740
00000180: 4a6e 8940 4dc1 9940 9462 8340 b090 de40
00000190: ff5b 793f 5221 3740 5701 263f 6c33 8c40
000001a0: c86b 7d3e c782 9b40 6384 0141 329e b33f
000001b0: 17af 4d40 b975 2b40 6409 1641 3a1d 0a41
000001c0: 9624 3140 eb64 e63f 96b2 4040 f453 3c3f
000001d0: 9791 f43f cdda 363e 0000 0000 9df2 7b3f
000001e0: 915f 0740 4a20 e83f 0baa 993f 7ade f03f
000001f0: 3d6e 3e3f a689 a63f cc1e 2f3f 5f89 293f
00000200: 3fc6 923e 4cd6 813f dcf7 2c3f 951b 313f
00000210: b52e 0f3f b6bc fb3e bd73 863f 3263 3e3e
00000220: 04c3 c13e 923e 023f 2c5c 923e f994 a03e
00000230: 8796 b33e 0b0b 123e 3acf 8d2b d99e 7c2b
1.3819195 3.1371202 1.3564745 3.5383327 2.3221407 2.067788 1.0708514 4.2863607
2.4729376 1.228064 3.8466928 0.42193407 2.3999567 0.8240526 1.2648963 1.7674857
2.475787 0.39597958 2.648156 0.54755896 0.8630761 1.549145 1.9218996 0.6864916
0.6335821 0.94166416 1.6496332 1.1671065 1.4705666 0.8606185 1.1780504 1.1874
0.4660413 0.63783145 3.7123738e-11 3.6940753e-11 4.281909 4.797343 8.761084 4.114105
6.1663933 8.245912 7.7443743 5.196045 9.875616 2.4727619 4.890151 4.176214
6.2572227 0.66542214 6.390357 1.6675653 5.7823634 2.006892 2.946929 4.5114474
2.7793028 3.4647517 3.9027174 2.4827948 3.5281043 3.0284772 2.3276448 3.209414
1.9021713 2.5574682 4.0650196 1.1437271 3.2654889 3.2695384 4.5034323 0.86673856
9.368765 10.0 9.854509 10.0 9.543249 5.1065874 9.270277 8.93746
8.842768 8.271842 9.017172 4.894686 7.690321 6.0996385 6.054261 7.4940796
5.8831253 6.419934 4.119621 7.095258 8.36893 3.8086443 0.9396894 7.7291293
4.294713 4.8048463 4.1057835 6.955162 0.97406 2.8614087 0.64845794 4.381277
0.24748147 4.859714 8.094821 1.4032652 3.2138116 2.6790602 9.377293 8.632135
2.767858 1.7999548 3.0109 0.735656 1.910693 0.17856903 0.0 0.98417073
2.115208 1.8134854 1.2005018 1.8817894 0.7438696 1.3010757 0.6840637 0.66225237
0.28666875 1.0143523 0.67565703 0.6918271 0.55930644 0.49167413 1.050407 0.18592528
0.37844098 0.50876725 0.28585947 0.31363657 0.3507578 0.14262025 1.007617e-12 8.974883e-13

w f4 [1, 144, 1]
00000000: bde2 b03f 94c6 4840 f5a0 ad3f 0b74 6240
00000010: f49d 1440 a356 0440 a911 893f de29 8940
00000020: 9c44 1e40 3331 9d3f 3730 7640 be07 d83e
00000030: e498 1940 1cf5 523f 1fe8 a13f f93c e23f
00000040: 4b73 1e40 d6bd ca3e 637b 2940 d32c 0c3f
00000050: 8ef2 5c3f 624a c63f ce00 f63f eabd 2f3f
00000060: 7032 223f e710 713f 2e27 d33f bf63 953f
00000070: 873b bc3f 7e51 5c3f 5bca 963f b9fc 973f
00000080: f79c ee3e ec48 233f 9d45 232e 9777 222e
00000090: 6605 8940 d583 9940 662d 0c41 c0a6 8340
000000a0: 1853 c540 41ef 0341 ead1 f740 0046 a640
000000b0: 8602 1e41 bb41 1e40 1e7c 9c40 8ca3 8540
000000c0: 2b3b c840 1b59 2a3f ce7d cc40 c872 d53f
000000d0: 1f09 b940 eb70 0040 7c9a 3c40 c75d 9040
000000e0: 19e0 3140 7ebe 5d40 1fc6 7940 1ce6 1e40
000000f0: 76cc 6140 92d2 4140 22f8 1440 0a67 4d40
00000100: 597a f33f 8fad 2340 a414 8240 a665 923f
00000110: c5fd 5040 1e40 5140 1e1c 9040 94e2 5d3f
00000120: 76e6 1541 0000 2041 12ac 1d41 0000 2041
00000130: 26b1 1841 2a69 a340 0e53 1441 d6ff 0e41
00000140: fa7b 0d41 7759 0441 5646 1041 45a1 9c40
00000150: 1c17 f640 3d30 c340 82bc c140 80cf ef40
00000160: 9042 bc40 1970 cd40 efd3 8340 5b0c e340
00000170: 23e7 0541 d4c0 7340 7c8f 703f 0755 f740
00000180: 4a6e 8940 4dc1 9940 9462 8340 b090 de40
00000190: ff5b 793f 5221 3740 5701 263f 6c33 8c40
000001a0: c86b 7d3e c782 9b40 6384 0141 329e b33f
000001b0: 17af 4d40 b975 2b40 6409 1641 3a1d 0a41
000001c0: 9624 3140 eb64 e63f 96b2 4040 f453 3c3f
000001d0: 9791 f43f cdda 363e 0000 0000 9df2 7b3f
000001e0: 915f 0740 4a20 e83f 0baa 993f 7ade f03f
000001f0: 3d6e 3e3f a689 a63f cc1e 2f3f 5f89 293f
00000200: 3fc6 923e 4cd6 813f dcf7 2c3f 951b 313f
00000210: b52e 0f3f b6bc fb3e bd73 863f 3263 3e3e
00000220: 04c3 c13e 923e 023f 2c5c 923e f994 a03e
00000230: 8796 b33e 0b0b 123e 3acf 8d2b d99e 7c2b
1.3819195 3.1371202 1.3564745 3.5383327 2.3221407 2.067788 1.0708514 4.2863607
2.4729376 1.228064 3.8466928 0.42193407 2.3999567 0.8240526 1.2648963 1.7674857
2.475787 0.39597958 2.648156 0.54755896 0.8630761 1.549145 1.9218996 0.6864916
0.6335821 0.94166416 1.6496332 1.1671065 1.4705666 0.8606185 1.1780504 1.1874
0.4660413 0.63783145 3.7123738e-11 3.6940753e-11 4.281909 4.797343 8.761084 4.114105
6.1663933 8.245912 7.7443743 5.196045 9.875616 2.4727619 4.890151 4.176214
6.2572227 0.66542214 6.390357 1.6675653 5.7823634 2.006892 2.946929 4.5114474
2.7793028 3.4647517 3.9027174 2.4827948 3.5281043 3.0284772 2.3276448 3.209414
1.9021713 2.5574682 4.0650196 1.1437271 3.2654889 3.2695384 4.5034323 0.86673856
9.368765 10.0 9.854509 10.0 9.543249 5.1065874 9.270277 8.93746
8.842768 8.271842 9.017172 4.894686 7.690321 6.0996385 6.054261 7.4940796
5.8831253 6.419934 4.119621 7.095258 8.36893 3.8086443 0.9396894 7.7291293
4.294713 4.8048463 4.1057835 6.955162 0.97406 2.8614087 0.64845794 4.381277
0.24748147 4.859714 8.094821 1.4032652 3.2138116 2.6790602 9.377293 8.632135
2.767858 1.7999548 3.0109 0.735656 1.910693 0.17856903 0.0 0.98417073
2.115208 1.8134854 1.2005018 1.8817894 0.7438696 1.3010757 0.6840637 0.66225237
0.28666875 1.0143523 0.67565703 0.6918271 0.55930644 0.49167413 1.050407 0.18592528
0.37844098 0.50876725 0.28585947 0.31363657 0.3507578 0.14262025 1.007617e-12 8.974883e-13

w f4 [1, 144, 1]
00000000: bde2 b03f 94c6 4840 f5a0 ad3f 0b74 6240
00000010: f49d 1440 a356 0440 a911 893f de29 8940
00000020: 9c44 1e40 3331 9d3f 3730 7640 be07 d83e
00000030: e498 1940 1cf5 523f 1fe8 a13f f93c e23f
00000040: 4b73 1e40 d6bd ca3e 637b 2940 d32c 0c3f
00000050: 8ef2 5c3f 624a c63f ce00 f63f eabd 2f3f
00000060: 7032 223f e710 713f 2e27 d33f bf63 953f
00000070: 873b bc3f 7e51 5c3f 5bca 963f b9fc 973f
00000080: f79c ee3e ec48 233f 9d45 232e 9777 222e
00000090: 6605 8940 d583 9940 662d 0c41 c0a6 8340
000000a0: 1853 c540 41ef 0341 ead1 f740 0046 a640
000000b0: 8602 1e41 bb41 1e40 1e7c 9c40 8ca3 8540
000000c0: 2b3b c840 1b59 2a3f ce7d cc40 c872 d53f
000000d0: 1f09 b940 eb70 0040 7c9a 3c40 c75d 9040
000000e0: 19e0 3140 7ebe 5d40 1fc6 7940 1ce6 1e40
000000f0: 76cc 6140 92d2 4140 22f8 1440 0a67 4d40
00000100: 597a f33f 8fad 2340 a414 8240 a665 923f
00000110: c5fd 5040 1e40 5140 1e1c 9040 94e2 5d3f
00000120: 76e6 1541 0000 2041 12ac 1d41 0000 2041
00000130: 26b1 1841 2a69 a340 0e53 1441 d6ff 0e41
00000140: fa7b 0d41 7759 0441 5646 1041 45a1 9c40
00000150: 1c17 f640 3d30 c340 82bc c140 80cf ef40
00000160: 9042 bc40 1970 cd40 efd3 8340 5b0c e340
00000170: 23e7 0541 d4c0 7340 7c8f 703f 0755 f740
00000180: 4a6e 8940 4dc1 9940 9462 8340 b090 de40
00000190: ff5b 793f 5221 3740 5701 263f 6c33 8c40
000001a0: c86b 7d3e c782 9b40 6384 0141 329e b33f
000001b0: 17af 4d40 b975 2b40 6409 1641 3a1d 0a41
000001c0: 9624 3140 eb64 e63f 96b2 4040 f453 3c3f
000001d0: 9791 f43f cdda 363e 0000 0000 9df2 7b3f
000001e0: 915f 0740 4a20 e83f 0baa 993f 7ade f03f
000001f0: 3d6e 3e3f a689 a63f cc1e 2f3f 5f89 293f
00000200: 3fc6 923e 4cd6 813f dcf7 2c3f 951b 313f
00000210: b52e 0f3f b6bc fb3e bd73 863f 3263 3e3e
00000220: 04c3 c13e 923e 023f 2c5c 923e f994 a03e
00000230: 8796 b33e 0b0b 123e 3acf 8d2b d99e 7c2b
1.3819195 3.1371202 1.3564745 3.5383327 2.3221407 2.067788 1.0708514 4.2863607
2.4729376 1.228064 3.8466928 0.42193407 2.3999567 0.8240526 1.2648963 1.7674857
2.475787 0.39597958 2.648156 0.54755896 0.8630761 1.549145 1.9218996 0.6864916
0.6335821 0.94166416 1.6496332 1.1671065 1.4705666 0.8606185 1.1780504 1.1874
0.4660413 0.63783145 3.7123738e-11 3.6940753e-11 4.281909 4.797343 8.761084 4.114105
6.1663933 8.245912 7.7443743 5.196045 9.875616 2.4727619 4.890151 4.176214
6.2572227 0.66542214 6.390357 1.6675653 5.7823634 2.006892 2.946929 4.5114474
2.7793028 3.4647517 3.9027174 2.4827948 3.5281043 3.0284772 2.3276448 3.209414
1.9021713 2.5574682 4.0650196 1.1437271 3.2654889 3.2695384 4.5034323 0.86673856
9.368765 10.0 9.854509 10.0 9.543249 5.1065874 9.270277 8.93746
8.842768 8.271842 9.017172 4.894686 7.690321 6.0996385 6.054261 7.4940796
5.8831253 6.419934 4.119621 7.095258 8.36893 3.8086443 0.9396894 7.7291293
4.294713 4.8048463 4.1057835 6.955162 0.97406 2.8614087 0.64845794 4.381277
0.24748147 4.859714 8.094821 1.4032652 3.2138116 2.6790602 9.377293 8.632135
2.767858 1.7999548 3.0109 0.735656 1.910693 0.17856903 0.0 0.98417073
2.115208 1.8134854 1.2005018 1.8817894 0.7438696 1.3010757 0.6840637 0.66225237
0.28666875 1.0143523 0.67565703 0.6918271 0.55930644 0.49167413 1.050407 0.18592528
0.37844098 0.50876725 0.28585947 0.31363657 0.3507578 0.14262025 1.007617e-12 8.974883e-13

w f4 [1, 144, 1]
00000000: bde2 b03f 94c6 4840 f5a0 ad3f 0b74 6240
00000010: f49d 1440 a356 0440 a911 893f de29 8940
00000020: 9c44 1e40 3331 9d3f 3730 7640 be07 d83e
00000030: e498 1940 1cf5 523f 1fe8 a13f f93c e23f
00000040: 4b73 1e40 d6bd ca3e 637b 2940 d32c 0c3f
00000050: 8ef2 5c3f 624a c63f ce00 f63f eabd 2f3f
00000060: 7032 223f e710 713f 2e27 d33f bf63 953f
00000070: 873b bc3f 7e51 5c3f 5bca 963f b9fc 973f
00000080: f79c ee3e ec48 233f 9d45 232e 9777 222e
00000090: 6605 8940 d583 9940 662d 0c41 c0a6 8340
000000a0: 1853 c540 41ef 0341 ead1 f740 0046 a640
000000b0: 8602 1e41 bb41 1e40 1e7c 9c40 8ca3 8540
000000c0: 2b3b c840 1b59 2a3f ce7d cc40 c872 d53f
000000d0: 1f09 b940 eb70 0040 7c9a 3c40 c75d 9040
000000e0: 19e0 3140 7ebe 5d40 1fc6 7940 1ce6 1e40
000000f0: 76cc 6140 92d2 4140 22f8 1440 0a67 4d40
00000100: 597a f33f 8fad 2340 a414 8240 a665 923f
00000110: c5fd 5040 1e40 5140 1e1c 9040 94e2 5d3f
00000120: 76e6 1541 0000 2041 12ac 1d41 0000 2041
00000130: 26b1 1841 2a69 a340 0e53 1441 d6ff 0e41
00000140: fa7b 0d41 7759 0441 5646 1041 45a1 9c40
00000150: 1c17 f640 3d30 c340 82bc c140 80cf ef40
00000160: 9042 bc40 1970 cd40 efd3 8340 5b0c e340
00000170: 23e7 0541 d4c0 7340 7c8f 703f 0755 f740
00000180: 4a6e 8940 4dc1 9940 9462 8340 b090 de40
00000190: ff5b 793f 5221 3740 5701 263f 6c33 8c40
000001a0: c86b 7d3e c782 9b40 6384 0141 329e b33f
000001b0: 17af 4d40 b975 2b40 6409 1641 3a1d 0a41
000001c0: 9624 3140 eb64 e63f 96b2 4040 f453 3c3f
000001d0: 9791 f43f cdda 363e 0000 0000 9df2 7b3f
000001e0: 915f 0740 4a20 e83f 0baa 993f 7ade f03f
000001f0: 3d6e 3e3f a689 a63f cc1e 2f3f 5f89 293f
00000200: 3fc6 923e 4cd6 813f dcf7 2c3f 951b 313f
00000210: b52e 0f3f b6bc fb3e bd73 863f 3263 3e3e
00000220: 04c3 c13e 923e 023f 2c5c 923e f994 a03e
00000230: 8796 b33e 0b0b 123e 3acf 8d2b d99e 7c2b
1.3819195 3.1371202 1.3564745 3.5383327 2.3221407 2.067788 1.0708514 4.2863607
2.4729376 1.228064 3.8466928 0.42193407 2.3999567 0.8240526 1.2648963 1.7674857
2.475787 0.39597958 2.648156 0.54755896 0.8630761 1.549145 1.9218996 0.6864916
0.6335821 0.94166416 1.6496332 1.1671065 1.4705666 0.8606185 1.1780504 1.1874
0.4660413 0.63783145 3.7123738e-11 3.6940753e-11 4.281909 4.797343 8.761084 4.114105
6.1663933 8.245912 7.7443743 5.196045 9.875616 2.4727619 4.890151 4.176214
6.2572227 0.66542214 6.390357 1.6675653 5.7823634 2.006892 2.946929 4.5114474
2.7793028 3.4647517 3.9027174 2.4827948 3.5281043 3.0284772 2.3276448 3.209414
1.9021713 2.5574682 4.0650196 1.1437271 3.2654889 3.2695384 4.5034323 0.86673856
9.368765 10.0 9.854509 10.0 9.543249 5.1065874 9.270277 8.93746
8.842768 8.271842 9.017172 4.894686 7.690321 6.0996385 6.054261 7.4940796
5.8831253 6.419934 4.119621 7.095258 8.36893 3.8086443 0.9396894 7.7291293
4.294713 4.8048463 4.1057835 6.955162 0.97406 2.8614087 0.64845794 4.381277
0.24748147 4.859714 8.094821 1.4032652 3.2138116 2.6790602 9.377293 8.632135
2.767858 1.7999548 3.0109 0.735656 1.910693 0.17856903 0.0 0.98417073
2.115208 1.8134854 1.2005018 1.8817894 0.7438696 1.3010757 0.6840637 0.66225237
0.28666875 1.0143523 0.67565703 0.6918271 0.55930644 0.49167413 1.050407 0.18592528
0.37844098 0.50876725 0.28585947 0.31363657 0.3507578 0.14262025 1.007617e-12 8.974883e-13

w f4 [1, 144, 1]
00000000: bde2 b03f 94c6 4840 f5a0 ad3f 0b74 6240
00000010: f49d 1440 a356 0440 a911 893f de29 8940
00000020: 9c44 1e40 3331 9d3f 3730 7640 be07 d83e
00000030: e498 1940 1cf5 523f 1fe8 a13f f93c e23f
00000040: 4b73 1e40 d6bd ca3e 637b 2940 d32c 0c3f
00000050: 8ef2 5c3f 624a c63f ce00 f63f eabd 2f3f
00000060: 7032 223f e710 713f 2e27 d33f bf63 953f
00000070: 873b bc3f 7e51 5c3f 5bca 963f b9fc 973f
00000080: f79c ee3e ec48 233f 9d45 232e 9777 222e
00000090: 6605 8940 d583 9940 662d 0c41 c0a6 8340
000000a0: 1853 c540 41ef 0341 ead1 f740 0046 a640
000000b0: 8602 1e41 bb41 1e40 1e7c 9c40 8ca3 8540
000000c0: 2b3b c840 1b59 2a3f ce7d cc40 c872 d53f
000000d0: 1f09 b940 eb70 0040 7c9a 3c40 c75d 9040
000000e0: 19e0 3140 7ebe 5d40 1fc6 7940 1ce6 1e40
000000f0: 76cc 6140 92d2 4140 22f8 1440 0a67 4d40
00000100: 597a f33f 8fad 2340 a414 8240 a665 923f
00000110: c5fd 5040 1e40 5140 1e1c 9040 94e2 5d3f
00000120: 76e6 1541 0000 2041 12ac 1d41 0000 2041
00000130: 26b1 1841 2a69 a340 0e53 1441 d6ff 0e41
00000140: fa7b 0d41 7759 0441 5646 1041 45a1 9c40
00000150: 1c17 f640 3d30 c340 82bc c140 80cf ef40
00000160: 9042 bc40 1970 cd40 efd3 8340 5b0c e340
00000170: 23e7 0541 d4c0 7340 7c8f 703f 0755 f740
00000180: 4a6e 8940 4dc1 9940 9462 8340 b090 de40
00000190: ff5b 793f 5221 3740 5701 263f 6c33 8c40
000001a0: c86b 7d3e c782 9b40 6384 0141 329e b33f
000001b0: 17af 4d40 b975 2b40 6409 1641 3a1d 0a41
000001c0: 9624 3140 eb64 e63f 96b2 4040 f453 3c3f
000001d0: 9791 f43f cdda 363e 0000 0000 9df2 7b3f
000001e0: 915f 0740 4a20 e83f 0baa 993f 7ade f03f
000001f0: 3d6e 3e3f a689 a63f cc1e 2f3f 5f89 293f
00000200: 3fc6 923e 4cd6 813f dcf7 2c3f 951b 313f
00000210: b52e 0f3f b6bc fb3e bd73 863f 3263 3e3e
00000220: 04c3 c13e 923e 023f 2c5c 923e f994 a03e
00000230: 8796 b33e 0b0b 123e 3acf 8d2b d99e 7c2b
1.3819195 3.1371202 1.3564745 3.5383327 2.3221407 2.067788 1.0708514 4.2863607
2.4729376 1.228064 3.8466928 0.42193407 2.3999567 0.8240526 1.2648963 1.7674857
2.475787 0.39597958 2.648156 0.54755896 0.8630761 1.549145 1.9218996 0.6864916
0.6335821 0.94166416 1.6496332 1.1671065 1.4705666 0.8606185 1.1780504 1.1874
0.4660413 0.63783145 3.7123738e-11 3.6940753e-11 4.281909 4.797343 8.761084 4.114105
6.1663933 8.245912 7.7443743 5.196045 9.875616 2.4727619 4.890151 4.176214
6.2572227 0.66542214 6.390357 1.6675653 5.7823634 2.006892 2.946929 4.5114474
2.7793028 3.4647517 3.9027174 2.4827948 3.5281043 3.0284772 2.3276448 3.209414
1.9021713 2.5574682 4.0650196 1.1437271 3.2654889 3.2695384 4.5034323 0.86673856
9.368765 10.0 9.854509 10.0 9.543249 5.1065874 9.270277 8.93746
8.842768 8.271842 9.017172 4.894686 7.690321 6.0996385 6.054261 7.4940796
5.8831253 6.419934 4.119621 7.095258 8.36893 3.8086443 0.9396894 7.7291293
4.294713 4.8048463 4.1057835 6.955162 0.97406 2.8614087 0.64845794 4.381277
0.24748147 4.859714 8.094821 1.4032652 3.2138116 2.6790602 9.377293 8.632135
2.767858 1.7999548 3.0109 0.735656 1.910693 0.17856903 0.0 0.98417073
2.115208 1.8134854 1.2005018 1.8817894 0.7438696 1.3010757 0.6840637 0.66225237
0.28666875 1.0143523 0.67565703 0.6918271 0.55930644 0.49167413 1.050407 0.18592528
0.37844098 0.50876725 0.28585947 0.31363657 0.3507578 0.14262025 1.007617e-12 8.974883e-13

w f4 [1, 144, 1]
00000000: bde2 b03f 94c6 4840 f5a0 ad3f 0b74 6240
00000010: f49d 1440 a356 0440 a911 893f de29 8940
00000020: 9c44 1e40 3331 9d3f 3730 7640 be07 d83e
00000030: e498 1940 1cf5 523f 1fe8 a13f f93c e23f
00000040: 4b73 1e40 d6bd ca3e 637b 2940 d32c 0c3f
00000050: 8ef2 5c3f 624a c63f ce00 f63f eabd 2f3f
00000060: 7032 223f e710 713f 2e27 d33f bf63 953f
00000070: 873b bc3f 7e51 5c3f 5bca 963f b9fc 973f
00000080: f79c ee3e ec48 233f 9d45 232e 9777 222e
00000090: 6605 8940 d583 9940 662d 0c41 c0a6 8340
000000a0: 1853 c540 41ef 0341 ead1 f740 0046 a640
000000b0: 8602 1e41 bb41 1e40 1e7c 9c40 8ca3 8540
000000c0: 2b3b c840 1b59 2a3f ce7d cc40 c872 d53f
000000d0: 1f09 b940 eb70 0040 7c9a 3c40 c75d 9040
000000e0: 19e0 3140 7ebe 5d40 1fc6 7940 1ce6 1e40
000000f0: 76cc 6140 92d2 4140 22f8 1440 0a67 4d40
00000100: 597a f33f 8fad 2340 a414 8240 a665 923f
00000110: c5fd 5040 1e40 5140 1e1c 9040 94e2 5d3f
00000120: 76e6 1541 0000 2041 12ac 1d41 0000 2041
00000130: 26b1 1841 2a69 a340 0e53 1441 d6ff 0e41
00000140: fa7b 0d41 7759 0441 5646 1041 45a1 9c40
00000150: 1c17 f640 3d30 c340 82bc c140 80cf ef40
00000160: 9042 bc40 1970 cd40 efd3 8340 5b0c e340
00000170: 23e7 0541 d4c0 7340 7c8f 703f 0755 f740
00000180: 4a6e 8940 4dc1 9940 9462 8340 b090 de40
00000190: ff5b 793f 5221 3740 5701 263f 6c33 8c40
000001a0: c86b 7d3e c782 9b40 6384 0141 329e b33f
000001b0: 17af 4d40 b975 2b40 6409 1641 3a1d 0a41
000001c0: 9624 3140 eb64 e63f 96b2 4040 f453 3c3f
000001d0: 9791 f43f cdda 363e 0000 0000 9df2 7b3f
000001e0: 915f 0740 4a20 e83f 0baa 993f 7ade f03f
000001f0: 3d6e 3e3f a689 a63f cc1e 2f3f 5f89 293f
00000200: 3fc6 923e 4cd6 813f dcf7 2c3f 951b 313f
00000210: b52e 0f3f b6bc fb3e bd73 863f 3263 3e3e
00000220: 04c3 c13e 923e 023f 2c5c 923e f994 a03e
00000230: 8796 b33e 0b0b 123e 3acf 8d2b d99e 7c2b
1.3819195 3.1371202 1.3564745 3.5383327 2.3221407 2.067788 1.0708514 4.2863607
2.4729376 1.228064 3.8466928 0.42193407 2.3999567 0.8240526 1.2648963 1.7674857
2.475787 0.39597958 2.648156 0.54755896 0.8630761 1.549145 1.9218996 0.6864916
0.6335821 0.94166416 1.6496332 1.1671065 1.4705666 0.8606185 1.1780504 1.1874
0.4660413 0.63783145 3.7123738e-11 3.6940753e-11 4.281909 4.797343 8.761084 4.114105
6.1663933 8.245912 7.7443743 5.196045 9.875616 2.4727619 4.890151 4.176214
6.2572227 0.66542214 6.390357 1.6675653 5.7823634 2.006892 2.946929 4.5114474
2.7793028 3.4647517 3.9027174 2.4827948 3.5281043 3.0284772 2.3276448 3.209414
1.9021713 2.5574682 4.0650196 1.1437271 3.2654889 3.2695384 4.5034323 0.86673856
9.368765 10.0 9.854509 10.0 9.543249 5.1065874 9.270277 8.93746
8.842768 8.271842 9.017172 4.894686 7.690321 6.0996385 6.054261 7.4940796
5.8831253 6.419934 4.119621 7.095258 8.36893 3.8086443 0.9396894 7.7291293
4.294713 4.8048463 4.1057835 6.955162 0.97406 2.8614087 0.64845794 4.381277
0.24748147 4.859714 8.094821 1.4032652 3.2138116 2.6790602 9.377293 8.632135
2.767858 1.7999548 3.0109 0.735656 1.910693 0.17856903 0.0 0.98417073
2.115208 1.8134854 1.2005018 1.8817894 0.7438696 1.3010757 0.6840637 0.66225237
0.28666875 1.0143523 0.67565703 0.6918271 0.55930644 0.49167413 1.050407 0.18592528
0.37844098 0.50876725 0.28585947 0.31363657 0.3507578 0.14262025 1.007617e-12 8.974883e-13

w f4 [1, 144, 1]
00000000: bde2 b03f 94c6 4840 f5a0 ad3f 0b74 6240
00000010: f49d 1440 a356 0440 a911 893f de29 8940
00000020: 9c44 1e40 3331 9d3f 3730 7640 be07 d83e
00000030: e498 1940 1cf5 523f 1fe8 a13f f93c e23f
00000040: 4b73 1e40 d6bd ca3e 637b 2940 d32c 0c3f
00000050: 8ef2 5c3f 624a c63f ce00 f63f eabd 2f3f
00000060: 7032 223f e710 713f 2e27 d33f bf63 953f
00000070: 873b bc3f 7e51 5c3f 5bca 963f b9fc 973f
00000080: f79c ee3e ec48 233f 9d45 232e 9777 222e
00000090: 6605 8940 d583 9940 662d 0c41 c0a6 8340
000000a0: 1853 c540 41ef 0341 ead1 f740 0046 a640
000000b0: 8602 1e41 bb41 1e40 1e7c 9c40 8ca3 8540
000000c0: 2b3b c840 1b59 2a3f ce7d cc40 c872 d53f
000000d0: 1f09 b940 eb70 0040 7c9a 3c40 c75d 9040
000000e0: 19e0 3140 7ebe 5d40 1fc6 7940 1ce6 1e40
000000f0: 76cc 6140 92d2 4140 22f8 1440 0a67 4d40
00000100: 597a f33f 8fad 2340 a414 8240 a665 923f
00000110: c5fd 5040 1e40 5140 1e1c 9040 94e2 5d3f
00000120: 76e6 1541 0000 2041 12ac 1d41 0000 2041
00000130: 26b1 1841 2a69 a340 0e53 1441 d6ff 0e41
00000140: fa7b 0d41 7759 0441 5646 1041 45a1 9c40
00000150: 1c17 f640 3d30 c340 82bc c140 80cf ef40
00000160: 9042 bc40 1970 cd40 efd3 8340 5b0c e340
00000170: 23e7 0541 d4c0 7340 7c8f 703f 0755 f740
00000180: 4a6e 8940 4dc1 9940 9462 8340 b090 de40
00000190: ff5b 793f 5221 3740 5701 263f 6c33 8c40
000001a0: c86b 7d3e c782 9b40 6384 0141 329e b33f
000001b0: 17af 4d40 b975 2b40 6409 1641 3a1d 0a41
000001c0: 9624 3140 eb64 e63f 96b2 4040 f453 3c3f
000001d0: 9791 f43f cdda 363e 0000 0000 9df2 7b3f
000001e0: 915f 0740 4a20 e83f 0baa 993f 7ade f03f
000001f0: 3d6e 3e3f a689 a63f cc1e 2f3f 5f89 293f
00000200: 3fc6 923e 4cd6 813f dcf7 2c3f 951b 313f
00000210: b52e 0f3f b6bc fb3e bd73 863f 3263 3e3e
00000220: 04c3 c13e 923e 023f 2c5c 923e f994 a03e
00000230: 8796 b33e 0b0b 123e 3acf 8d2b d99e 7c2b
1.3819195 3.1371202 1.3564745 3.5383327 2.3221407 2.067788 1.0708514 4.2863607
2.4729376 1.228064 3.8466928 0.42193407 2.3999567 0.8240526 1.2648963 1.7674857
2.475787 0.39597958 2.648156 0.54755896 0.8630761 1.549145 1.9218996 0.6864916
0.6335821 0.94166416 1.6496332 1.1671065 1.4705666 0.8606185 1.1780504 1.1874
0.4660413 0.63783145 3.7123738e-11 3.6940753e-11 4.281909 4.797343 8.761084 4.114105
6.1663933 8.245912 7.7443743 5.196045 9.875616 2.4727619 4.890151 4.176214
6.2572227 0.66542214 6.390357 1.6675653 5.7823634 2.006892 2.946929 4.5114474
2.7793028 3.4647517 3.9027174 2.4827948 3.5281043 3.0284772 2.3276448 3.209414
1.9021713 2.5574682 4.0650196 1.1437271 3.2654889 3.2695384 4.5034323 0.86673856
9.368765 10.0 9.854509 10.0 9.543249 5.1065874 9.270277 8.93746
8.842768 8.271842 9.017172 4.894686 7.690321 6.0996385 6.054261 7.4940796
5.8831253 6.419934 4.119621 7.095258 8.36893 3.8086443 0.9396894 7.7291293
4.294713 4.8048463 4.1057835 6.955162 0.97406 2.8614087 0.64845794 4.381277
0.24748147 4.859714 8.094821 1.4032652 3.2138116 2.6790602 9.377293 8.632135
2.767858 1.7999548 3.0109 0.735656 1.910693 0.17856903 0.0 0.98417073
2.115208 1.8134854 1.2005018 1.8817894 0.7438696 1.3010757 0.6840637 0.66225237
0.28666875 1.0143523 0.67565703 0.6918271 0.55930644 0.49167413 1.050407 0.18592528
0.37844098 0.50876725 0.28585947 0.31363657 0.3507578 0.14262025 1.007617e-12 8.974883e-13

w f4 [1, 144, 1]
00000000: bde2 b03f 94c6 4840 f5a0 ad3f 0b74 6240
00000010: f49d 1440 a356 0440 a911 893f de29 8940
00000020: 9c44 1e40 3331 9d3f 3730 7640 be07 d83e
00000030: e498 1940 1cf5 523f 1fe8 a13f f93c e23f
00000040: 4b73 1e40 d6bd ca3e 637b 2940 d32c 0c3f
00000050: 8ef2 5c3f 624a c63f ce00 f63f eabd 2f3f
00000060: 7032 223f e710 713f 2e27 d33f bf63 953f
00000070: 873b bc3f 7e51 5c3f 5bca 963f b9fc 973f
00000080: f79c ee3e ec48 233f 9d45 232e 9777 222e
00000090: 6605 8940 d583 9940 662d 0c41 c0a6 8340
000000a0: 1853 c540 41ef 0341 ead1 f740 0046 a640
000000b0: 8602 1e41 bb41 1e40 1e7c 9c40 8ca3 8540
000000c0: 2b3b c840 1b59 2a3f ce7d cc40 c872 d53f
000000d0: 1f09 b940 eb70 0040 7c9a 3c40 c75d 9040
000000e0: 19e0 3140 7ebe 5d40 1fc6 7940 1ce6 1e40
000000f0: 76cc 6140 92d2 4140 22f8 1440 0a67 4d40
00000100: 597a f33f 8fad 2340 a414 8240 a665 923f
00000110: c5fd 5040 1e40 5140 1e1c 9040 94e2 5d3f
00000120: 76e6 1541 0000 2041 12ac 1d41 0000 2041
00000130: 26b1 1841 2a69 a340 0e53 1441 d6ff 0e41
00000140: fa7b 0d41 7759 0441 5646 1041 45a1 9c40
00000150: 1c17 f640 3d30 c340 82bc c140 80cf ef40
00000160: 9042 bc40 1970 cd40 efd3 8340 5b0c e340
00000170: 23e7 0541 d4c0 7340 7c8f 703f 0755 f740
00000180: 4a6e 8940 4dc1 9940 9462 8340 b090 de40
00000190: ff5b 793f 5221 3740 5701 263f 6c33 8c40
000001a0: c86b 7d3e c782 9b40 6384 0141 329e b33f
000001b0: 17af 4d40 b975 2b40 6409 1641 3a1d 0a41
000001c0: 9624 3140 eb64 e63f 96b2 4040 f453 3c3f
000001d0: 9791 f43f cdda 363e 0000 0000 9df2 7b3f
000001e0: 915f 0740 4a20 e83f 0baa 993f 7ade f03f
000001f0: 3d6e 3e3f a689 a63f cc1e 2f3f 5f89 293f
00000200: 3fc6 923e 4cd6 813f dcf7 2c3f 951b 313f
00000210: b52e 0f3f b6bc fb3e bd73 863f 3263 3e3e
00000220: 04c3 c13e 923e 023f 2c5c 923e f994 a03e
00000230: 8796 b33e 0b0b 123e 3acf 8d2b d99e 7c2b
1.3819195 3.1371202 1.3564745 3.5383327 2.3221407 2.067788 1.0708514 4.2863607
2.4729376 1.228064 3.8466928 0.42193407 2.3999567 0.8240526 1.2648963 1.7674857
2.475787 0.39597958 2.648156 0.54755896 0.8630761 1.549145 1.9218996 0.6864916
0.6335821 0.94166416 1.6496332 1.1671065 1.4705666 0.8606185 1.1780504 1.1874
0.4660413 0.63783145 3.7123738e-11 3.6940753e-11 4.281909 4.797343 8.761084 4.114105
6.1663933 8.245912 7.7443743 5.196045 9.875616 2.4727619 4.890151 4.176214
6.2572227 0.66542214 6.390357 1.6675653 5.7823634 2.006892 2.946929 4.5114474
2.7793028 3.4647517 3.9027174 2.4827948 3.5281043 3.0284772 2.3276448 3.209414
1.9021713 2.5574682 4.0650196 1.1437271 3.2654889 3.2695384 4.5034323 0.86673856
9.368765 10.0 9.854509 10.0 9.543249 5.1065874 9.270277 8.93746
8.842768 8.271842 9.017172 4.894686 7.690321 6.0996385 6.054261 7.4940796
5.8831253 6.419934 4.119621 7.095258 8.36893 3.8086443 0.9396894 7.7291293
4.294713 4.8048463 4.1057835 6.955162 0.97406 2.8614087 0.64845794 4.381277
0.24748147 4.859714 8.094821 1.4032652 3.2138116 2.6790602 9.377293 8.632135
2.767858 1.7999548 3.0109 0.735656 1.910693 0.17856903 0.0 0.98417073
2.115208 1.8134854 1.2005018 1.8817894 0.7438696 1.3010757 0.6840637 0.66225237
0.28666875 1.0143523 0.67565703 0.6918271 0.55930644 0.49167413 1.050407 0.18592528
0.37844098 0.50876725 0.28585947 0.31363657 0.3507578 0.14262025 1.007617e-12 8.974883e-13

w f4 [1, 144, 1]
00000000: bde2 b03f 94c6 4840 f5a0 ad3f 0b74 6240
00000010: f49d 1440 a356 0440 a911 893f de29 8940
00000020: 9c44 1e40 3331 9d3f 3730 7640 be07 d83e
00000030: e498 1940 1cf5 523f 1fe8 a13f f93c e23f
00000040: 4b73 1e40 d6bd ca3e 637b 2940 d32c 0c3f
00000050: 8ef2 5c3f 624a c63f ce00 f63f eabd 2f3f
00000060: 7032 223f e710 713f 2e27 d33f bf63 953f
00000070: 873b bc3f 7e51 5c3f 5bca 963f b9fc 973f
00000080: f79c ee3e ec48 233f 9d45 232e 9777 222e
00000090: 6605 8940 d583 9940 662d 0c41 c0a6 8340
000000a0: 1853 c540 41ef 0341 ead1 f740 0046 a640
000000b0: 8602 1e41 bb41 1e40 1e7c 9c40 8ca3 8540
000000c0: 2b3b c840 1b59 2a3f ce7d cc40 c872 d53f
000000d0: 1f09 b940 eb70 0040 7c9a 3c40 c75d 9040
000000e0: 19e0 3140 7ebe 5d40 1fc6 7940 1ce6 1e40
000000f0: 76cc 6140 92d2 4140 22f8 1440 0a67 4d40
00000100: 597a f33f 8fad 2340 a414 8240 a665 923f
00000110: c5fd 5040 1e40 5140 1e1c 9040 94e2 5d3f
00000120: 76e6 1541 0000 2041 12ac 1d41 0000 2041
00000130: 26b1 1841 2a69 a340 0e53 1441 d6ff 0e41
00000140: fa7b 0d41 7759 0441 5646 1041 45a1 9c40
00000150: 1c17 f640 3d30 c340 82bc c140 80cf ef40
00000160: 9042 bc40 1970 cd40 efd3 8340 5b0c e340
00000170: 23e7 0541 d4c0 7340 7c8f 703f 0755 f740
00000180: 4a6e 8940 4dc1 9940 9462 8340 b090 de40
00000190: ff5b 793f 5221 3740 5701 263f 6c33 8c40
000001a0: c86b 7d3e c782 9b40 6384 0141 329e b33f
000001b0: 17af 4d40 b975 2b40 6409 1641 3a1d 0a41
000001c0: 9624 3140 eb64 e63f 96b2 4040 f453 3c3f
000001d0: 9791 f43f cdda 363e 0000 0000 9df2 7b3f
000001e0: 915f 0740 4a20 e83f 0baa 993f 7ade f03f
000001f0: 3d6e 3e3f a689 a63f cc1e 2f3f 5f89 293f
00000200: 3fc6 923e 4cd6 813f dcf7 2c3f 951b 313f
00000210: b52e 0f3f b6bc fb3e bd73 863f 3263 3e3e
00000220: 04c3 c13e 923e 023f 2c5c 923e f994 a03e
00000230: 8796 b33e 0b0b 123e 3acf 8d2b d99e 7c2b
1.3819195 3.1371202 1.3564745 3.5383327 2.3221407 2.067788 1.0708514 4.2863607
2.4729376 1.228064 3.8466928 0.42193407 2.3999567 0.8240526 1.2648963 1.7674857
2.475787 0.39597958 2.648156 0.54755896 0.8630761 1.549145 1.9218996 0.6864916
0.6335821 0.94166416 1.6496332 1.1671065 1.4705666 0.8606185 1.1780504 1.1874
0.4660413 0.63783145 3.7123738e-11 3.6940753e-11 4.281909 4.797343 8.761084 4.114105
6.1663933 8.245912 7.7443743 5.196045 9.875616 2.4727619 4.890151 4.176214
6.2572227 0.66542214 6.390357 1.6675653 5.7823634 2.006892 2.946929 4.5114474
2.7793028 3.4647517 3.9027174 2.4827948 3.5281043 3.0284772 2.3276448 3.209414
1.9021713 2.5574682 4.0650196 1.1437271 3.2654889 3.2695384 4.5034323 0.86673856
9.368765 10.0 9.854509 10.0 9.543249 5.1065874 9.270277 8.93746
8.842768 8.271842 9.017172 4.894686 7.690321 6.0996385 6.054261 7.4940796
5.8831253 6.419934 4.119621 7.095258 8.36893 3.8086443 0.9396894 7.7291293
4.294713 4.8048463 4.1057835 6.955162 0.97406 2.8614087 0.64845794 4.381277
0.24748147 4.859714 8.094821 1.4032652 3.2138116 2.6790602 9.377293 8.632135
2.767858 1.7999548 3.0109 0.735656 1.910693 0.17856903 0.0 0.98417073
2.115208 1.8134854 1.2005018 1.8817894 0.7438696 1.3010757 0.6840637 0.66225237
0.28666875 1.0143523 0.67565703 0.6918271 0.55930644 0.49167413 1.050407 0.18592528
0.37844098 0.50876725 0.28585947 0.31363657 0.3507578 0.14262025 1.007617e-12 8.974883e-13

w f4 [1, 144, 1]
00000000: bde2 b03f 94c6 4840 f5a0 ad3f 0b74 6240
00000010: f49d 1440 a356 0440 a911 893f de29 8940
00000020: 9c44 1e40 3331 9d3f 3730 7640 be07 d83e
00000030: e498 1940 1cf5 523f 1fe8 a13f f93c e23f
00000040: 4b73 1e40 d6bd ca3e 637b 2940 d32c 0c3f
00000050: 8ef2 5c3f 624a c63f ce00 f63f eabd 2f3f
00000060: 7032 223f e710 713f 2e27 d33f bf63 953f
00000070: 873b bc3f 7e51 5c3f 5bca 963f b9fc 973f
00000080: f79c ee3e ec48 233f 9d45 232e 9777 222e
00000090: 6605 8940 d583 9940 662d 0c41 c0a6 8340
000000a0: 1853 c540 41ef 0341 ead1 f740 0046 a640
000000b0: 8602 1e41 bb41 1e40 1e7c 9c40 8ca3 8540
000000c0: 2b3b c840 1b59 2a3f ce7d cc40 c872 d53f
000000d0: 1f09 b940 eb70 0040 7c9a 3c40 c75d 9040
000000e0: 19e0 3140 7ebe 5d40 1fc6 7940 1ce6 1e40
000000f0: 76cc 6140 92d2 4140 22f8 1440 0a67 4d40
00000100: 597a f33f 8fad 2340 a414 8240 a665 923f
00000110: c5fd 5040 1e40 5140 1e1c 9040 94e2 5d3f
00000120: 76e6 1541 0000 2041 12ac 1d41 0000 2041
00000130: 26b1 1841 2a69 a340 0e53 1441 d6ff 0e41
00000140: fa7b 0d41 7759 0441 5646 1041 45a1 9c40
00000150: 1c17 f640 3d30 c340 82bc c140 80cf ef40
00000160: 9042 bc40 1970 cd40 efd3 8340 5b0c e340
00000170: 23e7 0541 d4c0 7340 7c8f 703f 0755 f740
00000180: 4a6e 8940 4dc1 9940 9462 8340 b090 de40
00000190: ff5b 793f 5221 3740 5701 263f 6c33 8c40
000001a0: c86b 7d3e c782 9b40 6384 0141 329e b33f
000001b0: 17af 4d40 b975 2b40 6409 1641 3a1d 0a41
000001c0: 9624 3140 eb64 e63f 96b2 4040 f453 3c3f
000001d0: 9791 f43f cdda 363e 0000 0000 9df2 7b3f
000001e0: 915f 0740 4a20 e83f 0baa 993f 7ade f03f
000001f0: 3d6e 3e3f a689 a63f cc1e 2f3f 5f89 293f
00000200: 3fc6 923e 4cd6 813f dcf7 2c3f 951b 313f
00000210: b52e 0f3f b6bc fb3e bd73 863f 3263 3e3e
00000220: 04c3 c13e 923e 023f 2c5c 923e f994 a03e
00000230: 8796 b33e 0b0b 123e 3acf 8d2b d99e 7c2b
1.3819195 3.1371202 1.3564745 3.5383327 2.3221407 2.067788 1.0708514 4.2863607
2.4729376 1.228064 3.8466928 0.42193407 2.3999567 0.8240526 1.2648963 1.7674857
2.475787 0.39597958 2.648156 0.54755896 0.8630761 1.549145 1.9218996 0.6864916
0.6335821 0.94166416 1.6496332 1.1671065 1.4705666 0.8606185 1.1780504 1.1874
0.4660413 0.63783145 3.7123738e-11 3.6940753e-11 4.281909 4.797343 8.761084 4.114105
6.1663933 8.245912 7.7443743 5.196045 9.875616 2.4727619 4.890151 4.176214
6.2572227 0.66542214 6.390357 1.6675653 5.7823634 2.006892 2.946929 4.5114474
2.7793028 3.4647517 3.9027174 2.4827948 3.5281043 3.0284772 2.3276448 3.209414
1.9021713 2.5574682 4.0650196 1.1437271 3.2654889 3.2695384 4.5034323 0.86673856
9.368765 10.0 9.854509 10.0 9.543249 5.1065874 9.270277 8.93746
8.842768 8.271842 9.017172 4.894686 7.690321 6.0996385 6.054261 7.4940796
5.8831253 6.419934 4.119621 7.095258 8.36893 3.8086443 0.9396894 7.7291293
4.294713 4.8048463 4.1057835 6.955162 0.97406 2.8614087 0.64845794 4.381277
0.24748147 4.859714 8.094821 1.4032652 3.2138116 2.6790602 9.377293 8.632135
2.767858 1.7999548 3.0109 0.735656 1.910693 0.17856903 0.0 0.98417073
2.115208 1.8134854 1.2005018 1.8817894 0.7438696 1.3010757 0.6840637 0.66225237
0.28666875 1.0143523 0.67565703 0.6918271 0.55930644 0.49167413 1.050407 0.18592528
0.37844098 0.50876725 0.28585947 0.31363657 0.3507578 0.14262025 1.007617e-12 8.974883e-13

w f4 [1, 144, 1]
00000000: bde2 b03f 94c6 4840 f5a0 ad3f 0b74 6240
00000010: f49d 1440 a356 0440 a911 893f de29 8940
00000020: 9c44 1e40 3331 9d3f 3730 7640 be07 d83e
00000030: e498 1940 1cf5 523f 1fe8 a13f f93c e23f
00000040: 4b73 1e40 d6bd ca3e 637b 2940 d32c 0c3f
00000050: 8ef2 5c3f 624a c63f ce00 f63f eabd 2f3f
00000060: 7032 223f e710 713f 2e27 d33f bf63 953f
00000070: 873b bc3f 7e51 5c3f 5bca 963f b9fc 973f
00000080: f79c ee3e ec48 233f 9d45 232e 9777 222e
00000090: 6605 8940 d583 9940 662d 0c41 c0a6 8340
000000a0: 1853 c540 41ef 0341 ead1 f740 0046 a640
000000b0: 8602 1e41 bb41 1e40 1e7c 9c40 8ca3 8540
000000c0: 2b3b c840 1b59 2a3f ce7d cc40 c872 d53f
000000d0: 1f09 b940 eb70 0040 7c9a 3c40 c75d 9040
000000e0: 19e0 3140 7ebe 5d40 1fc6 7940 1ce6 1e40
000000f0: 76cc 6140 92d2 4140 22f8 1440 0a67 4d40
00000100: 597a f33f 8fad 2340 a414 8240 a665 923f
00000110: c5fd 5040 1e40 5140 1e1c 9040 94e2 5d3f
00000120: 76e6 1541 0000 2041 12ac 1d41 0000 2041
00000130: 26b1 1841 2a69 a340 0e53 1441 d6ff 0e41
00000140: fa7b 0d41 7759 0441 5646 1041 45a1 9c40
00000150: 1c17 f640 3d30 c340 82bc c140 80cf ef40
00000160: 9042 bc40 1970 cd40 efd3 8340 5b0c e340
00000170: 23e7 0541 d4c0 7340 7c8f 703f 0755 f740
00000180: 4a6e 8940 4dc1 9940 9462 8340 b090 de40
00000190: ff5b 793f 5221 3740 5701 263f 6c33 8c40
000001a0: c86b 7d3e c782 9b40 6384 0141 329e b33f
000001b0: 17af 4d40 b975 2b40 6409 1641 3a1d 0a41
000001c0: 9624 3140 eb64 e63f 96b2 4040 f453 3c3f
000001d0: 9791 f43f cdda 363e 0000 0000 9df2 7b3f
000001e0: 915f 0740 4a20 e83f 0baa 993f 7ade f03f
000001f0: 3d6e 3e3f a689 a63f cc1e 2f3f 5f89 293f
00000200: 3fc6 923e 4cd6 813f dcf7 2c3f 951b 313f
00000210: b52e 0f3f b6bc fb3e bd73 863f 3263 3e3e
00000220: 04c3 c13e 923e 023f 2c5c 923e f994 a03e
00000230: 8796 b33e 0b0b 123e 3acf 8d2b d99e 7c2b
1.3819195 3.1371202 1.3564745 3.5383327 2.3221407 2.067788 1.0708514 4.2863607
2.4729376 1.228064 3.8466928 0.42193407 2.3999567 0.8240526 1.2648963 1.7674857
2.475787 0.39597958 2.648156 0.54755896 0.8630761 1.549145 1.9218996 0.6864916
0.6335821 0.94166416 1.6496332 1.1671065 1.4705666 0.8606185 1.1780504 1.1874
0.4660413 0.63783145 3.7123738e-11 3.6940753e-11 4.281909 4.797343 8.761084 4.114105
6.1663933 8.245912 7.7443743 5.196045 9.875616 2.4727619 4.890151 4.176214
6.2572227 0.66542214 6.390357 1.6675653 5.7823634 2.006892 2.946929 4.5114474
2.7793028 3.4647517 3.9027174 2.4827948 3.5281043 3.0284772 2.3276448 3.209414
1.9021713 2.5574682 4.0650196 1.1437271 3.2654889 3.2695384 4.5034323 0.86673856
9.368765 10.0 9.854509 10.0 9.543249 5.1065874 9.270277 8.93746
8.842768 8.271842 9.017172 4.894686 7.690321 6.0996385 6.054261 7.4940796
5.8831253 6.419934 4.119621 7.095258 8.36893 3.8086443 0.9396894 7.7291293
4.294713 4.8048463 4.1057835 6.955162 0.97406 2.8614087 0.64845794 4.381277
0.24748147 4.859714 8.094821 1.4032652 3.2138116 2.6790602 9.377293 8.632135
2.767858 1.7999548 3.0109 0.735656 1.910693 0.17856903 0.0 0.98417073
2.115208 1.8134854 1.2005018 1.8817894 0.7438696 1.3010757 0.6840637 0.66225237
0.28666875 1.0143523 0.67565703 0.6918271 0.55930644 0.49167413 1.050407 0.18592528
0.37844098 0.50876725 0.28585947 0.31363657 0.3507578 0.14262025 1.007617e-12 8.974883e-13
